simple_3dunet/checkpoints/test/backup/0.01-200/200.pth (torch, 377059 bytes, 49 tensors)

input.double_conv3d.0.weight f4 [4, 2, 3, 3, 3]
00000000: 187f fabb 6934 8cbb 7b75 c93b e6a4 b6bb
00000010: aa15 98bd 7b86 42bc 3b19 fe3c 1ddd 31bd
00000020: 7d89 ce3c 7cc7 2fbd 6bfa 2abd 3b35 08bd
00000030: 84df 24bd e493 e7bd daab 52bd 9f12 043c
00000040: a841 a1bd 6598 23bc 7ec1 babb 203e deba
00000050: a6e4 0f39 7c95 1abb bf69 98bd c33e 7dbc
00000060: fa90 083d 7e7b 31bd 52f9 b03c c946 dabb
00000070: 38f3 4dbb 7e26 e43b b1e4 d3bb 85fc 97bd
00000080: e287 4dbc 1074 ec3c de23 30bd 1aca c23c
00000090: ae2e 3abd 1c67 2fbd 82cf f0bc e3e7 1bbd
000000a0: 9c92 efbd 019b 52bd c87a de3b 24da 9fbd
000000b0: 8eb9 22bc 5f8a e4bb 64dd bcbb 180e f3ba
000000c0: 8634 deba fe4c 93bd 892e 6ebc 2600 113d
000000d0: d3ed 3ebd 1e0b ac3c cf24 b63d 095e d13d
000000e0: 437b e83d 1882 733d 4436 593c 9407 b43d
000000f0: 0474 383d 670d cd3c 5226 e13d 03d9 353e
00000100: de7a 473e 3535 483e 0593 e33d a0a6 6d3d
00000110: 3646 0b3e f361 283d 5e2a cc3c 6b88 f33d
00000120: 5846 fe3d 9a6b 053e 3063 173e 3bd3 3c3d
00000130: 2625 12bc a472 993d 3fa8 2bbc 9b19 17bd
00000140: 8dc3 413d 4515 b63d 5948 d03d c3b2 e73d
00000150: 51c3 6e3d 263e 863c e837 b43d 5635 333d
00000160: 8bfc bb3c 3861 d43d b955 363e afb7 4a3e
00000170: 38e2 453e 3409 e83d c47d 6d3d 7863 0b3e
00000180: 8ca2 1c3d d62e cb3c a5ee fc3d 9903 023e
00000190: 99fd 043e a4cd 1c3e 7bf6 343d d905 16bc
000001a0: 13ac 993d 7804 bebb 228f 1bbd f340 2f3d
000001b0: 2946 dfbd f41c 143c 99ec d3bd 27d5 c93c
000001c0: e2cb f93d bb8e 4bbc 9ce8 1fbe 7608 83bd
000001d0: 50f7 4cbe 4e75 893d e6dd 903e 053d aebd
000001e0: 7bcb d23e 594e 1e3f e4e1 2c3e 0696 f1bb
000001f0: 20d9 303e 0d82 09be ee1f 30be 1109 1ebd
00000200: 03be 34be 4134 b53d 07ac 7e3e b062 e83b
00000210: 4ea1 e4bd e2f7 9c3c 5831 48be a206 dcbd
00000220: 5946 493c ba2d c1bd e23a 963c 11d6 f53d
00000230: cf76 1bba 5c7d 1ebe d542 9cbd f15b 4fbe
00000240: eb8a 673d dc78 8d3e e3d9 a6bd 2066 d23e
00000250: 0254 1f3f 0b42 243e 7b9c afbb f0f0 3c3e
00000260: 67fe 0abe 025d 2abe 6312 f8bc 9014 41be
00000270: cbff bb3d 23f4 7d3e fba7 a53b 31e1 ffbd
00000280: dc6f 8d3c d527 43be d596 b5bc b773 a73b
00000290: f637 e3bb af3c 02bb 153d 8abd b440 10bc
000002a0: f1f1 db3c 62e3 39bd f5df c03c 99fd 75bd
000002b0: debc 10bd bb9e 47bd e75d fbbc 8aeb d5bd
000002c0: d7a7 3dbd c0ad f33b 4ad1 97bd 7296 46bc
000002d0: f8cc 98bc 8b85 a63b 47a8 abbb 8279 a1bb
000002e0: a79c 74bd 0b02 09bc 20bc e93c 324c 48bd
000002f0: 4f68 b23c cb63 b5bc e331 a33b 2853 ffbb
00000300: 264e 0bbb f639 8abd 2852 e5bb eb7a da3c
00000310: 4621 3abd 08ca bd3c 3379 76bd 14c1 10bd
00000320: 1e12 4dbd 8cca f6bc dbea d5bd 7ac1 3cbd
00000330: eca0 053c ce51 98bd cc94 39bc 7639 9abc
00000340: b1f5 a33b ab02 d1bb 7018 b7bb 229b 74bd
00000350: ad3f 0abc 22a2 ee3c 31b7 48bd 780a ae3c
-0.0076445453 -0.0042787087 0.006148038 -0.0055738566 -0.07426007 -0.011872883 0.03101789 -0.04342376
0.025212044 -0.042914852 -0.041742723 -0.03325389 -0.040252224 -0.11307505 -0.05143342 0.00806108
-0.07873851 -0.009985064 -0.0056993356 -0.001695577 0.00013722721 -0.0023587635 -0.074420445 -0.015456858
0.033341385 -0.043330662 0.02160326 -0.0066612703 -0.0031425487 0.0069625964 -0.006466471 -0.07421211
-0.012544604 0.028863937 -0.043002956 0.02377801 -0.045454673 -0.042822942 -0.029395822 -0.03806294
-0.116978854 -0.051417354 0.006789539 -0.07805279 -0.009931935 -0.006974503 -0.0057636965 -0.0018543629
-0.0016952909 -0.071924195 -0.014537462 0.035400532 -0.046613526 0.021001395 0.088937394 0.10223014
0.11351635 0.05945024 0.013257567 0.08790508 0.045032516 0.025030805 0.10993637 0.17758565
0.19480464 0.19551547 0.11112026 0.058020234 0.13601002 0.041109037 0.024922546 0.11891254
0.12415761 0.13029328 0.14783931 0.046099883 -0.00891999 0.07492569 -0.010477125 -0.036889654
0.047305632 0.088907756 0.10170049 0.11313393 0.058291737 0.016387057 0.08799726 0.043752037
0.02294757 0.103701055 0.17806138 0.19796632 0.19324577 0.1132988 0.057981268 0.13612163
0.038240954 0.024802607 0.12350205 0.12696685 0.12987365 0.1531282 0.044180375 -0.009156668
0.07503524 -0.0057988726 -0.0379783 0.04278655 -0.10902054 0.009040106 -0.10347862 0.024637772
0.12197091 -0.012424166 -0.15616077 -0.06398098 -0.20016217 0.06711827 0.28294295 -0.08507732
0.41170868 0.618383 0.16883045 -0.0073726205 0.17270327 -0.13428517 -0.1719968 -0.038582865
-0.17650609 0.08847857 0.2487031 0.0070918426 -0.11163579 0.019161168 -0.19550073 -0.107434526
0.012284839 -0.0943255 0.018338624 0.120037206 -0.00059304846 -0.15477508 -0.07629935 -0.20249917
0.056528967 0.2763127 -0.08147027 0.4109354 0.6223756 0.16040818 -0.00535923 0.18451285
-0.1357361 -0.16637042 -0.030282205 -0.188555 0.09179648 0.24800162 0.005055425 -0.12494124
0.017265253 -0.19058163 -0.022166649 0.00511023 -0.0069341613 -0.0019872596 -0.06749932 -0.008804489
0.026848765 -0.045382865 0.023544291 -0.060056303 -0.035336368 -0.04873536 -0.030684425 -0.10445316
-0.046302643 0.007436484 -0.074129656 -0.01212083 -0.018652424 0.0050818375 -0.005238566 -0.004927815
-0.059719708 -0.0083623035 0.028532088 -0.04890079 0.021778254 -0.022142312 0.004980312 -0.0077918954
-0.0021256297 -0.067493364 -0.006998319 0.02666994 -0.04544189 0.023167625 -0.06017418 -0.035340384
-0.050066106 -0.030125879 -0.10445186 -0.04608295 0.008156043 -0.07437478 -0.01132698 -0.018826228
0.005003654 -0.006378492 -0.00558763 -0.05971826 -0.008438033 0.029130045 -0.04900283 0.021245226

input.double_conv3d.0.bias f4 [4]
00000000: 47a3 603a dc94 c9ba 5466 7cbe 2d8c 5f3a
0.0008569252 -0.0015379447 -0.2464841 0.0008527663

input.double_conv3d.3.weight f4 [4, 4, 3, 3, 3]
00000000: 9700 893d 4de3 7f3d fd55 7e3c 69da 983d
00000010: a07e 7c3d b31e 1f3c 84c4 823d 246a 4d3d
00000020: 4d8f 5a3c a44e 803d 60e7 743d 94fa 443c
00000030: 6547 993d a6fe 723d 0e43 a53b a577 8c3d
00000040: 7f23 473d 8888 273c ba6f 833d 5b84 713d
00000050: bebe 853c cfc4 9b3d 9cd1 843d 1b16 2e3c
00000060: fe9d 843d db27 473d d4f7 693c cb63 2bbd
00000070: 4f00 cbbc e72f 29bd 4bde 10bd 9b39 f6bc
00000080: 3091 38bd 61ac 26bd bb5d 28bd bdce 2cbd
00000090: be43 57bd 4be7 eebc 8aaf 4bbd 4539 28bd
000000a0: 0f09 f1bc 478d 48bd 7afc 21bd daa7 2fbd
000000b0: 69d8 33bd c98d 08bd 6d28 9abc 378e 12bd
000000c0: 687d f2bc fd61 d3bc 5023 0dbd a13e 0cbd
000000d0: 2699 2cbd 9647 14bd fb69 043c da9e d9bb
000000e0: 00c9 8ebb 4017 babb 5f29 9fbc ccba 42bc
000000f0: 47ed 82bc 4d9d aabc b8e7 c6bc 8054 073c
00000100: e9e4 2bbc e417 b0bb f593 c9bb b191 a3bc
00000110: ccc6 1fbc 2ba8 98bc c2c8 cabc fc16 bdbc
00000120: 7c31 a13b 712e 3cbc ba42 0cbc 28b8 f9bb
00000130: d99d b8bc c964 6abc 9fd6 76bc e4a0 b6bc
00000140: 7031 cdbc 5904 783d 8709 313d 5c4f 3e3b
00000150: ff83 793d 3164 3b3d d461 b8bb 24ec 523d
00000160: 9c1b de3c ab2d 2bba 066d 3e3d fdcc 243d
00000170: 9512 a13b 90ad 733d 4767 383d d992 083b
00000180: af77 4e3d 24ee 0b3d e78a 883a 67dc 393d
00000190: 8511 393d 6019 63bb 2fbd 4f3d 4c7b 2c3d
000001a0: 4091 d33a b12b 273d 95c9 eb3c aec7 0b3b
000001b0: bb18 1ebd a60a 53bc 64b2 6dbd b84c b6bc
000001c0: 15dd 41ba 1536 12bd 4b40 0bbd 8cb8 7abc
000001d0: f5fe ebbc 8c3d c6bc eb99 9fbb e993 1ebd
000001e0: 655b d7bb fbe9 a13c 6d6c 44bc 0e46 0cbc
000001f0: 8fa8 923c bef9 19bc a828 75bd eaf4 1bbd
00000200: 46a6 92bd 9f84 88bc 0055 0d3b 08b5 05bd
00000210: 3b39 f4bc 3673 74ba c2f6 c4bc d89e 0abe
00000220: 1c52 9ebd 7954 26be 5bfc 2a3a a55d 933d
00000230: 02a4 babc f2a5 62bd 226b e83c 9e15 26bd
00000240: 8494 53bd ce4f 04bc 30aa 01be 8170 cd3d
00000250: cb21 303e 4779 cc3c 4362 e83c ea9b ce3d
00000260: 08b1 15bc ed54 bbbd 8400 80bd 96a9 18be
00000270: 905b db3c 1f3e 723d fd06 1dbd 5aba 24bd
00000280: 87d7 9e3c 141f 66bd 0eb2 41bd ea7c 4b3e
00000290: 7ab9 383e 1f33 083d 3ae7 873e bd60 993e
000002a0: 2fa9 a1bd d49c 163e 7a53 433e 7d59 e13d
000002b0: dffd c63e c12a 713e 4bdd 9f3e ae86 173f
000002c0: 0cf4 fb3e 236b 443e 21bf ff3e 13b1 f13e
000002d0: 41ef 5fbe 487d bcbd 7690 c0bd 9c66 23bd
000002e0: 892a cb3d a0ee 553d 9faf ec3a d061 0b3e
000002f0: e354 033e 3ded 00bd f249 2d3b c53a 07bd
00000300: 3600 f3bc 2afe 253c ec69 acbb 2c3b 0cbd
00000310: b262 35bb abb3 c8bc 5d7a 78bc 0003 4e3c
00000320: e95f debc 581c 9cbc fd9f c23c 3e83 c83b
00000330: d2c6 43bc aae0 b83c 16f5 0f3b 0c53 34bd
00000340: d6f4 02bd c1cb 80bd 75d3 b1bc 718a 7f3c
00000350: 3a5f a5bc 21e0 d7bc 691a 56bc 43ff 5dbc
00000360: fafb 0c3e 07bc 053e 6fb3 e53d 880b 123e
00000370: 577d 063e 23d5 f73d 05c1 113e 5bd1 043e
00000380: 22e8 f53d 9b5c 073e 3f0f 043e 50ef df3d
00000390: 2f8a 0f3e 0abd 013e 4a8a ec3d 5fd2 083e
000003a0: 3dac fb3d b75e ea3d 40e5 083e 0b4e 033e
000003b0: 3888 e13d fab7 0d3e 9b0b 053e 30f6 f03d
000003c0: 442a 093e 53b7 fb3d b286 f23d 2814 cc3a
000003d0: 8ee4 6abb a88a 78bc 78e5 aa3d 5ac7 903d
000003e0: d385 3a3d ae38 a83d 1885 b03d a007 883d
000003f0: 8386 eb3c db0f 4c3c 25b3 f0bc 08d6 d83d
0.06689566 0.06247263 0.015523431 0.074635334 0.061644197 0.009711909 0.06385139 0.05015005
0.01333983 0.062649995 0.05979097 0.012022633 0.074843206 0.059324883 0.005043394 0.06858758
0.048617836 0.010225423 0.064177945 0.058964115 0.016326305 0.07605898 0.06485292 0.010625388
0.06475447 0.048621994 0.014280278 -0.041843217 -0.02478042 -0.04130545 -0.035368245 -0.030056765
-0.045060337 -0.040691737 -0.041105013 -0.04218935 -0.05255484 -0.029163023 -0.049727954 -0.04107024
-0.029423265 -0.048962858 -0.03954742 -0.042884685 -0.043907557 -0.03333834 -0.018818105 -0.035780158
-0.029600814 -0.02580356 -0.034457505 -0.034239415 -0.04213824 -0.036201082 0.008081908 -0.006641251
-0.004357457 -0.005679041 -0.019428907 -0.011885356 -0.015982283 -0.02082696 -0.024280414 0.008259892
-0.010491588 -0.0053739417 -0.006151671 -0.019966932 -0.009751987 -0.018634876 -0.024753932 -0.023082249
0.004919229 -0.011485682 -0.008560831 -0.00762083 -0.022536205 -0.014306256 -0.015065818 -0.022293516
-0.025047988 0.06055102 0.043221977 0.0029039 0.060916897 0.045749847 -0.0056268964 0.051494732
0.027112775 -0.00065299374 0.04649069 0.040234555 0.004915545 0.059491694 0.045020368 0.002083948
0.050407108 0.034162655 0.0010417373 0.045376208 0.045182724 -0.0034652576 0.05071753 0.042109773
0.001614131 0.04081315 0.028782645 0.0021328735 -0.038597804 -0.012880957 -0.058031455 -0.02225338
-0.00073953095 -0.035696108 -0.03399686 -0.0153027885 -0.028808096 -0.02419927 -0.0048706434 -0.038715277
-0.0065721744 0.01976489 -0.011988741 -0.008561624 0.01790264 -0.009397922 -0.059853226 -0.038075365
-0.071606204 -0.016664801 0.0021565557 -0.032643348 -0.029812446 -0.0009325029 -0.024043445 -0.13537157
-0.07730505 -0.16243161 0.0006522589 0.07195596 -0.022783283 -0.05533404 0.028371397 -0.04054796
-0.051655307 -0.008075668 -0.12662578 0.10031224 0.17200391 0.024960173 0.028367167 0.10088332
-0.009136446 -0.09147058 -0.06250098 -0.14908442 0.026777059 0.059141275 -0.038336743 -0.04021678
0.01938988 -0.056181982 -0.047288947 0.1987187 0.18039504 0.033251878 0.265436 0.29956618
-0.07893597 0.14708263 0.19074813 0.11003397 0.38865563 0.23551466 0.3122352 0.5918988
0.4920963 0.19181494 0.49950507 0.4720541 -0.21868612 -0.09203583 -0.09402554 -0.039892778
0.09920222 0.052229524 0.001805771 0.13611531 0.1282535 -0.031476248 0.002644178 -0.03301503
-0.029663187 0.010131398 -0.0052616503 -0.03423612 -0.0027677235 -0.024499735 -0.015165892 0.012573957
-0.027145343 -0.019056484 0.023757929 0.006119161 -0.011949258 0.022568066 0.002196615 -0.044024512
-0.031971775 -0.06288863 -0.021707276 0.015596972 -0.02018701 -0.02635199 -0.01306782 -0.013549629
0.13767996 0.13060008 0.11215865 0.14262211 0.13133751 0.121011995 0.14233787 0.12970488
0.120071664 0.1321892 0.12896441 0.10934317 0.14017557 0.12669769 0.11549814 0.133615
0.12288711 0.11443847 0.13368702 0.1282274 0.1101231 0.13839713 0.12992708 0.117657065
0.1339503 0.12290826 0.11842097 0.0015569972 -0.0035841796 -0.015169777 0.08344549 0.07069273
0.04553778 0.08213936 0.086191356 0.06642079 0.028750664 0.012454952 -0.029382298 0.10587698

input.double_conv3d.3.bias f4 [4]
00000000: f03d eab9 d9f7 8cbe 2b62 4abd a4df 7abc
-0.00044678105 -0.27532843 -0.049410027 -0.015312109

input.shortcut.weight f4 [4, 2, 1, 1, 1]
00000000: e555 493e d1d4 ce3c 2966 463d 0f5c 453f
00000010: 3c3c f73e 7d37 c13e e3ad 80be 065f 55bc
0.19661672 0.025247963 0.04843727 0.77093595 0.48288143 0.37737647 -0.25132665 -0.013023144

input.shortcut.bias f4 [4]
00000000: 1f4b 9dbe 101b c0bd 88f3 b1be e129 b73e
-0.30721375 -0.09380162 -0.34756112 0.3577414

down1.down_block3d.1.double_conv3d.0.weight f4 [8, 4, 3, 3, 3]
00000000: 3f73 3bbd 8769 2bbd a557 63bd 1bdc 38bd
00000010: 4b44 1cbd 54a0 3abd 759e 3ebd 7165 39bd
00000020: 78d1 4ebd 6a8e 84bd 906d 67bd 84f0 6dbd
00000030: 35e7 6abd c3aa 53bd ecbe 7abd 7fef 84bd
00000040: f59a 57bd 4c5d 75bd 35c6 77bd 683d 54bd
00000050: d001 75bd 60c8 5abd 5bdb 4fbd 5245 6fbd
00000060: ee3c 73bd 0549 39bd afd8 4fbd f6d4 b6bd
00000070: 9702 513e beb4 e33e 37de fcbd 38c0 483e
00000080: 59af 003f b4dd 78be 40d8 993d e637 c93e
00000090: 7af1 81be 8396 ea3d 5f0c 003f 7a36 c7be
000000a0: 3ef9 583d 74bd f93e 925b 06bf a139 0abe
000000b0: 7690 903e 764d 30be 3aa6 dd3d 341b bc3e
000000c0: 8465 9cbe ccfb f93b cda1 9c3e afa1 d1be
000000d0: 2bf6 e1bd f4a4 453e 4636 c13c b042 8d3c
000000e0: 6a0a 8c3c 4476 823b c4b3 ec3b 2341 8b3d
000000f0: 3229 9cbd 3171 7dbd 6353 883b 3f96 fabc
00000100: 9413 383d 2921 c53d 33b2 debd ec3d 30bb
00000110: e54a cf3d 1fd0 4fbe bc40 d6bd b6d9 94bb
00000120: 26df 7fbd 66c2 a13c ade2 e03b 4858 00be
00000130: 7140 0ebd ebae 98bc e570 41be aaa9 c7bd
00000140: 7e67 a3bd 3af9 54bd 3742 39be 6162 3cbe
00000150: 265f aabc b1bd 0cbe bcee 47be 0ee8 4b3d
00000160: 7a3b b8bd c86f 2dbe 951b cb3d e5bf aebd
00000170: acf9 53be 0844 243e f5c9 63bd 53e6 53be
00000180: f8b9 3c3e e372 88bc 5142 2fbe 9915 2a3e
00000190: 330c a83c 2608 b7bd 152b 813e 11db ae3d
000001a0: 9f3c d3bd 1b13 883e 95a0 b83d 1c23 e7bd
000001b0: 54f3 843d 2d41 233d dc2c 54bb 43c0 843d
000001c0: 1868 243d 504d e2b7 9747 6f3d a05b bd3c
000001d0: 1635 66bc 8d7e a23d ba56 583d 74ae f93b
000001e0: d1be a43d 8e08 5a3d 1887 343c 77d7 973d
000001f0: 03dd 0e3d b8d6 63bb f852 8d3d 9698 1f3d
00000200: ed85 e0bb b722 8e3d 696e 1d3d 6209 a4bb
00000210: 5403 7e3d 950d b03c b4a1 95bc f68e 32bd
00000220: e63f 08bd c4c7 863c eee6 27bd 1e5f 1abd
00000230: 8cdc 623c f3f0 a7bc 86bf 3dbc fc05 123d
00000240: 7f76 5dbd 5020 21bd ad5f 183c 1bb5 5ebd
00000250: d5dc 35bd dfb2 b23b 4c27 21bd 2b21 bcbc
00000260: 2af0 cb3c 6f39 3fbd 6409 03bd 3c36 163c
00000270: 17d3 39bd 8a6a 11bd 09cf cd3b 458b 0bbd
00000280: 7854 87bc 355c c03c 0769 3fbc 3a3b cabb
00000290: 9ff5 1b3c 4d1d 0fbc 752c 39bc e105 7a3b
000002a0: 3e13 e3bb 76ea 10bc 25f7 a13b 5b45 eebb
000002b0: 1065 f9b9 8d73 6e3c d80a 92bb 4bd4 bdbb
000002c0: b0e8 133c b7cd 69bb 91f6 7abb ee74 233c
000002d0: 872d b3bb 09fe 0c3b b090 533c 9662 24bb
000002e0: c7ea e3ba 704d 063c c6fa 11ba 0113 ac3a
000002f0: e9f8 1d3c 2f92 5abd 9ab0 3ebd f77a f3bc
00000300: fc85 55bd 8ac2 32bd 4da8 f7bc 8107 44bd
00000310: dd4c 13bd c72d e7bc d23c 4abd b0dd 30bd
00000320: 1809 d4bc ed9d 46bd d91f 2bbd 074c e4bc
00000330: d098 39bd 1748 14bd 6bcf e3bc 8f20 5abd
00000340: 4724 3ebd ba26 d8bc 40a3 54bd d868 32bd
00000350: 38fc e2bc f8d4 41bd 542c 13bd 94f5 ccbc
00000360: f571 3bbe d484 33be bbfc 4abe 40f9 34be
00000370: 49e2 3abe 0354 40be f28a 39be 28d3 3cbe
00000380: 90e1 3bbe a8e8 43be ec66 3cbe eab8 56be
00000390: 00d7 3cbe 1c72 42be 5a15 4bbe 917e 42be
000003a0: 3585 45be e467 46be e2b0 3abe fd95 31be
000003b0: 5cf7 4abe a971 33be ab1a 37be b01b 40be
000003c0: f01e 36be a83b 39be 0ce0 39be 2b59 383e
000003d0: f391 f63d 0f33 49bd 69a8 873d 1fca 8e3b
000003e0: b7ac 24be b145 da3c cb99 0fbd b1f8 5cbe
000003f0: 1abe 873d bda8 1a3d 4599 97bd c27e 47bd
-0.045764204 -0.041848686 -0.055503506 -0.045131784 -0.038151067 -0.045563057 -0.046537835 -0.045262758
-0.050492734 -0.06472476 -0.05650097 -0.0580907 -0.057349402 -0.051676523 -0.061217234 -0.06490993
-0.052638013 -0.059903428 -0.06049176 -0.051816374 -0.05981618 -0.05341375 -0.050746303 -0.05841572
-0.05938428 -0.045235652 -0.050743755 -0.08927338 0.20411144 0.44473833 -0.123470716 0.19604576
0.5026756 -0.24303323 0.075119495 0.3930046 -0.25379544 0.11454489 0.50018877 -0.3890875
0.05297207 0.48777354 -0.52483475 -0.13498546 0.28235215 -0.17217049 0.10822721 0.36739504
-0.305462 0.0076288935 0.30592194 -0.40943667 -0.11033281 0.19301206 0.02358545 0.017243713
0.01709481 0.0039813835 0.007223578 0.06799533 -0.07625045 -0.061875526 0.004160331 -0.030589221
0.044940546 0.096254654 -0.108738326 -0.0026892377 0.10121707 -0.20294236 -0.10461566 -0.0045425547
-0.06246867 0.019746017 0.0068629594 -0.12533677 -0.034729425 -0.018638095 -0.18890722 -0.09749158
-0.07978724 -0.051995493 -0.18091665 -0.18396904 -0.020797323 -0.13744237 -0.19524664 0.04978185
-0.08995719 -0.16937172 0.0991737 -0.08532695 -0.20700711 0.16041577 -0.055612523 -0.2069333
0.18430316 -0.016656345 -0.17115141 0.16609801 0.02051363 -0.08937101 0.2522818 0.08537877
-0.10314297 0.26577076 0.090150036 -0.112859935 0.06491724 0.03985708 -0.003237537 0.064819835
0.040138334 -2.69773e-05 0.058417883 0.02311498 -0.014050743 0.07934294 0.052817084 0.0076196734
0.08044208 0.053230815 0.011018537 0.074141435 0.034878742 -0.0034765434 0.06900591 0.038963877
-0.0068519027 0.06940215 0.038435373 -0.0050060013 0.062014893 0.021490851 -0.018265583 -0.04359337
-0.033264063 0.016452678 -0.040991716 -0.037688367 0.013846528 -0.020500636 -0.011581307 0.03565024
-0.054068085 -0.039337456 0.009300155 -0.054371934 -0.044400055 0.005453452 -0.039344117 -0.022965034
0.024894793 -0.046685632 -0.031991377 0.009168204 -0.045367327 -0.035501994 0.006280784 -0.034068365
-0.01651977 0.023481468 -0.011682755 -0.006171611 0.00951901 -0.008735013 -0.011302103 0.0038150477
-0.006929784 -0.008844962 0.004942792 -0.0072714514 -0.00047568278 0.014553917 -0.004456859 -0.0057931296
0.009027645 -0.0035675594 -0.0038293938 0.009976609 -0.0054680738 0.0021513721 0.012912914 -0.0025083176
-0.0017388695 0.0081971735 -0.0005568679 0.0013128222 0.009641864 -0.053362068 -0.04655514 -0.02972172
-0.05212973 -0.04364256 -0.03023162 -0.04785872 -0.035961974 -0.02822007 -0.04937441 -0.043180168
-0.025883242 -0.048490454 -0.04177842 -0.027868284 -0.04531175 -0.036201563 -0.027808866 -0.053253707
-0.046421316 -0.026385654 -0.0519135 -0.043557018 -0.027708158 -0.047322243 -0.035930946 -0.025019445
-0.1830519 -0.17531139 -0.19822972 -0.17673206 -0.18250383 -0.18782048 -0.1811941 -0.18439925
-0.18347764 -0.1913172 -0.18398637 -0.20968977 -0.18441391 -0.18988842 -0.19832364 -0.18993594
-0.19289096 -0.19375569 -0.18231538 -0.17342372 -0.19820923 -0.17523827 -0.17881267 -0.18760562
-0.17785239 -0.18089163 -0.18151873 0.18002765 0.12039556 -0.04912096 0.066239186 0.004357591
-0.1608151 0.02664456 -0.035058778 -0.21579243 0.06628056 0.037758578 -0.07402281 -0.04870487

down1.down_block3d.1.double_conv3d.0.bias f4 [8]
00000000: 5c7d 91ba 2507 e538 549a 0a3a 5b01 0739
00000010: 10c4 a8bb e582 093c 24dd 8239 1bc1 ef3a
-0.0011099982 0.00010920902 0.0005287279 0.00012875108 -0.0051503256 0.008393024 0.00024960295 0.0018291803

down1.down_block3d.1.double_conv3d.3.weight f4 [8, 8, 3, 3, 3]
00000000: cd78 99bd c832 50bd 6b65 d0bc 9d12 c2bd
00000010: 4d84 71bd 122e a5ba 8d27 acbd e5e6 32bd
00000020: bfd2 8d3c 67c3 05be 0ac9 0bbe 0686 d5bd
00000030: 121c 0abe fedd 11be 4559 a9bd 86b3 edbd
00000040: e56b 05be 6623 96bd b443 27be 66eb 22be
00000050: a82d 0abe f88d 16be 7cbc 14be d179 ecbd
00000060: ae6d 02be 1541 0abe 395e e8bd bdb7 08bd
00000070: b234 5bbc 8cbd f1bc 7ea9 dabc ce14 00bb
00000080: daa0 63bc 454b 0cbd 7c10 3bbc 8bec afbc
00000090: 1fb4 23bc 1380 443c e0e7 9bb8 724c a6bb
000000a0: 807d d83c f094 763c 293e 43bc fca0 853c
000000b0: 292d f93b 6df8 a0bc 173d 05bb a40e 5ebc
000000c0: 5989 9fbc 864b 033c 9253 c93a 20a5 d6bc
000000d0: f96f b339 625b 9dbb d4ed 3abd a862 9ebc
000000e0: 0a0a 3b39 a537 30bd 7c67 0dbd 5952 b2bc
000000f0: cddb 84bd ba51 78bd f5d2 38bd fe6c 0cbd
00000100: 91e4 20bb 6f64 753c cee4 17bd 00a6 afbc
00000110: a99a 32bc 213d 68bd 2d81 40bd f89d eebc
00000120: a2ca 9dbd 7d77 84bd cd5b 3cbd 8363 aabd
00000130: fd85 a2bd 5398 80bd 7433 d9bd 5bf4 cdbd
00000140: ec3e 9fbd 56ad 3dbd 9d31 06bd 38d7 4fbd
00000150: 9193 38bd a060 c2bc 1e9b 1abd 597f 52bd
00000160: 4328 00bd ffd0 2fbd 3287 a8bc 253f 98bb
00000170: 382b b1bc dcdb a4bc c779 953b a6ea 03bc
00000180: 8191 d3bc c08c 45bb bbab 61bc fb13 efbc
00000190: 07b5 3fbc 732b d8bc 62ff e9bc beab cdbb
000001a0: b5b7 79bc cbb1 0fbd 565e 2fbc 0ae0 a2bc
000001b0: 3581 ddbc 7c18 03bd 6a9c 41bd 1910 1bbd
000001c0: 6a78 0ebd ccd3 44bd 2c1b 51bd d80e 32bd
000001d0: 9e9b 59bd 1180 0c3b 25d2 263b 97f2 ebbb
000001e0: e2e2 97bb cc50 1f3a 94fe 01bc dad0 89bc
000001f0: 0fcd 00bc d815 8bbc 73a7 26bd 032e 0cbd
00000200: 413a 2dbd 4573 15bd 7758 d7bc d9b6 04bd
00000210: 6cdb 1fbd d8fd d9bc 13bf 09bd d390 8f3c
00000220: 34c4 3fbd 129d aabd 1efb 38bc bbed 96bd
00000230: 406e c6bd 9e44 b3bc e896 73bd 118a 91bd
00000240: 26d9 cb3b dd0c a3bd b80f e2bd a78d 71bc
00000250: 8adc d8bd 2891 fcbd 3879 bebc 64a7 aebd
00000260: c2c5 d1bd df46 75bd 4a9f 03be 0d53 14be
00000270: 0014 88bd a83a 0cbe e5f2 15be 0264 46bd
00000280: 5301 d7bd d826 e9bd a6e1 08be 41fd 04be
00000290: 2358 00be d4c3 09be cb47 07be 938a 06be
000002a0: 005c 0abe 6c21 0ebe 139d 14be c9a1 d6bd
000002b0: 6475 a9bd d77e 94bd e761 ecbd 7309 b9bd
000002c0: b318 aabd 12c9 fabd 3b8c dfbd af45 e7bd
000002d0: 6211 d2bd 887b b2bd 1f30 a7bd 52c1 e1bd
000002e0: a6a0 bfbd 58bc b6bd fc94 f5bd 604c d9bd
000002f0: f4bc e0bd d62e 77bc 4c97 78bd f00e a6bd
00000300: 4838 2dbd 026c a4bd 7c3a b0bd e41c 2bbd
00000310: ce12 82bd 001a 8bbd 4ff5 17bd 1bff b5bd
00000320: 91bd d6bd d312 6bbd c90c cdbd 1dc1 d5bd
00000330: 4e05 46bd e6a2 a5bd d94f b7bd 5ee1 93bd
00000340: 23fa eabd ff65 07be 3838 9ebd d599 e7bd
00000350: 4722 febd 301c 63bd 8c3f b0bd 3976 cdbd
00000360: cbe2 10be 8fa0 1abe 467c a6bd 824d cb3c
00000370: 1fd0 203d 77fc 15bd 4fd9 223d 4619 693e
00000380: 2d13 453e a4e2 543d 8f77 f93a 69d7 47be
00000390: 5274 843e 6252 7a3e 4561 3fbe 9327 683e
000003a0: 0237 c53e 08c6 ba3c f7eb 203c 245c b33d
000003b0: 97d6 f23c 0e95 073e 3206 893e 5f12 b33d
000003c0: e6bf 463d 58f0 a13e 88a6 293e ae0e 833d
000003d0: bf55 4c3d a0f5 353d bb5f 743d aa09 3f3d
000003e0: 33ba 283d 5dd0 693d 5b8b 303d 020e 203d
000003f0: 3844 893d 09bc 673d 7033 613d cf93 7e3d
-0.07493744 -0.05082968 -0.025438985 -0.094762065 -0.058964062 -0.0012602231 -0.08405981 -0.04367723
0.017312406 -0.13062821 -0.13650909 -0.104259536 -0.1348727 -0.1424484 -0.0826898 -0.11606507
-0.1302944 -0.073309705 -0.1633442 -0.1591011 -0.13493979 -0.14702594 -0.14525026 -0.11546672
-0.12737152 -0.1350139 -0.113460965 -0.03337835 -0.013379263 -0.029509328 -0.026692148 -0.001954365
-0.0138933305 -0.03425147 -0.011417504 -0.021475097 -0.009991675 0.011993426 -7.434166e-05 -0.005075031
0.02642703 0.015050158 -0.011916676 0.016312115 0.0076042605 -0.019649709 -0.0020330602 -0.013553295
-0.019474672 0.008013612 0.0015359989 -0.026201785 0.00034224967 -0.0048021534 -0.045636967 -0.019334152
0.0001783745 -0.043021817 -0.03452252 -0.021767782 -0.06487236 -0.060624816 -0.04512306 -0.03428363
-0.0024550299 0.0149775585 -0.03708344 -0.02144146 -0.010901132 -0.056698922 -0.04699819 -0.02912806
-0.07704665 -0.06468103 -0.045985986 -0.083197616 -0.079357125 -0.062790535 -0.10605517 -0.10056373
-0.07775673 -0.046307884 -0.03276216 -0.050742358 -0.045062605 -0.023727715 -0.037745588 -0.05139098
-0.031288397 -0.042923924 -0.020572279 -0.0046461993 -0.021627054 -0.020124368 0.004561636 -0.00805155
-0.025826218 -0.0030143708 -0.013773854 -0.029184332 -0.011700875 -0.026387906 -0.028564159 -0.006276577
-0.015241553 -0.035081666 -0.010703644 -0.01988222 -0.02703915 -0.032005772 -0.04726831 -0.03785715
-0.034782805 -0.048053548 -0.051051304 -0.043471187 -0.053126924 0.0021438638 0.0025454846 -0.00720055
-0.004635201 0.00060774083 -0.007934231 -0.016823221 -0.00786139 -0.01697819 -0.040687036 -0.034223568
-0.042291883 -0.036486883 -0.0262873 -0.03240094 -0.039027616 -0.0266103 -0.03362949 0.017525112
-0.046817973 -0.0833074 -0.01129034 -0.07369562 -0.09688997 -0.021883305 -0.059470087 -0.07106412
0.0062209545 -0.07961438 -0.11038154 -0.014743245 -0.105889395 -0.12332374 -0.023251161 -0.08528021
-0.102427974 -0.05988204 -0.12853733 -0.14484806 -0.0664444 -0.1369425 -0.14643438 -0.04843522
-0.104982994 -0.11384362 -0.13367328 -0.12987234 -0.12533621 -0.13453609 -0.1321098 -0.131388
-0.13511658 -0.13879937 -0.14513044 -0.10480077 -0.082743436 -0.07250755 -0.11542111 -0.090350054
-0.08305492 -0.12245382 -0.10915419 -0.11292588 -0.10257222 -0.08714968 -0.08163475 -0.11023201
-0.09356813 -0.089226425 -0.11991307 -0.106102705 -0.1097354 -0.01508685 -0.060691163 -0.08108318
-0.042290002 -0.08028413 -0.08604905 -0.0417756 -0.06351243 -0.067920685 -0.03709918 -0.08886548
-0.10485376 -0.057391 -0.10012204 -0.10437224 -0.048344903 -0.08087711 -0.089507766 -0.0722072
-0.11473491 -0.13222502 -0.077255666 -0.11308638 -0.12408882 -0.055446804 -0.086058706 -0.10032315
-0.14149015 -0.1510031 -0.08129172 0.024817232 0.03926098 -0.036617722 0.039758023 0.22763547
0.19245596 0.051973954 0.0019032824 -0.19515766 0.25869995 0.24445489 -0.18689449 0.22671346
0.3851853 0.022799507 0.009821883 0.08757809 0.02964334 0.13240454 0.2676254 0.087437384
0.048522852 0.3162868 0.16567433 0.06399284 0.04988646 0.0444237 0.05966161 0.046640076
0.0411932 0.057083476 0.04310165 0.03907586 0.06702465 0.05657581 0.054980695 0.06215268

down1.down_block3d.1.double_conv3d.3.bias f4 [8]
00000000: 6538 ecb8 63be 533b e502 1e3b b63b 7837
00000010: 1fd1 b9ba d5ce dbb9 beae c23a dcdc 1fbb
-0.00011263861 0.0032309524 0.0024110612 1.4795854e-05 -0.0014176703 -0.00041925037 0.0014853103 -0.0024393117

down1.down_block3d.1.shortcut.weight f4 [8, 4, 1, 1, 1]
00000000: f8cc b235 47be 8135 f38e e036 8c52 41b7
00000010: c223 2db8 ee15 ecb8 827a feb5 be6a 7cb9
00000020: 2384 a636 3a38 1537 887b c5b5 1fe3 c9b6
00000030: 3c33 80b4 9c9a 89b2 07c1 11b4 a6cb d9b4
00000040: 53f0 ac36 ed2e 38b8 c40f b8b6 79a4 b437
00000050: 96ca 4738 d8c4 3439 40bf 3ab7 42de 1739
00000060: 9e50 ce37 53e1 c1b8 2a4f 16b6 34ea 0ab8
00000070: cd22 12b8 8b68 2c38 dc23 ab38 c937 5ab9
1.3321687e-06 9.666627e-07 6.6923617e-06 -1.1522916e-05 -4.1279716e-05 -0.00011257442 -1.8960129e-06 -0.00024072357
4.9625683e-06 8.894183e-06 -1.4713596e-06 -6.016707e-06 -2.3879136e-07 -1.6019207e-08 -1.35744e-07 -4.0567573e-07
5.153977e-06 -4.391272e-05 -5.4854627e-06 2.153426e-05 4.763397e-05 0.00017239468 -1.1130993e-05 0.0001448328
2.4594654e-05 -9.244927e-05 -2.2397821e-06 -3.3119883e-05 -3.4841523e-05 4.110536e-05 8.160595e-05 -0.00020810882

down1.down_block3d.1.shortcut.bias f4 [8]
00000000: eb09 4dbe 27ca ddbe a0a2 d6bd 65d3 febd
00000010: b098 1fbe e79d b5be a672 e7bd 9d2f c43e
-0.20023315 -0.43318292 -0.10480237 -0.12442664 -0.1558559 -0.35472032 -0.11301164 0.38317576

down2.down_block3d.1.double_conv3d.0.weight f4 [16, 8, 3, 3, 3]
00000000: 5272 4dbc 7763 323a 550f ac3b f030 a7bc
00000010: ab6f a9bb ba84 6839 a495 24bd 319f 47bc
00000020: 1f2e 883b 93ce 72bd 3345 19bd 46c6 e8bc
00000030: c4e5 81bd da18 2bbd 3b7c efbc 7ca5 99bd
00000040: 0403 44bd 9ae5 a4bc aad7 bdbd def5 6abd
00000050: 73b8 0ebd 951f ccbd 34d0 87bd d44d 24bd
00000060: 64bb cdbd 3010 88bd ad0d cfbc 8483 f0bd
00000070: f7a9 01be ca08 a4bd f6ca 10be 4d7d 39be
00000080: 8133 fabd 9c2f 0dbe 1982 2ebe 08a6 c1bd
00000090: 01c4 22be f14e 2ebe a901 ffbd 05a1 37be
000000a0: c9f9 51be 94fe 20be cee0 38be 77d8 43be
000000b0: b42b fbbd e190 f1bd 8a9a d6bd 93f4 c7bd
000000c0: 8f68 30be 14b5 35be 6702 fdbd 1cde 2dbe
000000d0: 9a5b 3fbe 6ea7 e1bd 6e0e 80bd 4201 c2bc
000000e0: bada a7b8 af6a 56bd ad39 aabc 2ea4 d53a
000000f0: 266c 7fbd f4a4 c8bc 20a4 643c e18f eebd
00000100: c204 9cbd 2b5b 0fbd 2dce afbd 5e8c 89bd
00000110: c109 e7bc 80b2 95bd 8a76 70bd 0b6a 05bc
00000120: b433 2cbe 2958 e4bd a91c 3fbd 275b 12be
00000130: 9c05 d0bd 46e7 0bbd 7ad6 ecbd 430f a4bd
00000140: 201f 26bb 99db a73c fd6a 78b9 48d9 9abc
00000150: 52f5 53bb c92f 11bc 0901 99bc 76f9 94bc
00000160: 8856 7bbc ed51 8dbc 8ce1 623c a16c d0bb
00000170: 8bea cebc 58ec 22bc 14a3 6abc 2ea2 cabc
00000180: 4928 d6bc f488 b1bc 45ec c0bc 2227 a1b9
00000190: a516 9dbc 97db 17bd f70f bfbc ce92 e6bc
000001a0: 55c3 1bbd 7606 21bd ad19 13bd 60e6 1abd
000001b0: 4f65 98bd 3053 26bd cfd4 1fbd 3cb7 5bbd
000001c0: 120d d6bc a77a 93bc 83b7 6dbd 9289 11bd
000001d0: 6aaa 1fbc c035 e7bd dc3d c5bd c832 afbd
000001e0: f582 86bd e88b 81bd 1e17 81bd 0353 38bd
000001f0: f010 4cbd a134 27bd 558d 2ebe b625 12be
00000200: 774d c3bd 83e0 f2bd d2e2 e2bd 26d4 9bbd
00000210: bb42 96bd 1bd6 a3bd 0b3d 30bd 4013 fd3d
00000220: 96c9 7cbc 14c7 5ebd 2ca2 9f3d b71f 5fbd
00000230: 138b cebd 4c79 933d e3e4 41bd e678 bebd
00000240: cfa0 b43d 799a 35bd ebf2 a3bd bee9 e93c
00000250: 9db8 bcbd 7802 f5bd c0d0 e73b de14 b8bd
00000260: a476 dfbd 9933 003d acf8 5ebd 7b48 10bd
00000270: a64d 20bc 2f91 cfbd fa91 aebd c431 74bc
00000280: 7d9e b2bd 28af 9dbd 2026 413d 56b6 7ebd
00000290: 6c1e 10be 601d 823c b371 d4bd ce01 1dbe
000002a0: 787a 193d c736 bcbd 4a8f 0fbe b2e7 823d
000002b0: 1961 10bd 1724 09be 9fea 123c c305 a7bd
000002c0: edd4 06be cddf c43b 4664 b5bd 1c27 e8bd
000002d0: afa0 573d 5ee4 2fbd b765 00be 0e8c da3c
000002e0: 5834 6bbd 474c ecbd 22ee f43c a1e3 59bd
000002f0: 431f b6bd d4a3 c13c 27ea be3d 0fa9 153e
00000300: 2489 be3c 902c a23d 47dd 0a3e ab2f 293b
00000310: 03ba 913d a0ab 0b3e 9f23 dfbc 9a4c 2b3d
00000320: f30e d03d ea9a 0dbd cb8d 3e3c e7eb a53d
00000330: 4f2d 59bd 0470 c1bb 9c9d a13d 32f4 53bd
00000340: 6f71 d33c f5eb c93d eda8 8cbd 559c 46bc
00000350: 623d 8a3d d4b5 b5bd 1f2b e8bc 06af 863d
00000360: 5ecd 223d e282 213d da6e 5a3d 5f8d 4d3d
00000370: b28d 0a3d 1259 093d c514 6e3d a0b4 f23c
00000380: cf71 9c3c 5634 8e3d de15 893d 6a45 7e3d
00000390: 9a3a b73d 14dd 983d bcc5 663d 041e d83d
000003a0: d638 9b3d a2fd 463d e7e4 bd3c d1f1 2f3b
000003b0: 4fcc 6abc 1125 6b3d fe1e d93c 9b68 06bc
000003c0: d79b a53d 98cd 2d3d e1bd 4abc 72b7 07bd
000003d0: cb13 d43d e0a0 f23e 2b75 3bbe 170a 69bd
000003e0: b5e2 953e e6de 83be 3088 d8bd a034 d73d
000003f0: 4c62 c13d ce99 5e3d 0b66 923e 200d 783d
-0.012539463 0.00068049825 0.005250851 -0.020409077 -0.0051707826 0.00022174689 -0.04018177 -0.01218395
0.0041558887 -0.059279036 -0.03741951 -0.028414857 -0.063426524 -0.041771747 -0.029234042 -0.07502267
-0.04785444 -0.020129014 -0.0926965 -0.057363383 -0.034843873 -0.09966961 -0.066315085 -0.040113285
-0.100455076 -0.066437125 -0.025275076 -0.117438346 -0.12662493 -0.08009489 -0.14139923 -0.18114205
-0.12216855 -0.13787693 -0.17041816 -0.09455496 -0.15895082 -0.17022301 -0.124514885 -0.17932518
-0.20505442 -0.15722114 -0.18054506 -0.19125544 -0.12264195 -0.117952116 -0.10478695 -0.09763446
-0.17227386 -0.17744857 -0.12353974 -0.16979259 -0.18687287 -0.11018263 -0.06252752 -0.02368224
-8.0039215e-05 -0.052347835 -0.020779455 0.001629954 -0.062358998 -0.024492718 0.013955146 -0.116485365
-0.07618095 -0.034999054 -0.08584247 -0.06716226 -0.028202893 -0.07309437 -0.058706798 -0.008142958
-0.16816598 -0.11149628 -0.04665819 -0.14292584 -0.1015732 -0.034156106 -0.11564346 -0.080107234
-0.0025348142 0.020490455 -0.0002369098 -0.018902436 -0.0032342267 -0.0088614905 -0.018677251 -0.018185358
-0.015340455 -0.01725098 0.01384772 -0.006360606 -0.025258323 -0.009944044 -0.014321107 -0.024735536
-0.026142256 -0.02167175 -0.023550162 -0.0003073747 -0.019175837 -0.03707465 -0.023323042 -0.028146174
-0.03802808 -0.039312802 -0.03591316 -0.03781736 -0.07441198 -0.040606678 -0.03902131 -0.053641543
-0.02612928 -0.018002821 -0.05803634 -0.035531588 -0.00974522 -0.11289549 -0.09630939 -0.08554608
-0.06567947 -0.06325513 -0.063032374 -0.04500104 -0.04982084 -0.040821675 -0.17046101 -0.14272198
-0.095362596 -0.118592285 -0.11078419 -0.076088235 -0.073369466 -0.07999822 -0.043026965 0.12357187
-0.015428921 -0.054389074 0.07794604 -0.054473605 -0.1008512 0.0720087 -0.047337424 -0.09300403
0.08819734 -0.04433677 -0.08005317 0.02855384 -0.092149 -0.119633615 0.0070744455 -0.08988355
-0.10911301 0.031299207 -0.05443637 -0.035225373 -0.009784138 -0.101351134 -0.085239366 -0.014904443
-0.087216355 -0.07699424 0.0471555 -0.062185608 -0.14074105 0.015883148 -0.10373249 -0.1533272
0.03747031 -0.091901354 -0.14019504 0.063918486 -0.03524885 -0.13392673 0.008967071 -0.08155396
-0.13167162 0.0060081244 -0.08857016 -0.113355845 0.052643474 -0.042942397 -0.12538801 0.026678111
-0.057422966 -0.11537986 0.029898707 -0.0531956 -0.088926814 0.02363769 0.09322005 0.14615272
0.023258753 0.07918656 0.13560973 0.0025815766 0.07115557 0.13639688 -0.027238665 0.0418211
0.10159101 -0.034571566 0.011630486 0.081016354 -0.053021725 -0.005903246 0.0789139 -0.051746555
0.025810925 0.09859458 -0.068681575 -0.012122233 0.06749989 -0.088725716 -0.028340874 0.06576352
0.039746635 0.03943146 0.053328373 0.05018365 0.033826537 0.03353221 0.058125276 0.029627144
0.019097237 0.06943576 0.06693624 0.062077917 0.08946724 0.07464042 0.056340918 0.105526
0.075792 0.048581727 0.023180438 0.0026847015 -0.0143309375 0.057408396 0.026504036 -0.008203651
0.08086365 0.042432398 -0.012374372 -0.03313393 0.10355338 0.47388363 -0.18306415 -0.056894388
0.29274526 -0.25755996 -0.10572851 0.10508084 0.09442577 0.0543459 0.28593478 0.060559392

down2.down_block3d.1.double_conv3d.0.bias f4 [16]
00000000: 4cb0 c4b8 32a6 c3b7 8847 5437 5b28 c636
00000010: 3685 9938 bc25 95b8 81f5 cdb7 87c9 a738
00000020: 2678 b237 8a60 7c39 b97c 9bb7 d9a3 a4b6
00000030: 4657 5238 9e5a 1339 a669 6bb8 28b2 36b9
-9.378846e-05 -2.3323202e-05 1.2652839e-05 5.905558e-06 7.320421e-05 -7.111902e-05 -2.4552226e-05 8.000718e-05
2.1275202e-05 0.00024068556 -1.8535518e-05 -4.9066552e-06 5.014918e-05 0.0001405277 -5.612676e-05 -0.00017423241

down2.down_block3d.1.double_conv3d.3.weight f4 [16, 16, 3, 3, 3]
00000000: 1557 82bc fb8b 03bc b326 61bc d31a a6bb
00000010: cf0d 90bc 7165 70bc 78b5 b43d 4d4f 993c
00000020: 4ab9 cfbc d029 0bbc 78a9 0dbb dfd2 bf3a
00000030: 9096 e7bc 467d c2bc afb7 a53a b216 b43c
00000040: 0cb9 c9bc 2518 22bd e9c8 5bbd 2718 96bd
00000050: d3fa 79bd 057e c1bd 6b52 eabd 3a71 a1bd
00000060: e207 97bd d593 0abe 0969 10be acfb 19bb
00000070: c6e8 87bd 3738 cdbd 3d38 ad3d 3975 0f3d
00000080: 86fe a9ba fc17 193e 8ee2 ac3d d83f 423c
00000090: 333f 2dbd 8b16 9dbd da98 a2bd 0e31 c6bc
000000a0: c61b 87bc 070a b2bc 0b82 e0bc b674 cebc
000000b0: ce79 3fbd d381 d4bd 5298 eebd 4839 b6bd
000000c0: 6461 acbd 2ddc 35bd 7866 8fbc 5d84 e6bd
000000d0: 20d3 23bd a60f 32bc 0253 6c3d d932 773c
000000e0: 5af3 1fbd 2981 8d3c b149 84bc edca 5ebd
000000f0: ec33 0a3d 68cb a13c a7b0 73bc 7bd9 583d
00000100: f0c7 9a3b a249 4dbd 67e6 69bc 8374 3abd
00000110: 53f5 99bd 9875 05bd 86ec 00bd 1e00 2cbd
00000120: bde4 893d c4c1 8b3c 40c5 21bd 981e 9fbc
00000130: fbb9 5abd e9c1 a9bd 39ea 85bd c6e7 8abd
00000140: 6f1c 83bd 3010 683d 854a 6ebc 9e08 1ebd
00000150: 84f0 f53a a0ab 2cbc 2fc4 3c3c b10a 48bd
00000160: 477d b13c 9f38 b63d 53a2 393d 4e65 d7bc
00000170: b8f4 5dbd e364 38bc 574e 05bd 25a6 48bc
00000180: 0180 1dbd dcad 123d 50d0 df3d b8d1 2e3d
00000190: 9903 9ebc 67a7 60bd 62f4 f9bb 0011 cbbc
000001a0: 51a1 52bc 62a2 8fbc 46dc 403d 0d22 fb3d
000001b0: c9ab f1bd f6ea b1bc 2847 1f3d 696b c6bd
000001c0: a33a 96bc d45f ef3c cf98 d0bd fa4a 14bd
000001d0: 6ce6 633c fe1f e4bd 9130 8fbc e8b6 133d
000001e0: 7ab0 fabd ea01 4cbd 3c35 35bc 83ac 28be
000001f0: b6d7 d1bd 84c6 7abd e71b c3bd ea04 a1bc
00000200: 866e 8c3c 2438 25be 7568 acbd 2d2a 32bd
00000210: db9c 8abe dc77 35be 905b e4bd 8d04 00be
00000220: f44c aebd a798 6f3d fd97 1dbd 519c 9cbd
00000230: c97c 133d 83cb 443e 37ae d23d 8832 0f3e
00000240: dcb3 0abd 568a 2dbd 4a3e 073d d00b c73d
00000250: c6c0 a03c 2dfe 6f3d fcf1 aa3e a708 623e
00000260: fe3d 5d3e 28b4 58bd 3e36 98bd df88 84bd
00000270: 5027 463d 48be 66bd f3a3 c0bd 6954 803e
00000280: 4fcf 983d e962 0e3c a79b 0ebd 41fb bdbc
00000290: 0dcf 5fbd 0e3c 34bd fc8f 3b3d 6beb 8a3d
000002a0: cdfd e0bd 176e a03b 4558 8a3d 5b17 2abd
000002b0: 1dcb b43b 4a59 bd3c c625 0bbd 4b27 9e3d
000002c0: 0fa7 053e ecb0 d6bd 3638 5c3d 959d 1f3e
000002d0: 4d91 b0bd 3478 6ebd bed1 343c ecd0 a23b
000002e0: 348a a53d 43ed 1e3e fe68 5a3d 222c 383e
000002f0: 941a 8d3e e02c 463d 3daf 2abc af9a ddbc
00000300: 9944 e9ba ca9b 29bc 87b9 903c c0a3 dabc
00000310: a6e0 313d 63ee db3d 4120 243d d7f6 bebc
00000320: 49cb 3cbd e30a 80bc b5a0 1bbd 200e 3bbc
00000330: faee edbc eea4 2e3d 7209 f73d 52e5 5b3d
00000340: 988d cebb 8fa2 2dbd a5ff dd3b dfa8 8bbc
00000350: a42d c1bb 9139 d63a e58c 7d3d 3cf1 0d3e
00000360: 43ac 17be 0ae4 e4bd 3839 eabd 76de 4bbd
00000370: 98a5 d73b 15cf c3bb 5506 c2bc 93be dd3c
00000380: f862 b33c 249f 16be b5b2 c2bd d058 a7bd
00000390: d7c1 1ebd 1cbc 373d 55d8 2c3d 61ae d73c
000003a0: fdc2 ca3d 9e50 ce3d 2fbe b9bd b5d6 5cbd
000003b0: 5bd0 33bd 47f6 d73c f82a bd3d e2aa b73d
000003c0: 64ef 833d 5062 143e 1153 1e3e 00ca 94bc
000003d0: 8ed2 693d 96b1 883d 95a4 bbbd 9c11 02bb
000003e0: 1ebe b43c 2ca9 52be b260 9abd 0c0d 12bc
000003f0: 9f72 74bd 5cc9 1c3d aa0b 803d da79 22be
-0.015910665 -0.008028979 -0.013742137 -0.0050691157 -0.01758471 -0.014672623 0.08823675 0.018714571
-0.025356907 -0.008493856 -0.0021615904 0.0014634988 -0.028270036 -0.023741376 0.0012643243 0.021983478
-0.02462437 -0.039573807 -0.0536584 -0.073288254 -0.06103022 -0.094478644 -0.11441501 -0.078829244
-0.073745504 -0.13532956 -0.14102568 -0.0023495955 -0.06636195 -0.10020488 0.08457992 0.0350239
-0.0012969531 0.14950556 0.084416494 0.011856042 -0.0422966 -0.07670315 -0.0793931 -0.024193313
-0.016492736 -0.021733297 -0.02740576 -0.025202136 -0.04674702 -0.103763245 -0.116501465 -0.08897644
-0.08417013 -0.04439943 -0.017504916 -0.11255715 -0.039996266 -0.010867989 0.05769635 0.015087807
-0.039050438 0.017273502 -0.01614842 -0.054392744 0.033740923 0.019750312 -0.01487366 0.05294178
0.0047235414 -0.05011905 -0.014276124 -0.04552127 -0.07517495 -0.03258285 -0.031475566 -0.0419923
0.067330815 0.017060168 -0.039494753 -0.019423768 -0.05340002 -0.082889386 -0.06538815 -0.067824885
-0.06401908 0.056656063 -0.014544134 -0.038582437 0.0018763696 -0.010538965 0.011521383 -0.04883832
0.021666182 0.08897518 0.04532082 -0.026293423 -0.05418846 -0.011254522 -0.032545414 -0.012246643
-0.038452152 0.035810336 0.10928404 0.042680472 -0.019288825 -0.054847147 -0.0076280097 -0.02478838
-0.012855844 -0.017533485 0.04708507 0.12262354 -0.118003435 -0.021718483 0.03888622 -0.096884556
-0.018338507 0.0292205 -0.10185396 -0.036204316 0.013909917 -0.111389145 -0.017479213 0.036063105
-0.122406915 -0.049806513 -0.011060055 -0.16472058 -0.10246222 -0.061224476 -0.09526806 -0.019655664
0.017142545 -0.16134697 -0.08418361 -0.043497253 -0.27072796 -0.17721504 -0.11150277 -0.12501736
-0.085107714 0.05849519 -0.038475025 -0.076470025 0.036007676 0.19218259 0.10287135 0.1398412
-0.033862934 -0.042368256 0.033018388 0.0971905 0.019623172 0.05859201 0.33387744 0.22073613
0.2160568 -0.052906185 -0.07432221 -0.064714186 0.048377335 -0.05633381 -0.09406271 0.250644
0.07461416 0.008690574 -0.03481641 -0.023191096 -0.05464082 -0.044002585 0.04579161 0.06783184
-0.10985909 0.004895936 0.06755117 -0.04152618 0.005517377 0.023113865 -0.03397157 0.07722338
0.13052009 -0.10482964 0.053764544 0.15587457 -0.08621464 -0.058220103 0.011036335 0.004968753
0.08083001 0.15520196 0.053322785 0.17985585 0.2755934 0.04838264 -0.010417757 -0.027051298
-0.0017796933 -0.010352084 0.017666591 -0.02668941 0.043427132 0.10738828 0.040069822 -0.023311062
-0.046092305 -0.015630191 -0.03799506 -0.011416942 -0.029044617 0.042637758 0.120623484 0.053685494
-0.0063035004 -0.042391356 0.00677486 -0.017048297 -0.0058953334 0.001634406 0.061901946 0.13861555
-0.14811806 -0.111763075 -0.11436695 -0.049772702 0.0065810196 -0.005975614 -0.02368466 0.027068412
0.021897778 -0.14709145 -0.09506742 -0.081712365 -0.03875908 0.04485713 0.042198498 0.026328268
0.09900472 0.1007397 -0.09069478 -0.053915698 -0.043899875 0.026362551 0.09236711 0.0896814
0.064421445 0.14490628 0.15461375 -0.018162727 0.057085566 0.06674497 -0.09162251 -0.0019846922
0.022063311 -0.20572346 -0.075379744 -0.008914243 -0.059679624 0.03827797 0.06252225 -0.15866795

down2.down_block3d.1.double_conv3d.3.bias f4 [16]
00000000: 008a b2b6 18bd 1fb9 6674 c538 231d 3337
00000010: 05eb 7939 bc8d 0d39 3518 23b9 ec0a bcb8
00000020: 7428 d9b7 91bc 84b8 9a74 c839 6c7c 7bb8
00000030: 3afc 67b6 c89b 2435 a7e1 d0b8 16f5 1ab8
-5.3208787e-06 -0.00015233865 9.415373e-05 1.0676015e-05 0.00023834042 0.00013499608 -0.00015553909 -8.966573e-05
-2.5887253e-05 -6.329374e-05 0.00038233848 -5.995894e-05 -3.4568498e-06 6.132145e-07 -9.960244e-05 -3.6944715e-05

down2.down_block3d.1.shortcut.weight f4 [16, 8, 1, 1, 1]
00000000: 131b b60f e199 8790 f8c3 ba8f 470d 8690
00000010: 5c01 9710 4b00 8211 acf6 1110 532f 2a91
00000020: ea3e 548f ddf2 9610 f6a7 e510 41fc b790
00000030: 6cf2 5510 9468 1710 fc39 da90 445e 0a10
00000040: e21c 3290 a876 768d edb2 f30e 1b7a c810
00000050: face b190 54e6 2b10 5710 8210 cd47 0491
00000060: 748a a010 b856 aa8f b701 2490 9b81 9b0f
00000070: b03c 4c0f a01e c08c 1056 050d e39b 9690
00000080: 59ca 0790 aa6b 2590 13c0 e590 26df 9090
00000090: 248d ac0f c994 9590 5752 1b10 b0f1 a48c
000000a0: 1c05 3990 9ebe d10f aa86 e20f a9a8 0c10
000000b0: 6f20 3390 e2ca d40e f91d 4590 ee55 930e
000000c0: b889 938e 8889 e48e 9ee4 d00f 37a5 bb90
000000d0: 2d48 580f d59a 9990 70d3 918f 20f0 d28c
000000e0: 3fc8 1711 1aeb 0f0f e8bd 1a8f 0c19 e490
000000f0: 950a 1791 f329 2e11 e4b3 e410 9573 3891
00000100: 2128 0b90 b1df 9990 6c73 7c10 91cc 0a91
00000110: e689 738f 56d7 ba90 67fb 9110 a587 2b8e
00000120: 4df1 1611 5be5 8e10 d91f 4b10 2af2 9090
00000130: 49c8 6490 7cff d88f 08e5 1a0e 1e28 4510
00000140: d4c2 8c10 8853 b110 c951 1391 90f6 b290
00000150: 1087 e490 0175 a690 6c24 9610 f6b6 7290
00000160: 89f5 8c90 3d2c 7110 2f0a 4090 4a3c 9710
00000170: 3644 b60e e06e 880f 33d9 6390 bade a690
00000180: 51a4 0e10 73fa 978f f2e4 ba8e f29d 1010
00000190: 6619 bb90 66c3 3711 20fb e810 5a34 3690
000001a0: 15bb 3410 2325 f510 49b8 2990 2b99 cd0e
000001b0: efa1 ae10 89ec ac0f 9a1f 8d0f 7039 bb8f
000001c0: b480 0390 0a5f c60e 43da 7e90 d7e7 2690
000001d0: 785f e290 e8e1 8090 fde0 2d8f 053a b090
000001e0: 544e c710 abd9 1591 4a1d 6410 7a3d a68f
000001f0: a332 2590 19cc 5510 d8fb 880f 868c 9610
1.7957014e-29 -5.34852e-29 -1.84165e-29 -5.287414e-29 5.956109e-29 2.0510564e-28 2.8786237e-29 -1.3425218e-28
-1.0464524e-29 5.953876e-29 9.058336e-29 -7.256943e-29 4.2193598e-29 2.9860063e-29 -8.607518e-29 2.728832e-29
-3.512656e-29 -7.594743e-31 6.0076424e-30 7.9074224e-29 -7.013309e-29 3.3901242e-29 5.1301134e-29 -1.0435089e-28
6.3322193e-29 -1.6796697e-29 -3.2344618e-29 1.5334102e-29 1.00696645e-29 -2.9600716e-31 4.1087383e-31 -5.940475e-29
-2.677994e-29 -3.2623454e-29 -9.062051e-29 -5.71418e-29 1.7014875e-29 -5.899938e-29 3.0631792e-29 -2.5413661e-31
-3.6488753e-29 2.0682414e-29 2.2337191e-29 2.7740063e-29 -3.532651e-29 5.2457404e-30 -3.887449e-29 3.6321045e-30
-3.6370916e-30 -5.6338777e-30 2.0598444e-29 -7.401305e-29 1.0663523e-29 -6.0586416e-29 -1.4379547e-29 -3.2500143e-31
1.1973505e-28 7.095723e-30 -7.629361e-30 -8.9968734e-29 -1.191506e-28 1.3739106e-28 9.020731e-29 -1.4550657e-28
-2.744383e-29 -6.069251e-29 4.9787155e-29 -1.0949317e-28 -1.2007383e-29 -7.369584e-29 5.757976e-29 -2.1142688e-30
1.190727e-28 5.63625e-29 4.0059225e-29 -5.71711e-29 -4.5119366e-29 -2.1397653e-29 1.909224e-30 3.8882305e-29
5.5520444e-29 6.994289e-29 -1.1621457e-28 -7.058851e-29 -9.013824e-29 -6.565573e-29 5.9220685e-29 -4.7867033e-29
-5.559857e-29 4.756295e-29 -3.787317e-29 5.965189e-29 4.493215e-30 1.3453343e-29 -4.493518e-29 -6.581862e-29
2.8131147e-29 -1.4986219e-29 -4.6073006e-30 2.852067e-29 -7.379763e-29 1.4496366e-28 9.1894784e-29 -3.59335e-29
3.5642863e-29 9.669268e-29 -3.347134e-29 5.0683897e-30 6.8880397e-29 1.705162e-29 1.3915846e-29 -1.8461748e-29
-2.5934344e-29 4.8902288e-30 -5.026081e-29 -3.291633e-29 -8.9288375e-29 -5.083516e-29 -8.57289e-30 -6.950915e-29
7.8612344e-29 -1.1821102e-28 4.4987635e-29 -1.6392544e-29 -3.257952e-29 4.2164074e-29 1.3507642e-29 5.938108e-29

down2.down_block3d.1.shortcut.bias f4 [16]
00000000: 10f2 84be 1146 7dbe d6c4 74be fb9a aabd
00000010: 1a13 48bd d347 20be 7c13 39be adf8 88be
00000020: b31f 82be 16f2 93be 0a91 3ebe e482 03be
00000030: 1f7b 5cbd 238e 1bbe 51e9 a2be 40c5 55be
-0.2596593 -0.2473376 -0.23903212 -0.083303414 -0.04884634 -0.15652399 -0.18073839 -0.26752225
-0.2541481 -0.28895634 -0.18610016 -0.128429 -0.053828355 -0.1519094 -0.3181863 -0.20876026

down3.down_block3d.1.double_conv3d.0.weight f4 [32, 16, 3, 3, 3]
00000000: 1409 c0bb 1c65 f03b d46e 59bc 0632 b8bc
00000010: 49be 9f3b 8e30 933c 1983 c5bc d2c1 6cbc
00000020: 9289 f63c 7deb d23b 7664 fe3b 903d ff3b
00000030: 23d5 803c f23b cf3a aaa0 f9b9 7bae 3d3d
00000040: fb90 8b3c c9b0 383d 43ab 06bc c5c0 b5bc
00000050: c22a b7bc 604f ac3c 8e3a 0ebd 1dd4 48bd
00000060: fd4d 863d f0e5 593b 84ea 043c ad06 ee3c
00000070: e273 3f3d c9a3 ee3c aa62 883c 7fc0 0f3d
00000080: 4ebc 063d 063b e63b c569 023c 33ac d23c
00000090: b6ef 103d 56ba 753d a924 853d b158 183d
000000a0: df2e 443d 58bc 423d a3c8 4f3d b7c4 363d
000000b0: fcb5 723d 435d a83c 6a32 cb3c eb25 253d
000000c0: 9314 223d d020 413c b625 8a3c 38bd 893d
000000d0: abd7 fd3c 17e9 203d 69ce 243c 00ef 82bc
000000e0: 50c3 c83b 575b 133b 580e c6bc 2ac1 c5bc
000000f0: bdc2 043c 83b6 b3bb e25d cebc cb69 6e3c
00000100: c1ce a0bb 9ad6 663c 01e0 94bc 44ec 23bd
00000110: 15e8 01bd 88ef d8bc ef95 19bd fc32 5bbd
00000120: b0ae d93c 7c0c dd3c 3302 0c3d 9c52 5abc
00000130: a052 36bc 80e8 f03a b636 dcbc 7209 d7bc
00000140: 67f5 ddbc 4382 2c3d 8851 cebc 0dc1 70bd
00000150: 19f2 223d 1d87 2cbc 8a9f 54bd b17a e73c
00000160: cebe af3c 3d44 32bc 547b 583d 80bb 99bc
00000170: 7809 09bd 08a9 de3c 70b0 dcbc 337a 38bd
00000180: 7297 8c3c 1cfc f33b f14f 36bc 8fbb 9b3d
00000190: b456 d23c bc74 143d af23 f33c ee24 c5bb
000001a0: 0d0e b5bb 8284 ee3c 19ce a93c d597 483c
000001b0: de9b 893c 1ca6 33bd 9369 b0bd f5e1 2bbc
000001c0: 6edf 2dbd 1f92 a3bd 4aae 93bd ae0f 5cbd
000001d0: 5ace 9cbd fff8 863d fbcf 103b a363 0dbd
000001e0: 1bca 9b3c 0e18 67bc f296 24bd 8203 30bd
000001f0: 4ef3 6ebc bf73 cabc b4fc d93d 80e8 3d3d
00000200: 3746 ec3c ab47 3e3d c633 1a3c 3019 31bc
00000210: 50c6 e33a f23e 983c a176 633c 5e08 593c
00000220: d6c5 c7bc 9499 1bbd dc9a d53c 8f51 88ba
00000230: ffce f6bc 3327 353d a9b7 073d 2b93 0cbc
00000240: bb36 15bc 98f9 a2bc 0226 98bc 865b 9ebc
00000250: 7a93 a9bc 0fa7 f9bc 481c ae39 6f5a 823b
00000260: 0208 f6bc 88bb 6c3c c08d 0a3d 362d 183d
00000270: 2d33 a6bc 1576 8e3c de50 bf3c a6b3 b6bc
00000280: 24ec 833c 8278 073c c74b 5dbb ec36 1c3d
00000290: f195 ae3d 586d 05bd 1e10 c93c 6309 953d
000002a0: 53bb d4bc 5688 183d f25b d23d a6ae 083d
000002b0: 4037 9b3d 01f0 2c3e bebf ab3b 27f8 283d
000002c0: 99f8 ed3d ab4e 373d 0e7f ab3d 5019 173e
000002d0: b415 693c c77f 1f3d 2616 e53d 1051 a639
000002e0: 0393 5cbc ee94 3b3d 4760 723d 2889 fe3c
000002f0: fd9b 903d b956 b73d 3595 0c3e f095 813e
00000300: 5d30 64bc 0b34 1b3d 93c3 363e 63be 70bc
00000310: 5a02 8d3d cf0b 693e dab6 833d 67dd bf3d
00000320: 22b5 5e3e 925b 25bd 8eea d3bc 9d9f e13d
00000330: 43e2 e7bc 9b7d 623c 8a8f 253e f376 de3b
00000340: 8db8 013d c1de 083e b3f7 78bd 8dff 73bd
00000350: a27e 053d 089e 1ebd ace4 bdbc 9b2b 8c3d
00000360: c498 32bd 1775 ffbc f0dc 68bb 2fae 1bbd
00000370: 7878 b5bc 736b afbc 92cd f8bc 14a3 40ba
00000380: f79d 90bb 9861 7bbd f378 67bd e359 22bd
00000390: 0bdf 9fbd 81e1 71bd ea5a 8ebd 0387 9bbd
000003a0: f41f 0bbd f85b 49bd 3db0 313c 83f6 c63b
000003b0: eb8a 383b 3dd7 32bd 43e9 9dbc d079 38bd
000003c0: b843 8ebd b085 b0bc 7f50 15bd e4ac 9f3a
000003d0: e004 59b8 f410 ed3c 449d 9cba 6fde 31bc
000003e0: ec53 99bb 1b95 9f3c e9ec d73b bf82 85bc
000003f0: c969 203c bc5f 313c b395 ab3c 6cb5 9dbc
-0.005860457 0.007336272 -0.013271052 -0.02248479 0.0048749787 0.017967489 -0.024110364 -0.014450507
0.030094896 0.006436764 0.0077634407 0.0077893212 0.015726632 0.0015810712 -0.00047612685 0.046308976
0.017036906 0.04509047 -0.008219543 -0.022186646 -0.022359256 0.021033943 -0.03472381 -0.049030412
0.06557844 0.0033248626 0.0081125535 0.029055918 0.046741374 0.029130833 0.01664861 0.035095688
0.032894425 0.007026079 0.007959788 0.025716877 0.035384856 0.059992157 0.06501133 0.037193958
0.047896262 0.0475429 0.05072845 0.044621196 0.059255585 0.020552283 0.024804313 0.040319365
0.039570402 0.011787608 0.016863685 0.06725544 0.030986628 0.03928479 0.010058978 -0.015983105
0.0061267987 0.0022484863 -0.024176762 -0.02413996 0.00810307 -0.0054844036 -0.025191251 0.01455159
-0.0049074595 0.014089251 -0.01817322 -0.040020242 -0.03171547 -0.026481405 -0.037496503 -0.05351542
0.026572555 0.026983492 0.034181785 -0.01332536 -0.011128098 0.0018379837 -0.026881557 -0.026249621
-0.027094556 0.042116415 -0.025185362 -0.058777858 0.039781664 -0.01053026 -0.05190996 0.028256746
0.021453287 -0.010880527 0.05285199 -0.018766165 -0.033456296 0.02718021 -0.0269396 -0.045038413
0.017162059 0.0074458253 -0.011127458 0.07604133 0.025676109 0.03624414 0.029680101 -0.0060163653
-0.0055253566 0.029115919 0.020728158 0.012243231 0.016797956 -0.043859586 -0.08613887 -0.010490884
-0.042449407 -0.07986855 -0.072109774 -0.05372589 -0.07656546 0.06590461 0.0022096622 -0.03451885
0.01901727 -0.014104856 -0.040183015 -0.042972095 -0.014584376 -0.024713395 0.106439024 0.046364307
0.028842075 0.046455067 0.009411758 -0.010809228 0.0017377827 0.018584702 0.013883264 0.013246624
-0.024386328 -0.03798826 0.02607482 -0.0010400283 -0.030128 0.044226836 0.033134136 -0.008580009
-0.009107287 -0.019894406 -0.018572811 -0.019330751 -0.020700205 -0.030475168 0.00033208937 0.0039780657
-0.030033115 0.014449008 0.03382659 0.03715249 -0.020288074 0.01739029 0.02335399 -0.02230246
0.016103812 0.008268477 -0.003376709 0.038138315 0.08524693 -0.03257498 0.024543818 0.07277181
-0.02596823 0.037239395 0.102714434 0.033369683 0.075788975 0.16888429 0.0052413633 0.04125228
0.11619682 0.044752758 0.08373843 0.1475575 0.014226366 0.038940217 0.11185865 0.00031722384
-0.013462785 0.045796327 0.05917385 0.03107126 0.070610024 0.08952088 0.13728793 0.25309706
-0.013927546 0.03789143 0.17848043 -0.014693829 0.06885214 0.22758411 0.064313605 0.09368401
0.21748784 -0.04037053 -0.02586868 0.11016772 -0.028306132 0.013823892 0.16168037 0.006789082
0.031670142 0.13366224 -0.0607831 -0.059569884 0.03259147 -0.03872493 -0.023180328 0.068442546
-0.04360272 -0.031183762 -0.003553208 -0.03800791 -0.02215217 -0.02141354 -0.030371461 -0.0007348519
-0.004413362 -0.06137237 -0.05651183 -0.039636504 -0.07806214 -0.059052948 -0.06950934 -0.07594111
-0.03396602 -0.049159974 0.010845241 0.006071867 0.0028158973 -0.0436623 -0.019276267 -0.045038044
-0.0694651 -0.021548122 -0.03645372 0.0012182263 -5.1741372e-05 0.028938748 -0.0011948724 -0.010856255
-0.0046791937 0.019480279 0.006589521 -0.016297696 0.009790846 0.0108260475 0.020945406 -0.019251548
