simple_3dunet/checkpoints/test/backup/0.01-200/best_model-0.4109.pth (torch, 377059 bytes, 49 tensors)

input.double_conv3d.0.weight f4 [4, 2, 3, 3, 3]
-0.0031408304 -0.013832469 0.008792652 -0.016767986 -0.070005804 -0.014272045 0.0015754005 -0.051260743
0.035357732 -0.05381408 -0.06281557 -0.040393338 -0.07251726 -0.120109804 -0.06419812 -0.043821264
-0.09932641 -0.009222177 -0.0039022272 -0.012687865 0.00032185702 -0.01790825 -0.07210833 -0.019103294
-0.0012438097 -0.05322602 0.030465795 -0.0018557068 -0.012414356 0.0097672045 -0.017993528 -0.06994579
-0.015080423 -0.0012060043 -0.0507365 0.033639833 -0.057343088 -0.064166956 -0.03574101 -0.069362484
-0.124915026 -0.06417881 -0.04556272 -0.09847037 -0.009158164 -0.005572662 -0.017773248 -0.0020606697
-0.016979124 -0.06896845 -0.017995989 0.001452568 -0.057348575 0.02974334 0.09218599 0.10586172
0.1234832 0.05955324 0.006405604 0.08899736 0.05164549 0.024213796 0.11241868 0.18135256
0.19438604 0.20227501 0.11567903 0.050376486 0.136968 0.060102604 0.03318542 0.13096148
0.12846476 0.13148415 0.15264145 0.056037456 -0.006971153 0.08239252 0.012379108 -0.019326849
0.06751882 0.092155166 0.10531245 0.12308627 0.05834957 0.009657153 0.08909317 0.050316263
0.022050926 0.10593527 0.18184572 0.19766289 0.19991991 0.11794117 0.050336048 0.13708395
0.05712465 0.033060867 0.13573326 0.13137378 0.1310498 0.15812412 0.054047156 -0.0072164247
0.08250616 0.017231667 -0.020455709 0.062826574 -0.10006372 0.019284546 -0.093637474 0.024306169
0.12105879 -0.0132789 -0.15631323 -0.068347745 -0.2053314 0.085117504 0.29476443 -0.06871437
0.4173133 0.6133473 0.17120688 0.016502121 0.18106218 -0.12435835 -0.17319906 -0.04335432
-0.18223009 0.08798871 0.24400944 0.0011098157 -0.10025487 0.025033923 -0.19197243 -0.09846937
0.022545772 -0.084443085 0.017974414 0.11911515 -0.0013936243 -0.15492076 -0.08072521 -0.2076786
0.07443308 0.28807908 -0.06508387 0.41653302 0.6173736 0.16272792 0.018531596 0.19296138
-0.1258183 -0.16754341 -0.03501234 -0.19433224 0.091323845 0.24330443 -0.0009359662 -0.113627926
0.023128757 -0.18703163 -0.019523561 -0.0075276457 -0.005311095 -0.008483157 -0.04397583 -0.012522122
0.0014967392 -0.055178095 0.032101445 -0.078020655 -0.06540186 -0.061433133 -0.06630699 -0.105884835
-0.06721194 -0.047006227 -0.110782124 -0.02219705 -0.015308736 -0.0039467607 -0.0019710315 -0.012867641
-0.037130594 -0.008536017 -0.0008760707 -0.057773147 0.031529892 -0.01949068 -0.0077026 -0.0063920887
-0.008686023 -0.043966204 -0.010110379 0.0012625895 -0.05526473 0.03159745 -0.07819211 -0.065407395
-0.063123025 -0.0653698 -0.10588295 -0.06691944 -0.0459656 -0.11116812 -0.021090548 -0.0155343665
-0.00404671 -0.0033634857 -0.013817726 -0.037128504 -0.008632753 -6.917282e-05 -0.057919342 0.030831708
00000000: 64d6 4dbb 94a1 62bc 0e0f 103c 045d 89bc
00000010: 345f 8fbd 4cd5 69bc ab7d ce3a c9f6 51bd
00000020: 45d3 103d 276c 5cbd 73a5 80bd 7c73 25bd
00000030: ee83 94bd 21fc f5bd 4e7a 83bd ed7d 33bd
00000040: a56b cbbd 9d18 17bc 82bc 7fbb c3e0 4fbc
00000050: ebbe a839 53b4 92bc 88ad 93bd 837e 9cbc
00000060: 5407 a3ba 8703 5abd 6793 f93c 303b f3ba
00000070: 9565 4bbc a006 203c 2a67 93bc bd3f 8fbd
00000080: e113 77bc ca12 9eba 14d1 4fbd ecc9 093d
00000090: 96e0 6abd f769 83bd 2a65 12bd eb0d 8ebd
000000a0: 73d3 ffbd 2e70 83bd fa9f 3abd d5aa c9bd
000000b0: 200c 16bc e19a b6bb 3499 91bc 4d0c 07bb
000000c0: ce17 8bbc 553f 8dbd 536c 93bc 1864 be3a
000000d0: 57e6 6abd 4ea8 f33c 02cc bc3d 08ce d83d
000000e0: c3e4 fc3d 19ee 733d 1ae6 d13b 3f44 b63d
000000f0: 398a 533d 035c c63c c43b e63d 7cb4 393e
00000100: 220d 473e 2e21 4f3e 21e9 ec3d 9357 4e3d
00000110: 5741 0c3e 262e 763d 6fed 073d c41a 063e
00000120: 448c 033e c8a3 063e 0a4e 1c3e 8887 653d
00000130: 456e e4bb 69bd a83d bed1 4a3c 5753 9ebc
00000140: 4f47 8a3d d9bb bc3d 0eae d73d a814 fc3d
00000150: f5ff 6e3d 0939 1e3c 7b76 b63d 6d18 4e3d
00000160: 25a4 b43c 97f4 d83d c435 3a3e 2468 4a3e
00000170: ceb7 4c3e 248b f13d 2c2d 4e3d bc5f 0c3e
00000180: 89fb 693d d56a 073d a9fd 0a3e d986 063e
00000190: eb31 063e 4aeb 213e 8d60 5d3d c277 ecbb
000001a0: fdf8 a83d 6d29 8d3c bb92 a7bc 38ab 803d
000001b0: 35ee ccbd a0fa 9d3c 01c5 bfbd bb1d c73c
000001c0: aced f73d be8f 59bc 9310 20be e7f9 8bbd
000001d0: 6542 52be 1652 ae3d 5deb 963e 1fba 8cbd
000001e0: 17aa d53e 5404 1d3f db50 2f3e 752f 873c
000001f0: 5d68 393e 97af febd 185b 31be 4d94 31bd
00000200: 869a 3abe 6d33 b43d 9cdd 793e 3c77 913a
00000210: 6d52 cdbd f113 cd3c 6c94 44be 4faa c9bd
00000220: e9b1 b83c 7ff0 acbd 143f 933c a5f2 f33d
00000230: 46aa b6ba 8ca3 1ebe 4253 a5bd b3a9 54be
00000240: 5f70 983d 1a7f 933e b14a 85bd d143 d53e
00000250: 320c 1e3f 26a2 263e 93cf 973c ab97 453e
00000260: 83d6 00be 8090 2bbe 1969 0fbd 08ff 46be
00000270: ff07 bb3d cc24 793e a15b 75ba c2b5 e8bd
00000280: 8578 bd3c 3885 3fbe e0ef 9fbc 78aa f6bb
00000290: b208 aebb f0fc 0abc 0020 34bd 9629 4dbc
000002a0: 3c2e c43a 6d02 62bd ce7c 033d 4bc9 9fbd
000002b0: 69f1 85bd 4fa1 7bbd f6cb 87bd 26da d8bd
000002c0: 6aa6 89bd 9a89 40bd bde1 e2bd 96d6 b5bc
000002d0: 7ed1 7abc d453 81bb 6c2c 01bb ccd2 52bc
000002e0: 4016 18bd a6da 0bbc 1ca8 65ba 89a3 6cbd
000002f0: 7d25 013d ebaa 9fbc 1866 fcbb ba74 d1bb
00000300: d24f 0ebc e815 34bd 01a6 25bc 797d a53a
00000310: 455d 62bd 546c 013d 2f23 a0bd 50f4 85bd
00000320: a546 81bd 9ae0 85bd 29d9 d8bd 0f0d 89bd
00000330: 6d46 3cbd 1cac e3bd 16c6 acbc db83 7ebc
00000340: 449a 84bb ed6d 5cbb be63 62bc 0f14 18bd
00000350: 6470 0dbc e010 91b8 d53c 6dbd c792 fc3c

input.double_conv3d.0.bias f4 [4]
-0.00500247 0.033262413 -0.31504974 0.0010203613
00000000: c3eb a3bb 2b3e 083d 334e a1be a5bd 853a

input.double_conv3d.3.weight f4 [4, 4, 3, 3, 3]
0.082339264 0.07669104 0.017727232 0.095438935 0.077547155 0.010786162 0.084588744 0.06574353
0.013091397 0.078312084 0.074072346 0.012929456 0.09673214 0.074575186 0.0041326196 0.09204387
0.06426113 0.00838883 0.08180604 0.07554611 0.021632452 0.10043593 0.085449465 0.014858734
0.08852618 0.06705082 0.017069092 -0.042575296 -0.021210788 -0.041720588 -0.03354953 -0.026884982
-0.045909733 -0.039853893 -0.041246187 -0.04299329 -0.055758577 -0.02662119 -0.052293524 -0.04050057
-0.02594518 -0.050683387 -0.038086798 -0.04319563 -0.04497971 -0.031770788 -0.01380227 -0.03478892
-0.026215035 -0.02155954 -0.03243883 -0.031546548 -0.042511538 -0.035416607 0.016224861 -0.0037719538
0.0024757667 -0.00079095294 -0.016316583 -0.0076412363 -0.009748689 -0.016082235 -0.020725716 0.017095402
-0.008242565 0.0017242583 -0.0006181675 -0.016277496 -0.004566692 -0.0123339975 -0.0205834 -0.018870339
0.011736262 -0.01040223 -0.0034712006 -0.0034346296 -0.020427968 -0.011125232 -0.008761956 -0.018248962
-0.02221727 0.07475918 0.051865567 0.0018949083 0.07716459 0.055937126 -0.009527008 0.06851996
0.034747157 -0.005653635 0.057848528 0.048854787 0.0045963814 0.076446995 0.055445466 0.0005351516
0.06831201 0.044910036 -0.003902821 0.057413623 0.05735755 -0.0043328926 0.0662188 0.053947154
0.0021857729 0.056678906 0.03971427 1.9182131e-05 -0.036236506 -0.010479185 -0.053566206 -0.020194078
0.0013143145 -0.031597305 -0.031464197 -0.012685239 -0.024138736 -0.02166649 -0.0024008658 -0.034047414
-0.004308154 0.022070132 -0.0076272953 -0.0057000523 0.020956706 -0.0045164917 -0.057861138 -0.03604293
-0.06735708 -0.014534817 0.004264588 -0.02852841 -0.027274042 0.0018502562 -0.019350162 -0.13082992
-0.07395091 -0.16088268 -0.00522162 0.06317104 -0.030046124 -0.06671639 0.01295116 -0.055753022
-0.03842316 0.0002160785 -0.12088449 0.103778906 0.16785888 0.021799818 0.031068329 0.09447187
-0.016696747 -0.08954038 -0.06536283 -0.15675023 0.026421135 0.052848786 -0.047391254 -0.03929017
0.015025112 -0.0642214 -0.0134755345 0.21857749 0.20020242 0.0597611 0.27062953 0.29895553
-0.05403275 0.14521192 0.17789462 0.1430273 0.40719768 0.2658998 0.33572665 0.5849873
0.4908783 0.22606635 0.49756265 0.470884 -0.19922975 -0.07596452 -0.07911143 -0.019154143
0.11554133 0.06668602 0.020198964 0.1498558 0.1426347 -0.028958242 0.0054017454 -0.028328767
-0.027725998 0.012466087 -0.0006475971 -0.03199408 -0.00010654263 -0.019979771 -0.012460405 0.01541014
-0.02246674 -0.016998382 0.026228549 0.010796423 -0.009430622 0.025544938 0.007028073 -0.041747883
-0.0297294 -0.05866555 -0.019672254 0.018014628 -0.015825761 -0.024051214 -0.010599734 -0.008898825
0.13935412 0.12944363 0.108162366 0.14204131 0.12842035 0.117490314 0.14259382 0.12887715
0.119010024 0.13373682 0.12792373 0.10540326 0.13966063 0.12361359 0.11176571 0.13345717
0.121731356 0.11313013 0.13500534 0.12686753 0.1058337 0.1375068 0.12683766 0.11365143
0.13353622 0.12140759 0.11688015 0.0084408475 0.0045476467 -0.007485656 0.08431974 0.07208508
0.047573127 0.07874247 0.08309919 0.0637174 0.042052254 0.023873856 -0.019298993 0.11324018
00000000: 7da1 a83d 3110 9d3d b338 913c 7d75 c33d
00000010: 0bd1 9e3d 71b8 303c dd3c ad3d 8ba4 863d
00000020: 4c7d 563c 1662 a03d 3eb3 973d 12d6 533c
00000030: 801b c63d e0ba 983d ed6a 873b 7f81 bc3d
00000040: 579b 833d 4e71 093c ed89 a73d ebb7 9a3d
00000050: 8a36 b13c 5ab1 cd3d 2100 af3d 0c72 733c
00000060: 374d b53d f151 893d 7bd4 8b3c 6f63 2ebd
00000070: 3fc2 adbc 35e3 2abd 3b6b 09bd e53d dcbc
00000080: d80b 3cbd d63d 23bd c3f1 28bd bb19 30bd
00000090: 1b63 64bd af14 dabc bc31 56bd ede3 25bd
000000a0: fc8a d4bc 6299 4fbd e700 1cbd e7ed 30bd
000000b0: a53c 38bd 1622 02bd eb22 62bc d47e 0ebd
000000c0: eac0 d6bc a29d b0bc 94de 04bd f436 01bd
000000d0: 9420 2ebd 0111 11bd 00ea 843c e232 77bb
000000e0: 7940 223b f457 4fba 5baa 85bc 5663 fabb
000000f0: f7b8 1fbc e4be 83bc fac8 a9bc a80b 8c3c
00000100: d30b 07bc 8200 e23a 850c 22ba 6258 85bc
00000110: 30a4 95bb 8914 4abc 859e a8bc f895 9abc
00000120: 7349 403c 1d6e 2abc 157d 63bb 8617 61bb
00000130: 8e58 a7bc 9b46 36bc 4f8e 0fbc d97e 95bc
00000140: fe00 b6bc 571b 993d fd70 543d 925e f83a
00000150: 7808 9e3d 541e 653d 2b17 1cbc 3154 8c3d
00000160: 0953 0e3d 2142 b9bb 94f2 6c3d f51b 483d
00000170: 3e9d 963b 3e90 9c3d c91a 633d 6a49 0c3a
00000180: 2be7 8b3d 96f3 373d 79c6 7fbb 8c2a 6b3d
00000190: c0ef 6a3d f0fa 8dbb b99d 873d b1f7 5c3d
000001a0: 2f3f 0f3b 2428 683d 6eab 223d 50e9 a037
000001b0: bb6c 14bd e3b0 2bbc 3d68 5bbd 0d6e a5bc
000001c0: 1445 ac3a 2d6c 01bd 9ae0 00bd c0d5 4fbc
000001d0: 99be c5bc ec7d b1bc d857 1dbb 4d75 0bbd
000001e0: 6a2b 8dbb 6ccc b43c 64ee f9bb 81c7 babb
000001f0: 66ad ab3c 14ff 93bb cdff 6cbd c0a1 13bd
00000200: 82f2 89bd 7123 6ebc f5bd 8b3b 69b4 e9bc
00000210: d06d dfbc 4c84 f23a 3b84 9ebc 47f8 05be
00000220: 9373 97bd 6ebe 24be 201a abbb d15f 813d
00000230: 4a23 f6bc 9aa2 88bd 1a31 543c 485d 64bd
00000240: 9a61 1dbd 2193 6239 4a92 f7bd 098a d43d
00000250: 33e3 2b3e 8895 b23c 0283 fe3c 787a c13d
00000260: 9ec7 88bc f260 b7bd f3dc 85bd 2283 20be
00000270: 2371 d83c f877 583d 551d 42bd bbee 20bd
00000280: e32b 763c 8286 83bd 7dc8 5cbc c7d2 5f3e
00000290: dd01 4d3e 0ec8 743d f48f 8a3e b310 993e
000002a0: 7251 5dbd 6fb2 143e 022a 363e c075 123e
000002b0: 377c d03e 0524 883e 5de4 ab3e bac1 153f
000002c0: 6754 fb3e f07d 673e 88c0 fe3e b517 f13e
000002d0: e202 4cbe 4993 9bbd 2c05 a2bd 26e9 9cbc
000002e0: efa0 ec3d ae92 883d 4c78 a53c cd73 193e
000002f0: d50e 123e d639 edbc 2001 b13b bb11 e8bc
00000300: a221 e3bc 8f3e 4c3c 81c3 29ba 390c 03bd
00000310: a46f dfb8 9eac a3bc ba26 4cbc d07a 7c3c
00000320: 2b0c b8bc 3140 8bbc 41dd d63c 7be3 303c
00000330: e582 1abc 9e43 d13c c04b e63b d4ff 2abd
00000340: 128b f3bc 4a4b 70bd b527 a1bc 6a93 933c
00000350: 07a5 81bc 0d07 c5bc 82aa 2dbc 61cc 11bc
00000360: d9b2 0e3e df8c 043e 3b84 dd3d 4773 113e
00000370: a080 033e c39e f03d 1d04 123e 5ff8 033e
00000380: 87bb f33d 4ef2 083e 70fe 023e aadd d73d
00000390: 3203 0f3e 1f29 fd3d 6ce5 e43d ffa8 083e
000003a0: 4a4e f93d c5b0 e73d d73e 0a3e 90e9 013e
000003b0: 57bf d83d 95ce 0c3e bbe1 013e 15c2 e83d
000003c0: b8bd 083e 8ba4 f83d dc5e ef3d 7b4b 0a3c
000003d0: 6d04 953b 3c4a f5bb d4af ac3d 58a1 933d
000003e0: 0adc 423d bb43 a13d e82f aa3d 457e 823d
000003f0: fc3e 2c3d 1b93 c33c ec18 9ebc 78ea e73d

input.double_conv3d.3.bias f4 [4]
0.006659196 -0.28770006 -0.04640757 -0.010362496
00000000: 6335 da3b 6c4d 93be dd15 3ebd 75c7 29bc

input.shortcut.weight f4 [4, 2, 1, 1, 1]
0.19932824 0.02648943 0.04141905 0.7673947 0.4864372 0.38068104 -0.24775365 -0.009160104
00000000: b41c 4c3e 5c00 d93c 06a7 293d fb73 443f
00000010: 4c0e f93e a0e8 c23e 22b3 7dbe 4314 16bc

input.shortcut.bias f4 [4]
-0.31299165 -0.08706252 -0.32550097 0.34746224
00000000: 7140 a0be d64d b2bd 10a8 a6be 92e6 b13e

down1.down_block3d.1.double_conv3d.0.weight f4 [8, 4, 3, 3, 3]
-0.046415824 -0.041730486 -0.055037808 -0.04583572 -0.038107265 -0.04481967 -0.048246674 -0.046418604
-0.05077163 -0.06583395 -0.05668553 -0.0575589 -0.058353152 -0.0518872 -0.060706396 -0.06703242
-0.05386009 -0.06025089 -0.061372343 -0.05182585 -0.05929404 -0.054254074 -0.050935574 -0.057792597
-0.061308328 -0.046205867 -0.050638646 -0.0959867 0.20367628 0.4528357 -0.13029635 0.19281669
0.50332147 -0.24362847 0.07783718 0.39619648 -0.2588854 0.110882394 0.49736774 -0.3907398
0.051693533 0.48201087 -0.52196306 -0.12811373 0.28752786 -0.17451443 0.11020202 0.3725458
-0.3041 0.014078474 0.31397715 -0.4089477 -0.1033367 0.2032179 0.022287088 0.019380432
0.024008563 -0.0017028488 0.0010376318 0.063117824 -0.080527 -0.06471772 0.0018394552 -0.031679086
0.042434983 0.09089969 -0.110629916 -0.008647858 0.089526944 -0.2073414 -0.10560796 -0.0056092385
-0.065707445 0.01606122 0.0020832662 -0.13057806 -0.041151658 -0.02694523 -0.20140785 -0.10376965
-0.08076072 -0.042871594 -0.17903411 -0.19110197 -0.017573256 -0.14072897 -0.20559245 0.046862043
-0.09608613 -0.177269 0.10429095 -0.08602603 -0.2139124 0.16081543 -0.062445488 -0.22002076
0.18297386 -0.02337332 -0.18220806 0.17403889 0.026407741 -0.08573202 0.2578167 0.08785073
-0.10280357 0.27419144 0.09582237 -0.11009213 0.082297675 0.059121545 0.005984044 0.07989066
0.058930274 0.008947371 0.073752776 0.040739253 -0.0059937527 0.10333123 0.07852858 0.021822872
0.10097872 0.07723521 0.024004892 0.09484825 0.057396628 0.00797527 0.10018485 0.07378172
0.015935402 0.0986139 0.07323101 0.01720104 0.09051309 0.05356418 0.0014470923 -0.044457607
-0.03869218 0.005444484 -0.03934059 -0.039303754 0.0077473456 -0.016900906 -0.008090651 0.035977483
-0.0562411 -0.048049424 -0.0042040194 -0.053842306 -0.04956922 -0.0036923636 -0.037021983 -0.023722688
0.02163815 -0.057480913 -0.046682272 -0.0050729318 -0.05415176 -0.0483175 -0.0054452666 -0.043869212
-0.028104298 0.015146433 -0.009957287 0.0019160708 0.017040052 -0.0020668693 0.001505944 0.015678043
0.0035839512 0.010398259 0.02257827 -0.003484777 0.007876469 0.023506505 0.0028464838 0.006696708
0.02150293 0.006778794 0.015044982 0.027956344 -0.0023780144 0.009554752 0.02479097 0.00332773
0.00798874 0.021570394 0.005770156 0.014704056 0.026270624 -0.067500785 -0.06000372 -0.0375104
-0.06825008 -0.059462372 -0.041097924 -0.06782718 -0.05531342 -0.04383788 -0.06291342 -0.056058567
-0.03461313 -0.06421243 -0.057320904 -0.038959578 -0.06473057 -0.05510684 -0.043105558 -0.06398785
-0.05792801 -0.035705246 -0.065247655 -0.05707191 -0.038627256 -0.063422054 -0.05108066 -0.038742047
-0.20033939 -0.1915951 -0.21270688 -0.1942516 -0.19955859 -0.20452647 -0.19842228 -0.2011049
-0.19996047 -0.20826986 -0.19995482 -0.22445464 -0.20161524 -0.20652987 -0.21516341 -0.20707865
-0.20952779 -0.21048832 -0.19974886 -0.189673 -0.2133034 -0.19278716 -0.1956607 -0.20493674
-0.19499667 -0.19783054 -0.19881918 0.17606159 0.10883642 -0.064514495 0.061780505 -0.008570274
-0.17605257 0.031759225 -0.036367077 -0.21650055 0.069634974 0.043740127 -0.07276278 -0.052343007
00000000: 851e 3ebd 96ed 2abd 536f 61bd 3cbe 3bbd
00000010: 5d16 1cbd d594 37bd 4e9e 45bd 6f21 3ebd
00000020: eaf5 4fbd f3d3 86bd 162f 68bd e2c2 6bbd
00000030: b703 6fbd ac87 54bd 45a7 78bd 4b48 89bd
00000040: 669c 5cbd a3c9 76bd 9161 7bbd 5847 54bd
00000050: 4fde 72bd 8539 5ebd d2a1 50bd eeb7 6cbd
00000060: 711e 7bbd 5d42 3dbd 786a 4fbd ad94 c4bd
00000070: 8490 503e 15da e73e 686c 05be bd71 453e
00000080: add9 003f be79 79be 1969 9f3d 44da ca3e
00000090: a18c 84be 4f16 e33d fca6 fe3e 0c0f c8be
000000a0: 99bc 533d 21ca f63e 5f9f 05bf 3f30 03be
000000b0: da36 933e e9b3 32be 99b1 e13d 53be be3e
000000c0: ffb2 9bbe 66a9 663c 9dc1 a03e 9861 d1be
000000d0: 31a2 d3bd 5a18 503e 6993 b63c b6c3 9e3c
000000e0: 9bad c43c 2032 dfba 2501 883a eb43 813d
000000f0: 57eb a4bd b98a 84bd e019 f13a eec1 01bd
00000100: 4ed0 2d3d 9e29 ba3d f091 e2bd bfaf 0dbc
00000110: e759 b73d 4e51 54be fc48 d8bd b4cd b7bb
00000120: a091 86bd d292 833c 6887 083b 41b6 05be
00000130: a48e 28bd 3ebc dcbc dc3d 4ebe 2f85 d4bd
00000140: e065 a5bd 209a 2fbd b854 37be 3cb0 43be
00000150: caf5 8fbc 411b 10be d486 52be 6af2 3f3d
00000160: cec8 c4bd 0186 35be 7e96 d53d 6a2e b0bd
00000170: da0b 5bbe cdac 243e d7c6 7fbd 1f4d 61be
00000180: 805d 3b3e 6879 bfbc c094 3abe 4037 323e
00000190: 0c55 d83c 4594 afbd 8d00 843e 15eb b33d
000001a0: ae8a d2bd d262 8c3e 853e c43d fc77 e1bd
000001b0: af8b a83d 6f29 723d cd15 c43b b79d a33d
000001c0: df60 713d fe97 123c b20b 973d 34de 263d
000001d0: 3e67 c4bb 539f d33d 98d3 a03d e1c5 b23c
000001e0: eecd ce3d 7e2d 9e3d e8a5 c43c cd3f c23d
000001f0: ba18 6b3d b5aa 023c b72d cd3d df1a 973d
00000200: f68a 823c 16f6 c93d 24fa 953d 32e9 8c3c
00000210: ed5e b93d 1d66 5b3d 5cac bd3a 2e19 36bd
00000220: b17b 1ebd a467 b23b 9923 21bd f9fc 20bd
00000230: 72dd fd3b c573 8abc a68e 04bc 205d 133d
00000240: 115d 66bd 79cf 44bd dfc1 89bb c089 5cbd
00000250: 1809 4bbd 95fb 71bb 5da4 17bd 1556 c2bc
00000260: 7d42 b13c 1b71 6bbd e935 3fbd d63a a6bb
00000270: 3cce 5dbd 92e8 45bd 356e b2bb 34b0 33bd
00000280: fc3a e6bc bf28 783c e423 23bc ab24 fb3a
00000290: 9497 8b3c 5074 07bb 1863 c53a 3d6f 803c
000002a0: b9e0 6a3b 765d 2a3c 10f6 b83c db60 64bb
000002b0: 4e0c 013c b790 c03c 138c 3a3b 0f70 db3b
000002c0: ea26 b03c a520 de3b 3a7f 763c b404 e53c
000002d0: 76d8 1bbb 898b 1c3c 6f16 cb3c 0c16 5a3b
000002e0: 34e3 023c 65b4 b03c 9413 bd3b 48e9 703c
000002f0: 7e35 d73c da3d 8abd 76c6 75bd 81a4 19bd
00000300: b3c6 8bbd d18e 73bd 4c56 28bd fae8 8abd
00000310: 5390 62bd 598f 33bd c0d8 80bd ab9d 65bd
00000320: 7fc6 0dbd ce81 83bd 53c9 6abd 1494 1fbd
00000330: 7691 84bd b6b7 61bd 748f 30bd 100c 83bd
00000340: ec45 6dbd aa3f 12bd 90a0 85bd 3cc4 69bd
00000350: 9d37 1ebd 6ce3 81bd f439 51bd fbaf 1ebd
00000360: c525 4dbe 8231 44be d5cf 59be e4e9 46be
00000370: 1659 4cbe 636f 51be 362f 4bbe 71ee 4dbe
00000380: 70c2 4cbe b244 55be f5c0 4cbe 70d7 65be
00000390: 3a74 4ebe 917c 53be cc53 5cbe 6d0c 54be
000003a0: 748e 56be 408a 57be f78a 4cbe a439 42be
000003b0: 356c 5abe ff69 45be 475b 48be f0da 51be
000003c0: 35ad 47be 1794 4abe 4197 4bbe 7d49 343e
000003d0: a1e5 de3d 2d20 84bd 8e0d 7d3d 566a 0cbc
000003e0: 2047 34be f615 023d a5f5 14bd 52b2 5dbe
000003f0: c89c 8e3d d928 333d a704 95bd 9f65 56bd

down1.down_block3d.1.double_conv3d.0.bias f4 [8]
0.011756742 8.30749e-05 0.015563103 6.0264916e-05 0.002287817 0.0099857105 -1.4898537e-05 0.0035740286
00000000: 5a9f 403c 7f38 ae38 63fc 7e3c f6c4 7c38
00000010: 33ef 153b 1b9b 233c bbf4 79b7 403a 6a3b

down1.down_block3d.1.double_conv3d.3.weight f4 [8, 8, 3, 3, 3]
-0.120460175 -0.09193028 -0.052659523 -0.12713233 -0.08691317 -0.01891407 -0.11013994 -0.06402241
0.0045680744 -0.17214207 -0.1732847 -0.12791432 -0.1636491 -0.16693456 -0.099339046 -0.14322075
-0.15392393 -0.088794485 -0.19639726 -0.18666013 -0.14731006 -0.17987831 -0.17197132 -0.128116
-0.16010855 -0.1648258 -0.13068904 -0.02403935 -0.00426757 -0.022709278 -0.016018836 0.007981534
-0.0067834607 -0.02440508 -0.002491794 -0.015578374 -0.0013649885 0.02050825 0.006695387 0.004714491
0.03607028 0.02200701 -0.0027348998 0.02499197 0.013367127 -0.013580287 0.003752574 -0.009503259
-0.012588861 0.014623521 0.005743553 -0.02007995 0.0059136124 -0.0022314847 -0.07664028 -0.043961674
-0.01961825 -0.0694915 -0.05395136 -0.0378343 -0.08723472 -0.07789398 -0.06142044 -0.04609753
-0.005189324 0.022901243 -0.046091076 -0.019173006 0.00068283104 -0.0651835 -0.044314567 -0.020186312
-0.09734995 -0.07927535 -0.0526228 -0.10321296 -0.09299894 -0.06952082 -0.1278344 -0.11846866
-0.09050503 -0.037692267 -0.025071649 -0.045792237 -0.03600409 -0.015524424 -0.03238617 -0.043170117
-0.023804633 -0.03810425 -0.012288288 0.0028998766 -0.016625006 -0.011354062 0.012726021 -0.0025036102
-0.017608268 0.0046090623 -0.008785328 -0.02351815 -0.0063011455 -0.023261191 -0.022345383 -0.00073828525
-0.012165146 -0.029863784 -0.0058985134 -0.018009644 -0.00908714 -0.021286169 -0.043617528 -0.020813746
-0.023681233 -0.043155294 -0.038675148 -0.03469512 -0.048460133 0.007811927 0.00041538657 -0.016311152
0.0044705574 0.003361592 -0.012417177 -0.00843049 -0.0044914023 -0.01950528 -0.03790886 -0.032835543
-0.042741053 -0.03395652 -0.02474792 -0.031795494 -0.037237324 -0.025704408 -0.034078304 0.026720038
-0.0448004 -0.09016929 -0.0018752788 -0.07109795 -0.10229612 -0.017673472 -0.06028899 -0.077367105
-0.0020897235 -0.09885038 -0.14119883 -0.016765667 -0.11791815 -0.14724699 -0.023825083 -0.09666322
-0.12261874 -0.060356967 -0.13588391 -0.15616766 -0.06618188 -0.14448015 -0.16238524 -0.049274534
-0.11327705 -0.12984924 -0.14201485 -0.13987759 -0.13593909 -0.14309345 -0.1414304 -0.14044933
-0.14214371 -0.14619897 -0.15227225 -0.115120515 -0.09284063 -0.07957129 -0.1233388 -0.0982788
-0.088763006 -0.12683734 -0.11332411 -0.117420465 -0.11400903 -0.09794688 -0.090335354 -0.120092414
-0.1035207 -0.096700706 -0.12686092 -0.11386373 -0.117649555 -0.017482176 -0.07112623 -0.10037899
-0.040638726 -0.08848489 -0.10405994 -0.04223461 -0.072910815 -0.08638399 -0.046541233 -0.10952401
-0.1342263 -0.0615643 -0.117120065 -0.13361792 -0.05235215 -0.09681296 -0.11640799 -0.07186589
-0.12012473 -0.1420304 -0.07672409 -0.121513665 -0.1389644 -0.057003964 -0.09597404 -0.11684134
-0.17239009 -0.15020671 -0.07947795 -0.0053329724 0.034239583 -0.038705513 0.01175325 0.21962161
0.19178165 0.04805555 0.01566648 -0.188972 0.25174305 0.24923655 -0.18127869 0.22396699
0.38158563 0.02303321 0.018135315 0.099897236 0.04323128 0.14151397 0.27382368 0.10493525
0.06743541 0.32298928 0.18112707 0.065737545 0.052823637 0.04868595 0.06210719 0.0502093
0.045650452 0.059745394 0.04640124 0.042484798 0.06865855 0.059605602 0.059678786 0.06450838
00000000: d3b3 f6bd f145 bcbd 83b1 57bd fa2e 02be
00000010: 88ff b1bd aef1 9abc 0d91 e1bd 2e1e 83bd
00000020: c9af 953b 0346 30be 8b71 31be f9fb 02be
00000030: a193 27be e5f0 2abe 4572 cbbd 76a8 12be
00000040: 3c9e 1dbe e2d9 b5bd 5d1c 49be d523 3fbe
00000050: 73d8 16be 0532 38be 4019 30be d730 03be
00000060: 7ff3 23be 18c8 28be 59d3 05be 2cee c4bc
00000070: f9d6 8bbb cf08 babc ef39 83bc fbc4 023c
00000080: cb47 debb 2aed c7bc 5e4d 23bb 703c 7fbc
00000090: 6ae9 b2ba eb00 a83c fa64 db3b 047c 9a3b
000000a0: 6ebe 133d 0c48 b43c 013c 33bb f6bb cc3c
000000b0: cb01 5b3c da7f 5ebc bfed 753b 8fb3 1bbc
000000c0: 8341 4ebc 7e97 6f3c 6a34 bc3b b57e a4bc
000000d0: fac6 c13b 1a3e 12bb 94f5 9cbd 2811 34bd
000000e0: 74b6 a0bc 8f51 8ebd 1afc 5cbd 24f8 1abd
000000f0: 1ea8 b2bd e186 9fbd 0094 7bbd c3d0 3cbd
00000100: 340b aabb 639b bb3c ffc9 3cbd b510 9dbc
00000110: 0400 333a ed7e 85bd 3183 35bd c45d a5bc
00000120: 695f c7bd 1d5b a2bd 018b 57bd 5161 d3bd
00000130: 3a76 bebd ef60 8ebd 05e7 02be b29f f2bd
00000140: b35a b9bd 3563 1abd 0f63 cdbc a490 3bbd
00000150: 0679 13bd 275a 7ebc 5ca7 04bd 26d3 30bd
00000160: ef01 c3bc 3413 1cbd d154 49bc db0b 3e3b
00000170: 2a31 88bc 6306 3abc cd80 503c 9c13 24bb
00000180: 373f 90bc 9e07 973b 56f0 0fbc 23a9 c0bc
00000190: d779 cebb 418e bebc aa0d b7bc 7c89 41ba
000001a0: 5250 47bc e5a4 f4bc 5148 c1bb f688 93bc
000001b0: 3ae2 14bc 5560 aebc 4ba8 32bd 9781 aabc
000001c0: 25ff c1bc 9bc3 30bd d569 1ebd 781c 0ebd
000001d0: 227e 46bd 31fb ff3b 3ec8 d939 f79e 85bc
000001e0: c17d 923b 284e 5c3b 6a71 4bbc 0a20 0abc
000001f0: 9d2c 93bb 89c9 9fbc 5246 1bbd 907e 06bd
00000200: 3e11 2fbd fe15 0bbd 26bc cabc fe3b 02bd
00000210: 2a86 18bd 0d92 d2bc b195 0bbd fbe3 da3c
00000220: a080 37bd adaa b8bd eacb f5ba cd9b 91bd
00000230: a180 d1bd f5c7 90bc 97f1 76bd a572 9ebd
00000240: bef3 08bb 1172 cabd 6d96 10be 2758 89bc
00000250: 127f f1bd eac7 16be d22c c3bc 5ef7 c5bd
00000260: 891f fbbd de38 77bd 2725 0bbe 6aea 1fbe
00000270: 5e8a 87bd 9bf2 13be 5148 26be 18d4 49bd
00000280: ccfd e7bd 33f7 04be 576c 11be 123c 0fbe
00000290: 9e33 0bbe 1787 12be 21d3 10be f3d1 0fbe
000002a0: 1f8e 11be 2fb5 15be 42ed 1bbe 4ec4 ebbd
000002b0: 3a23 bebd 46f6 a2bd 0e99 fcbd 6546 c9bd
000002c0: 61c9 b5bd a6e1 01be 7916 e8bd 247a f0bd
000002d0: 917d e9bd 6098 c8bd be01 b9bd 03f3 f5bd
000002e0: a902 d4bd 050b c6bd d4e7 01be 6331 e9bd
000002f0: 40f2 f0bd c836 8fbc a1aa 91bd 8093 cdbd
00000300: cb74 26bd 9137 b5bd 611d d5bd 33fe 2cbd
00000310: 4452 95bd 17ea b0bd 05a2 3ebd 204e e0bd
00000320: 9f72 09be d92a 7cbd a5dc efbd 23d3 08be
00000330: 356f 56bd e045 c6bd 5067 eebd 6c2e 93bd
00000340: f403 f6bd 6b70 11be 8521 9dbd 28dc f8bd
00000350: af4c 0ebe fd7c 69bd 0a8e c4bd 834a efbd
00000360: 0787 30be cacf 19be 56c5 a2bd 37c0 aebb
00000370: ce3e 0c3d ac89 1ebd b490 403c 7de4 603e
00000380: 6962 443e e5d5 443d fd56 803c e081 41be
00000390: 77e4 803e de37 7f3e 1fa1 39be 9a57 653e
000003a0: 315f c33e 24b0 bc3c 8390 943c ec96 cc3d
000003b0: 4813 313d 0ae9 103e 9e32 8c3e 4be8 d63d
000003c0: 941b 8a3d da5e a53e 6079 393e 68a1 863d
000003d0: 995d 583d eb6a 473d 1c64 7e3d 44a8 4d3d
000003e0: f8fb 3a3d 96b7 743d 3a0f 3e3d 8a04 2e3d
000003f0: db9c 8c3d 0125 743d be71 743d f81c 843d

down1.down_block3d.1.double_conv3d.3.bias f4 [8]
-4.386822e-05 -0.006915465 -0.0005871614 1.0149e-05 -0.0012714535 -0.00049984065 0.006910001 -0.0018355683
00000000: 24ff 37b8 209b e2bb bceb 19ba a045 2a37
00000010: e6a6 a6ba bd07 03ba 4a6d e23b 7497 f0ba

down1.down_block3d.1.shortcut.weight f4 [8, 4, 1, 1, 1]
5.4672768e-05 2.9690971e-05 -2.864504e-05 -4.86649e-05 -0.0004391393 -0.0004905062 8.282086e-05 -0.0003060542
0.0003190399 0.00023649033 -3.2417673e-05 0.0006797514 -1.0473591e-06 -5.222264e-07 -9.64925e-07 1.8684448e-06
0.00029015588 -0.0007551656 -5.6377048e-05 0.0009214169 -0.00054806506 -9.708818e-05 -0.00034617496 -0.0016863707
0.0021225302 -0.0013010091 0.0020395955 0.0022087179 -0.0004762114 0.00096597534 -0.00057691796 -0.0011553193
00000000: 7050 6538 e010 f937 c14a f0b7 8a1d 4cb8
00000010: 473c e6b9 5095 00ba 1cb0 ad38 e675 a0b9
00000020: cf44 a739 64fa 7739 36f8 07b8 5831 323a
00000030: fc92 8cb5 202f 0cb5 9282 81b5 46c7 fa35
00000040: 1020 9839 4ef6 45ba 6576 6cb8 3e8b 713a
00000050: 06ac 0fba d29b cbb8 d17e b5b9 3609 ddba
00000060: 261a 0b3b 9f86 aaba bcaa 053b 23c0 103b
00000070: 03ac f9b9 8239 7d3a 4f3c 17ba 156e 97ba

down1.down_block3d.1.shortcut.bias f4 [8]
-0.19868873 -0.42942405 -0.096959874 -0.12436168 -0.15618286 -0.35868388 -0.11422231 0.36910182
00000000: 0f75 4bbe 78dd dbbe e692 c6bd 56b1 febd
00000010: 66ee 1fbe 6aa5 b7be 63ed e9bd eafa bc3e

down2.down_block3d.1.double_conv3d.0.weight f4 [16, 8, 3, 3, 3]
-0.0006416835 0.008185602 0.007805782 -0.0066953413 0.006538748 0.008162323 -0.024530035 0.0021772815
0.016342798 -0.051740363 -0.03181387 -0.025806738 -0.055086 -0.03520485 -0.023612358 -0.06646839
-0.040997088 -0.013853216 -0.099836394 -0.06343166 -0.04522617 -0.108387664 -0.07080905 -0.04612224
-0.11006704 -0.070211455 -0.029435258 -0.13572763 -0.16273937 -0.13899614 -0.16179542 -0.20400085
-0.16041999 -0.14551573 -0.17435913 -0.10748781 -0.1688131 -0.18771738 -0.17202568 -0.19768226
-0.21748048 -0.19749 -0.18942231 -0.19107303 -0.135682 -0.16361952 -0.14420253 -0.14005432
-0.20312318 -0.18962714 -0.16007918 -0.18449311 -0.1723344 -0.10933399 -0.07633605 -0.035741113
-0.007996346 -0.06360366 -0.030988133 -0.007980133 -0.07132345 -0.03294468 0.005501572 -0.13448785
-0.08875791 -0.04413712 -0.10160809 -0.0793238 -0.037287124 -0.08689633 -0.070285924 -0.016077975
-0.18515752 -0.12384841 -0.0570909 -0.1589761 -0.112448335 -0.04188713 -0.13271758 -0.090234555
-0.0076526757 0.02958832 0.009639131 -0.011936204 0.005887632 0.0010072939 -0.011678536 -0.010783345
-0.0065474636 -0.010940026 0.023836005 0.004254082 -0.017627591 4.7150745e-05 -0.0035794834 -0.01694495
-0.017927663 -0.012030251 -0.016410619 0.009638119 -0.008954841 -0.03035454 -0.013588862 -0.017785817
-0.030964786 -0.031536233 -0.026718909 -0.03146616 -0.10260887 -0.064531155 -0.05768958 -0.07396041
-0.04419182 -0.03779512 -0.073398456 -0.049225654 -0.027764333 -0.1482787 -0.12222156 -0.10389347
-0.08959393 -0.08430351 -0.08240064 -0.06178218 -0.06741984 -0.059026368 -0.20531142 -0.16702849
-0.11186457 -0.14301626 -0.12858225 -0.090005696 -0.09349022 -0.09527117 -0.055638846 0.1262522
-0.009445373 -0.06607595 0.091016725 -0.041817416 -0.10180163 0.08324409 -0.031032797 -0.07810033
0.078389004 -0.051368058 -0.094185844 0.033292904 -0.08672858 -0.11754493 0.015881637 -0.08175161
-0.091960624 0.020836595 -0.068822525 -0.053088497 -0.004723375 -0.096535385 -0.078954205 -0.00820437
-0.082595535 -0.055032834 0.026537957 -0.088657945 -0.16362655 -0.0031293475 -0.12282728 -0.1800118
0.01937202 -0.10018455 -0.15318573 0.043511324 -0.06392063 -0.1493446 -0.004391261 -0.10489056
-0.15506676 -1.3513563e-06 -0.09617825 -0.12583184 0.009531924 -0.090335 -0.16059591 -0.0021955401
-0.09915386 -0.15385292 0.019036831 -0.0737555 -0.112401456 0.018559393 0.09208983 0.14487696
0.022264374 0.07876394 0.13564229 0.004123704 0.07000373 0.13562058 -0.031813886 0.040756226
0.10282445 -0.03524055 0.012346289 0.08455544 -0.050864466 -0.0050684717 0.080762 -0.05096555
0.030395217 0.10440099 -0.0690153 -0.010777008 0.0731364 -0.087155014 -0.03147789 0.063263535
0.039483495 0.037587125 0.05191882 0.05464084 0.03550899 0.03373859 0.06532139 0.03502186
0.021699946 0.07133876 0.06583537 0.059097435 0.09515548 0.07567474 0.05448396 0.11310206
0.0803073 0.04933847 0.023648841 0.0012661996 -0.017185383 0.062445633 0.027419481 -0.010272759
0.08895718 0.04648788 -0.012008042 -0.035788335 0.10192954 0.48592767 -0.19025758 -0.07563131
0.28230593 -0.27621615 -0.1438296 0.06902424 0.09995899 0.057894167 0.29773208 0.062663816
00000000: a736 28ba e71c 063c a5c7 ff3b 9864 dbbb
00000010: fe42 d63b 44bb 053c 36f3 c8bc b9b0 0e3b
00000020: 55e1 853c b4ed 53bd 434f 02bd a768 d3bc
00000030: dca1 61bd f632 10bd b46e c1bc 9420 88bd
00000040: 90ec 27bd 99f8 62bc 0677 ccbd 75e8 81bd
00000050: 143f 39bd 5afa ddbd 5604 91bd adea 3cbd
00000060: d46a e1bd 06cb 8fbd 3622 f1bc 2ffc 0abe
00000070: 26a5 26be 0155 0ebe b3ad 25be 99e5 50be
00000080: 2345 24be 1302 15be 338b 32be 9222 dcbd
00000090: 57dd 2cbe fc38 40be 8027 30be 386d 4abe
000000a0: 34b3 5ebe d23a 4abe ecf7 41be a6a8 43be
000000b0: 39f0 0abe e08b 27be d4a9 13be 666a 0fbe
000000c0: 86ff 4fbe 9e2d 42be cceb 23be c3eb 3cbe
000000d0: 6e78 30be 80ea dfbd 1356 9cbd 4665 12bd
000000e0: 1b03 03bc a342 82bd d3da fdbc 1bbf 02bc
000000f0: 0712 92bd 00f1 06bd 8846 b43b 2fb7 09be
00000100: b5c6 b5bd 20c9 34bd e717 d0bd 8474 a2bd
00000110: 62ba 18bd b4f6 b1bd 11f2 8fbd f5b5 83bc
00000120: ef99 3dbe 3ca4 fdbd 26d8 69bd a1ca 22be
00000130: 504b e6bd d791 2bbd 1ee7 07be e5cc b8bd
00000140: 4cc3 fabb 3463 f23c 72ed 1d3c 1190 43bc
00000150: 09ed c03b 2d07 843a 5557 3fbc a1ac 30bc
00000160: 1b8c d6bb cb3d 33bc ba43 c33c d465 8b3b
00000170: bd67 90bc bac3 4538 c495 6abb 23d0 8abc
00000180: 09dd 92bc 881a 45bc 906f 86bc 33e9 1d3c
00000190: 53b7 12bc 16aa f8bc d1a3 5ebc 90b3 91bc
000001a0: dda9 fdbc 232c 01bd 9de1 dabc a9e2 00bd
000001b0: 9924 d2bd e928 84bd e94b 6cbd 8e78 97bd
000001c0: 7b02 35bd 0ecf 1abd ee51 96bd d7a0 49bd
000001d0: 0772 e3bc 5fd6 17be 4c4f fabd 19c6 d4bd
000001e0: 067d b7bd 52a7 acbd abc1 a8bd 500f 7dbd
000001f0: 6a13 8abd a2c5 71bd 283d 52be 8409 2bbe
00000200: 4019 e5bd db72 12be 11ab 03be e854 b8bd
00000210: cd77 bfbd 881d c3bd 8fe5 63bd 4248 013e
00000220: c4c0 1abc d452 87bd fa66 ba3d bd48 2bbd
00000230: 5f7d d0bd e17b aa3d 7e38 febc 11f3 9fbd
00000240: 6a8a a03d 5067 52bd 82e4 c0bd 245e 083d
00000250: c19e b1bd 65bb f0bd 351a 823c 636d a7bd
00000260: da55 bcbd 82b1 aa3c d3f2 8cbd 5373 59bd
00000270: 8bc6 9abb 58b4 c5bd beb2 a1bd 9f6b 06bc
00000280: d927 a9bd 1c6a 61bd 2166 d93c 4c92 b5bd
00000290: b88d 27be bd15 4dbb de8c fbbd 0355 38be
000002a0: 12b2 9e3c 8f2d cdbd b8dc 1cbe ee38 323d
000002b0: d2e8 82bd caed 18be 91e4 8fbb ddd0 d6bd
000002c0: d2c9 1ebe 4060 b5b5 1af9 c4bd 10da 00be
000002d0: c92b 1c3c 8e01 b9bd 4173 24be 0de3 0fbb
000002e0: 2e11 cbbd 9f8b 1dbe 21f3 9b3c 200d 97bd
000002f0: bc32 e6bd de09 983c 9899 bc3d a05a 143e
00000300: c763 b63c fd4e a13d d0e5 0a3e 2320 873b
00000310: 1e5e 8f3d 1fe0 0a3e 474f 02bd 00f0 263d
00000320: a095 d23d 6558 10bd 1748 4a3c 672b ad3d
00000330: 4257 50bd 6c15 a6bb 8c66 a53d 41c1 50bd
00000340: 64ff f83c 30d0 d53d e557 8dbd 0c92 30bc
00000350: 89c8 953d 547e b2bd f6ee 00bd 5090 813d
00000360: 72b9 213d f5f4 193d d4a8 543d 13cf 5f3d
00000370: e071 113d 7a31 0a3d 39c7 853d 1573 0f3d
00000380: 16c4 b13c 0e1a 923d b2d4 863d 2710 723d
00000390: e0e0 c23d 5cfb 9a3d 932a 5f3d 0ea2 e73d
000003a0: 2778 a43d 2317 4a3d 37bb c13c 9cf6 a53a
000003b0: 5cc8 8cbc fec6 7f3d d29e e03c 134f 28bc
000003c0: 2f2f b63d 136a 3e3d 61bd 44bc ca96 12bd
000003d0: 6fc0 d03d 83cb f83e e2d2 42be 97e4 9abd
000003e0: 678a 903e 346c 8dbe 1148 13be 955c 8d3d
000003f0: 4db7 cc3d 6f22 6d3d 5770 983e e355 803d

down2.down_block3d.1.double_conv3d.0.bias f4 [16]
0.0001033024 -0.00045989253 -0.0001258504 -2.617139e-05 0.0010808887 4.9417e-05 5.8545626e-05 -4.8276706e-06
-8.773284e-05 2.2027394e-05 -8.701987e-06 -0.00021257637 0.00019424682 0.0002285268 0.0005015011 -0.00010356466
00000000: 0ea4 d838 bb1d f1b9 b6f6 03b9 a28a dbb7
00000010: 9bac 8d3a 1a45 4f38 e38e 7538 60fd a1b6
00000020: 36fd b7b8 78c7 b837 c0fe 11b7 09e7 5eb9
00000030: bcae 4b39 b2a0 6f39 2b77 033a da30 d9b8

down2.down_block3d.1.double_conv3d.3.weight f4 [16, 16, 3, 3, 3]
-0.012577712 -0.01752734 -0.03511856 0.0078829415 -0.018441295 -0.029067602 0.08910576 0.018942706
-0.032550555 0.006772353 -0.0025492574 -0.012671763 -0.0020513346 -0.0145814065 -0.0061412295 0.042367857
-0.008019666 -0.035865407 -0.04837978 -0.08595054 -0.08943913 -0.07862941 -0.11132615 -0.09188922
-0.060896482 -0.11900942 -0.13226326 -0.032521386 -0.10256583 -0.14216325 0.0591461 0.0006412783
-0.04085275 0.11393862 0.03323876 -0.03966941 -0.06849812 -0.102323614 -0.10845353 -0.03943356
-0.0324497 -0.037832957 -0.064732544 -0.06421611 -0.07265372 -0.1332574 -0.15076959 -0.12789378
-0.10924722 -0.07709385 -0.054196212 -0.1495723 -0.07876742 -0.046240665 0.08843663 0.009751978
-0.05955923 0.041239936 -0.013398595 -0.05991279 0.03517333 0.019542817 -0.017211756 0.08468235
0.00064801984 -0.06676421 0.006006922 -0.046344753 -0.079555236 -0.031049877 -0.033701513 -0.04657949
0.07958803 -0.012046404 -0.08281778 -0.02303875 -0.08350931 -0.11549871 -0.08937969 -0.09622655
-0.09268365 0.07684316 -0.018356064 -0.05158243 0.00077901897 -0.01408512 0.007567657 -0.065192424
0.0142353065 0.08598604 0.059753183 -0.042851035 -0.075690545 -0.019855268 -0.050772633 -0.028851558
-0.061371274 0.017328061 0.093141384 0.037728444 -0.056549016 -0.089944035 -0.04106999 -0.07267274
-0.056906942 -0.0658869 0.0023462563 0.077375926 -0.11902751 -0.019737195 0.04430693 -0.107975334
-0.026377168 0.027471066 -0.11421058 -0.048388008 0.0046914504 -0.12878963 -0.02631845 0.035493653
-0.14616933 -0.063455634 -0.014048279 -0.18310425 -0.114948794 -0.06828134 -0.10800665 -0.023056563
0.022421043 -0.17099616 -0.08504856 -0.0347835 -0.2665791 -0.16748357 -0.09949735 -0.1419812
-0.1004378 0.056366436 -0.039604343 -0.07582 0.049819525 0.21728133 0.13672376 0.1878466
-0.043684844 -0.05658407 0.025688479 0.09926001 0.016690724 0.0609624 0.3545929 0.2497855
0.25483176 -0.062440656 -0.09089855 -0.07477522 0.056371212 -0.055711336 -0.09021164 0.2794919
0.106500775 0.047822554 -0.04619429 -0.04767892 -0.071484275 -0.055973224 0.038876623 0.07144772
-0.17976661 -0.04157222 0.055649336 -0.047699638 -0.033524375 -0.022640204 -0.031217879 0.06769027
0.1155665 -0.12756875 0.039029915 0.14866231 -0.09741903 -0.09679263 -0.049328446 -0.020195283
0.05020788 0.10816276 0.019583274 0.15018634 0.24044447 0.0686189 -0.013148507 -0.03625592
-0.0016460466 -0.013449088 0.016169002 -0.03917021 0.040531155 0.109954804 0.055183135 -0.03422243
-0.057157915 -0.022909421 -0.054508884 -0.021535536 -0.045778137 0.031140314 0.113427214 0.052435406
-0.03381659 -0.062190417 -0.022037268 -0.061004505 -0.040079847 -0.036096442 0.02541698 0.10191559
-0.16959669 -0.13678813 -0.12759538 -0.059439257 0.00070347666 -0.0035575102 -0.043338604 0.019239197
0.025451928 -0.16967757 -0.121291414 -0.10738406 -0.04379893 0.036712028 0.032047894 0.0011279642
0.07687823 0.08635742 -0.123342074 -0.08630778 -0.06617288 0.0072174617 0.06630993 0.06373315
0.05490175 0.12366234 0.12716903 -0.051103804 0.024509482 0.041070264 -0.085101426 0.0061433795
0.028284844 -0.13992777 -0.018461749 0.021712175 -0.10659903 0.0065157125 0.044659667 -0.15653831
00000000: bf12 4ebc 7f95 8fbc 7bd8 0fbd 7427 013c
00000010: 3312 97bc 2e1f eebc 157d b63d bc2d 9b3c
00000020: bb53 05bd 9dea dd3b 7111 27bb 3a9d 4fbc
00000030: af6f 06bb dae6 6ebc 5e3c c9bb eb89 2d3d
00000040: eb64 03bc 9be7 12bd e029 46bd d606 b0bd
00000050: dd2b b7bd 7508 a1bd f7fe e3bd 6a30 bcbd
00000060: 976e 79bd 36bb f3bd 0570 07be 2535 05bd
00000070: 090e d2bd 3e93 11be 2e43 723d 751b 283a
00000080: 3755 27bd a758 e93d 5e25 083d 647c 22bd
00000090: be48 8cbd 0b8f d1bd e21c debd 1685 21bd
000000a0: fae9 04bd bbf6 1abd 7f92 84bd bc83 83bd
000000b0: 79cb 94bd a174 08be 5863 1abe 96f6 02be
000000c0: 02bd dfbd 61e3 9dbd d9fc 5dbd 7b29 19be
000000d0: d050 a1bd da66 3dbd 441e b53d c3c6 1f3c
000000e0: 61f4 73bd 35eb 283d c885 5bbc 1d67 75bd
000000f0: e911 103d 4218 a03c abff 8cbc f16d ad3d
00000100: e0df 293a adbb 88bd b7d5 c43b ffd3 3dbd
00000110: dbed a2bd 505c febc 990a 0abd 23ca 3ebd
00000120: 0dff a23d 485e 45bc 5e9c a9bd c3bb bcbc
00000130: ee06 abbd 968a ecbd b30c b7bd 6d12 c5bd
00000140: edd0 bdbd f25f 9d3d 755f 96bc 1948 53bd
00000150: 1437 4c3a 46c5 66bc 1cfa f73b 9b83 85bd
00000160: 343b 693c 7319 b03d c1bf 743d 9184 2fbd
00000170: a503 9bbd 84a7 a2bc f7f6 4fbd 1a5a ecbc
00000180: 7260 7bbd 94f3 8d3c e9c0 be3d 2489 1a3d
00000190: f19f 67bd 9434 b8bd 0139 28bd 72d5 94bd
000001a0: 4117 69bd b6ef 86bd a6c3 193b 4577 9e3d
000001b0: b2c4 f3bd e6af a1bc 2f7b 353d 2c22 ddbd
000001c0: ee14 d8bc 000b e13c 3de7 e9bd 8132 46bd
000001d0: bdba 993b 6ee1 03be ca99 d7bc cb61 113d
000001e0: 6aad 15be 07f5 81bd c12a 66bc ae7f 3bbe
000001f0: 466a ebbd 16d7 8bbd 9732 ddbd 1ee1 bcbc
00000200: 56ac b73c 9e19 2fbe f02d aebd 2579 0ebd
00000210: 0e7d 88be d080 2bbe 44c5 cbbd 8563 11be
00000220: 55b2 cdbd 7ee0 663d 2a38 22bd 8447 9bbd
00000230: 8f0f 4c3d ff7e 5e3e 5001 0c3e dc5a 403e
00000240: e1ee 32bd b3c4 67bd a570 d23c d548 cb3d
00000250: fcba 883c b6b3 793d 338d b53e c5c7 7f3e
00000260: 4f79 823e c6c1 7fbd 0529 babd c023 99bd
00000270: 80e5 663d 9231 64bd e1c0 b8bd 9019 8f3e
00000280: 141d da3d 95e1 433d 3936 3dbd f94a 43bd
00000290: 5966 92bd 2e44 65bd 183d 1f3d 2f53 923d
000002a0: bd14 38be a247 2abd 8ff0 633d b260 43bd
000002b0: db50 09bd f377 b9bc a3bc ffbc 32a1 8a3d
000002c0: 21ae ec3d 62a1 02be d5dd 1f3d ef3a 183e
000002d0: a183 c7bd 373b c6bd a00c 4abd 9470 a5bc
000002e0: c7a6 4d3d 7084 dd3d 1a6d a03c 73ca 193e
000002f0: 1337 763e 1188 8c3d d66c 57bc 1681 14bd
00000300: 29c0 d7ba 9059 5cbc db74 843c f170 20bd
00000310: ff03 263d fc2f e13d b607 623d d22c 0cbd
00000320: 6b1e 6abd 8aac bbbc b544 5fbd 4b6b b0bc
00000330: db81 3bbd f919 ff3c 874c e83d 82c6 563d
00000340: 4483 0abd 61bb 7ebd 8087 b4bc dcdf 79bd
00000350: c42a 24bd ddd9 13bd 4537 d03c 1fb9 d03d
00000360: c1aa 2dbe 3012 0cbe 5da8 02be 9476 73bd
00000370: 8569 383a 1e25 69bb d283 31bd 859b 9d3c
00000380: 9080 d03c f5bf 2dbe a267 f8bd 2dec dbbd
00000390: 8266 33bd 5a5f 163d a744 033d 33d8 933a
000003a0: 5572 9d3d 29dc b03d c59a fcbd 22c2 b0bd
000003b0: a685 87bd 7580 ec3b 80cd 873d 8786 823d
000003c0: a8e0 603d ae42 fd3d 9938 023e 3952 51bd
000003d0: 1cc8 c83c 4b39 283d a849 aebd 674e c93b
000003e0: 9eb5 e73c 3a49 0fbe 183d 97bc bbdd b13c
000003f0: 9850 dabd c281 d53b 0eed 363d 944b 20be

down2.down_block3d.1.double_conv3d.3.bias f4 [16]
0.0006220533 0.00038660504 2.8010676e-05 2.3898034e-05 8.05069e-05 -0.00013969812 0.0014031118 -0.000110206835
-7.243018e-05 -1.6259308e-05 -0.00012442259 0.00022132162 -2.7359116e-05 0.00015440938 5.5588294e-05 -4.4502387e-05
00000000: 4a11 233a 40b1 ca39 78f8 ea37 a378 c837
00000010: d0d5 a838 ee7b 12b9 9fe8 b73a d81e e7b8
00000020: a8e5 97b8 9964 88b7 6f77 02b9 9212 6839
00000030: 4181 e5b7 f4e8 2139 7a27 6938 13a8 3ab8

down2.down_block3d.1.shortcut.weight f4 [16, 8, 1, 1, 1]
-8.878975e-22 1.6264925e-21 8.582492e-22 -1.432707e-21 1.1596965e-21 -3.917251e-21 1.6001025e-21 -1.5607927e-21
-1.2998866e-22 6.573607e-23 1.6927111e-21 1.9837774e-22 3.161564e-21 -2.9420387e-22 2.3814766e-21 1.577578e-21
-2.5707956e-21 -7.4256095e-23 -5.4495e-22 2.8242573e-21 3.8555325e-21 -8.720206e-22 1.6843678e-21 3.354226e-21
-2.9574882e-21 -8.211863e-23 -6.3472223e-22 1.823019e-22 -3.1325442e-22 -7.869657e-23 1.136127e-21 8.895234e-22
6.5605793e-22 -9.786803e-22 -1.3343659e-21 5.766745e-22 -7.444467e-22 -1.5539679e-21 -1.962179e-21 -1.3120408e-22
3.4892257e-22 9.846713e-22 -7.108494e-22 7.3945337e-22 -1.2807225e-21 1.7456318e-23 5.630986e-22 -5.1159334e-24
-4.2046488e-22 3.036292e-22 7.269486e-23 1.5907778e-21 -5.04624e-22 -1.2258179e-21 -4.6021464e-23 -6.7996246e-22
2.208369e-21 8.851032e-23 -3.256727e-22 -2.0844558e-21 1.9422809e-21 3.1779492e-21 2.515247e-21 1.1384601e-21
-7.3004475e-22 -1.1162036e-21 2.3934439e-22 -3.514792e-21 -4.038845e-22 -2.9151295e-21 -3.761107e-23 -5.8552185e-23
1.2197235e-21 7.3413183e-22 7.142425e-22 1.4153342e-21 -1.4517157e-21 2.3443795e-22 -1.1211314e-22 1.745737e-21
-1.6971543e-21 1.920011e-21 2.4360126e-21 2.342501e-22 -2.6541267e-21 -1.5897087e-21 3.0467647e-21 7.9988426e-23
-2.687846e-21 1.459927e-21 -1.4034539e-21 -5.2014065e-22 1.1234952e-22 4.462684e-22 1.8339125e-21 -2.0572145e-21
2.481585e-21 -3.2134775e-22 5.134933e-23 8.697498e-22 1.5800599e-21 3.4255633e-21 2.6297667e-21 -4.24733e-22
-1.4742588e-21 6.9083e-22 -7.1871454e-22 4.1267195e-23 1.4878787e-21 -7.6549174e-22 -4.0024202e-22 3.0431765e-21
1.3579483e-22 -1.7023984e-22 -1.4594725e-21 -6.5222262e-24 -2.101239e-21 2.1072418e-21 -1.6612332e-21 -4.9133185e-22
-2.1390503e-21 1.9802185e-21 -8.2934646e-22 -4.6231874e-22 -4.2052655e-21 -1.8525901e-21 -6.471204e-23 8.52468e-22
00000000: df2c 869c e2c9 f51c e8b1 811c 2b81 d89c
00000010: 963f af1c 54fd 939d f8cc f11c 3edc eb9c
00000020: 8b25 1d9b a8f0 9e1a 97cb ff1c f0d2 6f1b
00000030: 8be1 6e1d d8d5 b19b 75f0 331d 9865 ee1c
00000040: 6b3e 429d 4c8a b39a 77b3 249c 1565 551d
00000050: 6ca8 911d aac6 839c d388 fe1c 2b70 7d1d
00000060: 2476 5f9d f88c c69a 41d5 3f9c b563 5c1b
00000070: c659 bd9b d146 be9a c9af ab1c c56b 861c
00000080: 0648 461c dce4 939c c8a4 c99c 074a 2e1c
00000090: c6fe 609c 39d4 ea9c 1042 149d b29d 1e9b
000000a0: 27e9 d21b a0cc 941c 4fd7 569c 6f7c 5f1c
000000b0: 8d89 c19c c0d3 a819 a52f 2a1c c0e9 c598
000000c0: ca27 fe9b 5888 b71b f0c3 af1a 3c64 f01c
000000d0: 6483 189c 883d b99c d08b 5e9a 8c81 4d9c
000000e0: 12dc 261d 3c01 d61a 69db c49b 3d7f 1d9d
000000f0: 2dc1 121d 7a1e 701d f40b 3e1d 0b0a ac1c
00000100: 7aa4 5c9c 09ad a89c c0ac 901b fbc8 849d
00000110: 1922 f49b ce42 5c9d 40e0 359a 0c92 8d9a
00000120: c451 b81c b3e0 5d1c d6dd 571c 17e1 d51c
00000130: 8860 db9c 84b5 8d1b 5689 079b 77e7 031d
00000140: bd3b 009d 6a12 111d 560f 381d 7298 8d1b
00000150: 478a 489d e03a f09c 0035 661d 7066 c11a
00000160: 8116 4b9d 319e dc1c 7e15 d49c ef33 1d9c
00000170: 7ed2 071b 58e0 061c 0791 0a1d 5170 1b9d
00000180: d680 3b1d 283e c29b 644f 781a d16e 831c
00000190: 9bc5 ee1c 046a 811d 16b3 461d 205e 009c
000001a0: a0c8 de9c 62ca 501c d837 599c 508e 471a
000001b0: 85d7 e01c 0e5b 679c 74ee f19b 98ef 651d
000001c0: 772a 241b aece 4d9b 9c8c dc9c 0051 fc98
000001d0: e0c3 1e9d fc37 1f1d d909 fb9c f67e 149c
000001e0: 409f 219d ff9e 151d 93a7 7a9c 2eba 0b9c
000001f0: d5de 9e9d 4efa 0b9d d076 9c9a 42d2 801c

down2.down_block3d.1.shortcut.bias f4 [16]
-0.2549475 -0.24291861 -0.23812446 -0.04573587 -0.07922618 -0.1308399 -0.2051608 -0.26370078
-0.2557132 -0.300595 -0.18206164 -0.12428539 -0.04971433 -0.15228644 -0.3303322 -0.21648255
00000000: 7b88 82be a8bf 78be e6d6 73be 8955 3bbd
00000010: 5641 a2bd e5fa 05be ac15 52be ca03 87be
00000020: d7ec 82be 96e7 99be 5e6e 3abe 5789 febd
00000030: 41a1 4bbd faf0 1bbe 4d21 a9be 9aad 5dbe

down3.down_block3d.1.double_conv3d.0.weight f4 [32, 16, 3, 3, 3]
-0.005345083 0.020077871 0.016010368 -0.02191444 0.009982874 0.03364625 -0.02199789 -0.012916095
0.033041522 0.011933489 0.024561854 0.0317761 0.031750128 0.028470393 0.033377398 0.064833
0.041168917 0.060612235 0.002140082 -0.009076527 0.0019232683 0.051782034 0.0014303204 -0.011465824
0.10455441 0.046868477 0.03348505 0.03887398 0.062909804 0.05080095 0.0170662 0.04599678
0.055284906 0.0040790867 0.0132767 0.043494724 0.06601876 0.08582005 0.081854165 0.0657374
0.08047023 0.07762112 0.07688464 0.073996425 0.086144954 0.04810269 0.044727862 0.05602222
0.08271708 0.048265643 0.037514467 0.11808906 0.075893074 0.057032652 0.01741928 -0.010356849
0.011439371 3.568697e-05 -0.021681162 -0.019592078 -0.00058178237 -0.0022859585 -0.01803593 0.028959416
0.0014153088 0.02188258 -0.0132964915 -0.044295877 -0.028375978 -0.028225016 -0.036504745 -0.040226266
0.046692125 0.04028599 0.04587423 -0.0045714797 -0.012102505 0.00829235 -0.023848133 -0.023856724
-0.010738828 0.06445587 -0.019886484 -0.061800018 0.05914464 0.0030157543 -0.036199223 0.029943768
0.026246354 0.0019428431 0.06266498 -0.026048064 -0.05542359 0.029332595 -0.024047788 -0.049263284
-0.005256871 0.0022974422 -0.009996146 0.07785272 0.014267289 0.017034205 0.031572856 -0.0031501283
-0.009968707 0.0040197703 0.018127514 0.010846636 0.035725806 -0.048592642 -0.10045919 -0.00046334253
-0.032612003 -0.07344331 -0.104660004 -0.07664196 -0.076044746 0.09098797 -0.00087320106 -0.06631629
0.031035002 -0.005012853 -0.043224517 -0.08915221 -0.043236114 -0.033632983 0.122089006 0.034321316
-0.028278762 0.0488091 0.012905197 -0.030420503 -0.05584987 -0.009925986 -0.0034934187 0.03803471
-0.0019413247 0.0058120894 0.042844366 0.013964709 0.007237067 0.046516456 0.036371622 0.015917588
-0.002643154 -0.036646586 -0.0044100448 -0.018768722 -0.047826134 -0.025301255 -0.008452453 -0.016427172
-0.02222848 0.02445458 0.019394843 0.036929466 -0.01852823 -0.018835966 0.012566426 -0.023894364
-0.01579077 0.0030705954 0.0014490277 0.05509559 0.120352395 -0.038900264 0.02948577 0.100122996
-0.031113932 0.03408094 0.11861819 0.04098354 0.09131359 0.18799347 0.0062398952 0.054244652
0.1384948 0.05266576 0.085827105 0.15073138 0.0019283569 0.035771 0.11517909 -0.0015644804
-0.0061088437 0.05380755 0.07229676 0.038444277 0.06568348 0.11269836 0.14455207 0.25730255
0.0059145894 0.054214828 0.19613917 0.0027254238 0.08769319 0.24918047 0.05480266 0.07651911
0.20131736 -0.052117478 -0.041551534 0.095778786 -0.028006759 0.001081863 0.14121212 -0.02688932
0.005840102 0.12004009 -0.094158754 -0.08759634 0.016336255 -0.049558297 -0.043052156 0.04693298
-0.015767662 -0.004311835 0.024687406 -0.029228183 -0.004530238 0.00085627066 -0.024761777 0.0080354735
0.005200521 -0.053430494 -0.044279367 -0.025744459 -0.095880404 -0.06388901 -0.06635301 -0.0977471
-0.046770208 -0.05571864 0.004522641 0.0016448533 0.0034228046 -0.06631683 -0.031714354 -0.049567185
-0.092704855 -0.030184025 -0.040354695 0.002590344 0.009280131 0.035114482 -0.0073380955 -0.0021884656
0.008784015 0.007565231 0.014509216 0.0012713419 0.024260014 0.022375666 0.028149772 -0.013929772
00000000: ce25 afbb 597a a43c 2d28 833c e985 b3bc
00000010: 358f 233c a6d0 093d eb34 b4bc 079e 53bc
00000020: 8c56 073d ae84 433c f135 c93c a827 023d
00000030: 6c0c 023d be3a e93c bdb6 083d 2ac7 843d
00000040: bda0 283d 8944 783d 9e40 0c3b b7b5 14bc
00000050: 2d16 fc3a 6619 543d 9779 bb3a 27db 3bbc
00000060: 9f20 d63d 29f9 3f3d 9f27 093d 533a 1f3d
00000070: dbd6 803d a814 503d 6ace 8b3c 1f67 3c3d
00000080: 6d72 623d dca9 853b 8486 593c 8627 323d
00000090: d834 873d 6cc2 af3d 28a3 a73d 54a1 863d
000000a0: 93cd a43d d2f7 9e3d b275 9d3d 708b 973d
000000b0: c46c b03d 5407 453d 9034 373d 8e77 653d
000000c0: 9367 a93d 32b2 453d c5a8 193d add8 f13d
000000d0: d46d 9b3d 129b 693d e1b2 8e3c c6af 29bc
000000e0: 336c 3b3c 98ae 1538 b19c b1bc 917f a0bc
000000f0: c182 18ba 05d0 15bb 16c0 93bc 4c3c ed3c
00000100: e281 b93a 1943 b33c 87d9 59bc 986f 35bd
00000110: bd74 e8bc 2638 e7bc 0086 15bd 4cc4 24bd
00000120: 3e40 3f3d ec02 253d 9ee6 3b3d 5acc 95bb
00000130: 9649 46bc a3dc 073c 295d c3bc 2d6f c3bc
00000140: e9f1 2fbc 7001 843d fbe8 a2bc 0422 7dbd
00000150: a641 723d f6a3 453b a345 14bd a24c f53c
00000160: 9802 d73c ffa6 fe3a 7f56 803d c062 d5bc
00000170: d903 63bd e94a f03c deff c4bc 4cc8 49bd
00000180: d541 acbb af90 163b e0c6 23bc 3f71 9f3d
00000190: 59c1 693c 518b 8b3c 8a52 013d 6272 4ebb
000001a0: ca53 23bc 47b8 833b 2780 943c 17b6 313c
000001b0: 3955 123d 1409 47bd 8cbd cdbd c8ec f2b9
000001c0: 2a94 05bd 7269 96bd fc57 d6bd 76f6 9cbd
000001d0: 59bd 9bbd e757 ba3d 88e7 64ba d6d0 87bd
000001e0: 1e3d fe3c dc42 a4bb 310c 31bd 6f95 b6bd
000001f0: 5a18 31bd bdc2 09bd cd09 fa3d 8294 0c3d
00000200: dda8 e7bc 0dec 473d 5270 533c 6b34 f9bc
00000210: d5c2 64bd 9aa0 22bc d7f1 64bb 49ca 1b3d
00000220: 0c74 feba 5773 be3b 937d 2f3d 3ccc 643c
00000230: eb24 ed3b 0a88 3e3d 69fa 143d 9a65 823c
00000240: c438 2dbb bb1a 16bd 2382 90bb ddc0 99bc
00000250: 56e5 43bd 9444 cfbc 287c 0abc 4792 86bc
00000260: 8018 b6bc f954 c83c efe1 9e3c 5a43 173d
00000270: 84c8 97bc e24d 9abc 69e3 4d3c 1dbe c3bc
00000280: a55b 81bc 0b3c 493b 4ded bd3a eaab 613d
00000290: 517b f63d e255 1fbd 248c f13c 490d cd3d
000002a0: a5e2 febc 7598 0b3d 18ee f23d 5bde 273d
000002b0: 9f02 bb3d 5c81 403e 0978 cc3b a42f 5e3d
000002c0: 95d1 0d3e 0db8 573d 1fc6 af3d 5459 1a3e
000002d0: ecc0 fc3a 9d84 123d 04e3 eb3d 400f cdba
000002e0: b22c c8bb 4e65 5c3d 5310 943d bf77 1d3d
000002f0: 0f85 863d 66ce e63d 7505 143e 29bd 833e
00000300: 2ccf c13b 5e10 5e3d b5d8 483e 069d 323b
00000310: 7d98 b33d 2a29 7f3e c178 603d 0db6 9c3d
00000320: 2326 4e3e 2379 55bd f131 2abd ab27 c43d
00000330: 6e6e e5bc 4ccd 8d3a e999 103e fe46 dcbc
00000340: 545e bf3b 94d7 f53d 4ed6 c0bd b665 b3bd
00000350: 9cd3 853c a4fd 4abd 7557 30bd cc3c 403d
00000360: 2f2b 81bc 4b4a 8dbb 3e3d ca3c f16f efbc
00000370: 6472 94bb 5a77 603a 36d9 cabc 38a7 033c
00000380: 2269 aa3b efd9 5abd 485e 35bd 0be6 d2bc
00000390: f25c c4bd 3ed8 82bd 16e4 87bd a22f c8bd
000003a0: 1e92 3fbd 3b39 64bd aa32 943b 1e98 d73a
000003b0: 2251 603b 1ed1 87bd e9e6 01bd f606 4bbd
000003c0: 0bdc bdbd 7d44 f7bc f74a 25bd c3c2 293b
000003d0: b10b 183c 34d4 0f3d 6874 f0bb 5c6c 0fbb
000003e0: d4ea 0f3c c2e5 f73b 10b8 6d3c 28a3 a63a
000003f0: f0bc c63c 2c4d b73c 5a9a e63c b339 64bc
