simple_3dunet/checkpoints/test/backup/0.01-200/best_model-0.0039.pth (torch, 377059 bytes, 49 tensors)

input.double_conv3d.0.weight f4 [4, 2, 3, 3, 3]
-0.081225164 -0.030709457 -0.09028593 0.08447383 0.016308147 0.09524385 -0.12208474 0.10567091
-0.048076723 0.0139661925 -0.081987426 -0.1287045 0.0256835 0.0179969 -0.13149272 0.010057251
0.07901172 -0.037033036 0.12846875 0.12285633 0.06341691 0.027467985 -0.09193638 -0.031898584
-0.08003441 0.00385376 -0.06475026 0.009947019 0.008568746 0.048543476 -0.12305005 0.043201126
-0.008257853 -0.07083581 -0.04571483 0.08000386 0.08257447 -0.08155559 -0.01071602 0.025643615
-0.100187324 -0.045404725 -0.070076086 0.04611461 -0.13283645 -0.06366905 0.050599873 -0.09701102
0.106416404 -0.10281138 0.03675431 0.08904705 -0.037727125 0.10501569 -0.04815953 -0.055229507
0.042338 0.04909554 -0.08172374 -0.11292716 -0.004821836 0.021298915 0.08790352 0.021705462
-0.021750256 0.046510052 -0.011026473 0.08449372 -0.08094364 0.002590242 -0.0051401346 -0.019901857
0.00093928067 -0.021614194 -0.12114272 0.020038947 0.05342807 0.021665571 -0.06523177 -0.10088718
-0.014944155 -0.012031947 -0.08637154 0.04567194 -0.062747404 0.04425214 0.016002694 -0.056452427
-0.0492554 0.05896376 0.025721485 -0.022619558 -0.13349311 0.005444136 -0.03597543 -0.071046166
0.042747814 -0.02924025 0.01813833 -0.06913846 0.03722486 0.034046844 -0.046633273 -0.083107285
0.016858878 0.020646457 -0.07558529 0.05500188 0.0075746654 -0.037253615 0.06750698 -0.095958166
0.12488931 0.08547717 -0.10636966 -0.07389638 0.11655067 0.10799947 -0.05241817 -0.009600994
-0.0073900167 0.027135829 -0.10427345 -0.03212431 -0.07979767 0.049382687 -0.06709499 -0.03820951
0.11938739 0.06280329 0.07400394 -0.10616744 0.11068434 0.044555366 0.05007341 0.115613125
0.07527809 0.024350053 -0.063591786 -0.10237505 0.08335656 -0.06036065 -0.05017502 0.015240285
0.024062809 -0.044916395 0.10671506 -0.017493661 0.13493454 -0.09082735 0.049266033 -0.02370354
0.010058033 -0.022923063 0.102046296 -0.0333995 0.12758525 0.12003628 0.08215305 -0.032694947
-0.0006491542 -0.033852335 -0.023796484 -0.032801244 0.060889907 0.020290766 -0.104699224 0.08557514
0.106652625 -0.09766858 -0.11554537 0.10289478 0.073945224 0.021528905 -0.12188387 -0.002929025
0.023605678 -0.13241825 -0.025661474 -0.09763922 0.12426935 -0.061216485 0.015542087 0.11787902
-0.13095063 -0.12505658 0.09901844 -0.021539817 0.030169684 -0.03770621 0.040254064 0.07911092
-0.008243803 0.121861316 -0.015250933 -0.021253474 -0.09617946 0.09619651 0.08658264 -0.104956865
0.06312857 -0.024630727 -0.042360384 0.12777542 -0.07635505 -0.012476969 0.07896787 -0.1354913
-0.13382621 0.06401536 -0.05107844 -0.12297234 0.08521543 0.05683374 -0.056845814 0.07399095
00000000: 6159 a6bd 6692 fbbc d4e7 b8bd 9e00 ad3d
00000010: aa98 853c 350f c33d 9007 fabd fd69 d83d
00000020: 19ec 44bd 75d2 643c 06e9 a7bd 1dcb 03be
00000030: 3466 d23c 3c6e 933c 07a6 06be 2bc7 243c
00000040: e6d0 a13d f4af 17bd 508d 033e 199c fb3d
00000050: bae0 813d 8a04 e13c 2449 bcbd 17a8 02bd
00000060: 15e9 a3bd 5d8f 7c3b c99b 84bd d2f8 223c
00000070: ed63 0c3c 86d5 463d aa01 fcbd aaf3 303d
00000080: f24b 07bc 5d12 91bd 793f 3bbd 10d9 a33d
00000090: ce1c a93d 9e06 a7bd 3f92 2fbc 8f12 d23c
000000a0: 032f cdbd 4efa 39bd 0d84 8fbd ace2 3c3d
000000b0: 4706 08be eb64 82bd d041 4f3d b7ad c6bd
000000c0: d8f0 d93d c68e d2bd b08b 163d 4d5e b63d
000000d0: c287 1abd 7712 d73d ed42 45bd 5638 62bd
000000e0: 9c6a 2d3d 6818 493d c75e a7bd 5b46 e7bd
000000f0: 7e00 9ebb 107b ae3c c306 b43d a7cf b13c
00000100: 982d b2bc 5381 3e3d 61a8 34bc 0b0b ad3d
00000110: c7c5 a5bd 0dc1 293b 936e a8bb 3809 a3bc
00000120: 0f3a 763a 4010 b1bc ad19 f8bd b828 a43c
00000130: 64d7 5a3d ff7b b13c 3c98 85bd f09d cebd
00000140: 54d8 74bc a521 45bc 90e3 b0bd 8012 3b3d
00000150: b681 80bd bb41 353d 1518 833c a93a 67bd
00000160: 08c0 49bd fc83 713d ddb5 d23c a74c b9bc
00000170: 6bb2 08be b964 b23b f95a 13bd a780 91bd
00000180: 5518 2f3d 4089 efbc d696 943c 7798 8dbd
00000190: 1879 183d b474 0b3d 8802 3fbd 2734 aabd
000001a0: a11b 8a3c c222 a93c 76cc 9abd a749 613d
000001b0: e634 f83b 3f97 18bd 1941 8a3d b785 c4bd
000001c0: f7c5 ff3d a80e af3d 56d8 d9bd fc56 97bd
000001d0: 1eb2 ee3d d32e dd3d 6fb4 56bd 7d4d 1dbc
000001e0: f427 f2bb f54b de3c 528d d5bd c894 03bd
000001f0: f66c a3bd 8045 4a3d 1969 89bd 9381 1cbd
00000200: 6081 f43d 039f 803d 618f 973d 516e d9bd
00000210: 79ae e23d b07f 363d c719 4d3d 93c6 ec3d
00000220: 662b 9a3d c379 c73c 693c 82bd 03aa d1bd
00000230: d8b6 aa3d bb3c 77bd 5284 4dbd 63b2 793c
00000240: 5e1f c53c 41fa 37bd 6d8d da3d de4e 8fbc
00000250: 482c 0a3e b103 babd 2ecb 493d ed2d c2bc
00000260: 73ca 243c 26c9 bbbc a6fd d03d eacd 08bd
00000270: b5a5 023e 95d5 f53d dc3f a83d 23eb 05bd
00000280: 002c 2aba bfa8 0abd d8f0 c2bc 995a 06bd
00000290: b267 793d d238 a63c 8c6c d6bd 0542 af3d
000002a0: b16c da3d 7706 c8bd 0da3 ecbd 80ba d23d
000002b0: 9870 973d 635d b03c 409e f9bd e3f4 3fbb
000002c0: b260 c13c a698 07be 0338 d2bc 12f7 c7bd
000002d0: ee80 fe3d 23be 7abd 3da4 7e3c 8e6a f13d
000002e0: ec17 06be d50e 00be 2eca ca3d 4574 b0bc
000002f0: 6a26 f73c d471 1abd 72e1 243d e804 a23d
00000300: 0411 07bc 6d92 f93d 0ddf 79bc c41b aebc
00000310: bdf9 c4bd ad02 c53d 3d52 b13d a0f3 d6bd
00000320: 8d49 813d 61c6 c9bc 1582 2dbd 8fd7 023e
00000330: 0960 9cbd 336c 4cbc e8b9 a13d 3bbe 0abe
00000340: bd09 09be 7c1a 833d a037 51bd ecd8 fbbd
00000350: 6d85 ae3d 7fca 683d 28d7 68bd 9188 973d

input.double_conv3d.0.bias f4 [4]
-0.017101062 0.0002197558 0.0011118853 -0.030141663
00000000: 8717 8cbc 406e 6639 aebc 913a a6eb f6bc

input.double_conv3d.3.weight f4 [4, 4, 3, 3, 3]
0.002897339 0.08766373 0.052701462 -0.015509348 -0.012974524 -0.02661499 -0.034842703 0.07117967
0.08651207 -0.05009747 0.09770584 0.07855016 0.0070587774 -0.0372274 -0.01772364 -0.06562454
0.041862953 0.08535343 -0.05738917 -0.05642917 0.045393616 0.009029805 -0.062638655 -0.029740978
0.052672725 0.07794658 -0.020271027 0.009211108 -0.05005179 0.045176327 -0.06300371 0.08113374
-0.029980501 -0.044648673 -0.069679044 0.037442703 -0.04055578 -0.06470798 -0.0566822 0.078780636
-0.008301435 0.082027696 0.04324096 0.01031517 -0.04413518 -0.062749155 0.051781785 0.03652784
-0.027242092 0.09192209 0.038376153 -0.046034914 0.024444444 0.046680823 0.074128225 0.06313861
-0.062304188 0.071085855 -0.054383464 0.06726887 -0.022430347 0.03383934 -0.08076222 -0.023356399
-0.013109563 -0.090062395 -0.02407817 -0.07207345 -0.068469815 -0.027577704 0.07021113 0.05092858
0.062155083 0.020432973 0.027186064 0.07904334 -0.061920002 0.041433766 -0.041335925 -0.022251524
-0.00043788136 -0.03391634 -0.06112146 0.06448187 -0.028850487 -0.09828653 -0.082596295 0.015825251
0.008900338 -0.09110158 0.009926434 -0.07051452 0.01894474 -0.0049992325 -0.016375735 -0.05332687
0.025373902 -0.09377941 -0.017626623 -0.038872983 0.020081598 0.041733965 -0.0006573783 0.02042421
-0.01599334 -0.058957692 -0.086758696 -0.065348275 0.07638963 0.07478553 -0.08291293 -0.013960994
0.0832081 -0.01995612 0.050454497 -0.046835367 0.04039072 -0.0946536 -0.087377064 -0.010252116
0.029406149 -0.06750824 0.0078061777 0.03159872 -0.047001515 -0.025832625 -0.08646194 0.022703186
-0.097552404 -0.07064594 0.014972263 -0.015920915 0.053426623 -0.03268176 0.029102607 -0.053262763
0.02897852 -0.07878509 0.067442894 -0.07813162 -0.06982989 0.057428557 0.043704398 -0.02265425
0.06511246 0.0081775375 0.006755376 0.044657025 -0.036056448 0.05271861 0.020431397 0.037904136
0.037092857 0.05683103 -0.09570278 0.08085355 -0.05798643 0.077259794 -0.03880456 0.064264625
0.03722978 -0.043111373 0.09124736 0.06721171 -0.018343017 -0.06985171 0.07767333 -0.061629225
-0.024209067 -0.072150305 -0.0076856883 -0.030159881 -0.036498554 0.007316748 0.09229775 -0.041487455
-0.0030904715 -0.06454901 0.07527797 -0.029761035 -0.0020261323 0.03023651 0.033682235 0.06666553
0.045713577 -0.07257407 -0.011944106 -0.064666755 0.07827316 0.026214488 0.034038458 0.09200367
-0.090748586 -0.089192085 0.06513277 0.009244159 0.006355741 0.012851027 0.024040306 -0.08931114
-0.008677088 -0.08116388 -0.03944638 0.09911782 0.07913949 -0.08302518 0.07730437 -0.01836374
-0.07348563 0.05233633 0.02076699 0.05965252 0.049137387 0.06125588 -0.091419674 -0.017883182
-0.03986731 -0.020993922 -0.014050861 0.024821104 0.042059194 0.054539062 -0.00992563 0.010971584
0.014129338 0.0033049237 0.083388075 0.09756788 0.045237232 0.0027757203 0.01858586 -0.027856106
0.061989848 0.02742383 -0.0630136 0.0343658 0.011558784 0.024651136 -0.061162405 0.043898553
-0.07840249 -0.07488183 0.0015817768 0.04805833 -0.012653734 0.013356413 0.021346802 0.042349912
-0.06697201 0.048938986 -0.026455564 0.059358682 0.01093692 -0.012263351 0.06453116 -0.023496822
00000000: 48e1 3d3b 0b89 b33d 7ddd 573d ec1a 7ebc
00000010: 1993 54bc ae07 dabc 39b7 0ebd a6c6 913d
00000020: 3d2d b13d 0133 4dbd 001a c83d e8de a03d
00000030: 514d e73b c27b 18bd 2b31 91bc 2966 86bd
00000040: 7d78 2b3d c7cd ae3d e810 6bbd 4622 67bd
00000050: a8ee 393d bff1 133c b248 80bd 5aa3 f3bc
00000060: 5bbf 573d 75a2 9f3d 6d0f a6bc 30ea 163c
00000070: 1b03 4dbd d00a 393d 1708 81bd 7229 a63d
00000080: ab99 f5bc 87e1 36bd e3b3 8ebd 855d 193d
00000090: d11d 26bd 9e85 84bd 982b 68bd be57 a13d
000000a0: be02 08bc 23fe a73d 6f1d 313d f500 293c
000000b0: 17c7 34bd a182 80bd 2319 543d 379e 153d
000000c0: cf2a dfbc a641 bc3d 5030 1d3d 1b8f 3cbd
000000d0: b73f c83c 6434 3f3d 8ad0 973d d14e 813d
000000e0: ad32 7fbd 7695 913d 32c1 5ebd 43c4 893d
000000f0: d9bf b7bc 1f9b 0a3d aa66 a5bd eb55 bfbc
00000100: 7ec9 56bc a272 b8bd 953f c5bc 3f9b 93bd
00000110: e739 8cbd a3ea e1bc daca 8f3d 7d9a 503d
00000120: 5496 7e3d 0d63 a73c 4fb5 de3c 7ae1 a13d
00000130: d49f 7dbd 74b6 293d dc4f 29bd d448 b6bc
00000140: 7193 e5b9 dceb 0abd 7f5a 7abd 120f 843d
00000150: db57 ecbc 734a c9bd 3f28 a9bd f5a3 813c
00000160: b9d2 113c 7793 babd 7ba2 223c eb69 90bd
00000170: 0032 9b3c 9ad0 a3bb 6826 86bc 476d 5abd
00000180: eedc cf3c 6b0f c0bd b565 90bc 4739 1fbd
00000190: 2a82 a43c 3cf1 2a3d e953 2cba ac50 a73c
000001a0: 7704 83bc 9f7d 71bd 8bae b1bd 51d5 85bd
000001b0: 2b72 9c3d 2829 993d 41ce a9bd a7bc 64bc
000001c0: 0269 aa3d 047b a3bc 60a9 4e3d 71d6 3fbd
000001d0: bd70 253d bfd9 c1bd bff2 b2bd 7ef8 27bc
000001e0: 2ae5 f03c c341 8abd f7ca ff3b a96d 013d
000001f0: a984 40bd f19e d3bc f512 b1bd 08fc b93c
00000200: 8ec9 c7bd d2ae 90bd 394e 753c 946c 82bc
00000210: e0d5 5a3d 4fdd 05bd 9768 ee3c 0e2a 5abd
00000220: 5c64 ed3c 145a a1bd 801f 8a3d 7903 a0bd
00000230: f902 8fbd 353a 6b3d 6203 333d 6895 b9bc
00000240: ae59 853d 14fb 053c 335c dd3b 49ea 363d
00000250: edaf 13bd 78ef 573d bf5f a73c 5e41 1b3d
00000260: aeee 173d a7c7 683d d2ff c3bd 8c96 a53d
00000270: 2e83 6dbd 623a 9e3d 88f1 1ebd 2c9d 833d
00000280: 417e 183d 8d95 30bd e5df ba3d 4ba6 893d
00000290: 1844 96bc 6a0e 8fbd 3213 9f3d ed6e 7cbd
000002a0: 1852 c6bc 8ac3 93bd 3ad8 fbbb db11 f7bc
000002b0: 827f 15bd 55c1 ef3b 9a06 bd3d c0ee 29bd
000002c0: 8289 4abb 4532 84bd 562b 9a3d 6acd f3bc
000002d0: dcc8 04bb 8fb2 f73c 62f6 093d f087 883d
000002e0: 293e 3b3d b7a1 94bd 36b1 43bc 0170 84bd
000002f0: ae4d a03d c4bf d63c e96b 0b3d 6c6c bc3d
00000300: 65da b9bd 57aa b6bd 5464 853d d074 173c
00000310: d243 d03b 1d8d 523c 2df0 c43c c2e8 b6bd
00000320: 582a 0ebc 4039 a6bd 8792 21bd 49fe ca3d
00000330: e313 a23d 1b09 aabd c151 9e3d 8e6f 96bc
00000340: a27f 96bd 9f5e 563d 891f aa3c 3356 743d
00000350: 4944 493d 72e7 7a3d 3d3a bbbd c07f 92bc
00000360: e84b 23bd 72fb abbc 9535 66bc a155 cb3c
00000370: 4346 2c3d 5a64 5f3d 1c9f 22bc 29c2 333c
00000380: bd7e 673c 6b97 583b 5ec7 aa3d abd1 c73d
00000390: ad4a 393d dce8 353b 6041 983c 7d32 e4bc
000003a0: 11e9 7d3d f1a7 e03c 460d 81bd 27c3 0c3d
000003b0: 0e61 3d3c 2ef1 c93c 6e85 7abd f8ce 333d
000003c0: 7c91 a0bd a55b 99bd 9f53 cf3a d0d8 443d
000003d0: 9b51 4fbc dbd4 5a3c 7ddf ae3c 1a77 2d3d
000003e0: 9f28 89bd 3f74 483d 57b9 d8bc 1722 733d
000003f0: c430 333c 39ec 48bc ea28 843d 687c c0bc

input.double_conv3d.3.bias f4 [4]
0.00039567385 -0.0013142976 -0.008876995 -0.0060524405
00000000: 7272 cf39 8244 acba d170 11bc 8d53 c6bb

input.shortcut.weight f4 [4, 2, 1, 1, 1]
0.577547 -0.4140099 0.4049554 -0.62568736 0.25981304 0.34105822 -0.6511465 0.65399307
00000000: 1fda 133f 1bf9 d3be 5056 cf3e 0c2d 20bf
00000010: 3706 853e 2f9f ae3e 89b1 26bf 176c 273f

input.shortcut.bias f4 [4]
-0.39697674 0.04706853 0.7208705 -0.4790061
00000000: 8940 cbbe eeca 403d f88a 383f 4a40 f5be

down1.down_block3d.1.double_conv3d.0.weight f4 [8, 4, 3, 3, 3]
0.007994501 0.023600914 0.0083018765 0.0052915863 0.017733052 0.007799113 0.0038162097 0.0055742003
0.007129727 0.004659712 0.005148441 0.0058213784 0.0057843714 -0.0020784345 0.0045214645 0.0022492814
0.004464119 0.00574327 0.005346594 0.0039482135 0.0042156293 -0.016193487 0.006134191 -0.012856219
0.01316875 0.010112727 0.003125526 0.046960592 0.029686326 0.008504352 -0.041248932 0.02753017
-0.05125414 0.021190763 -0.0063190004 -0.0036667997 0.0068923873 0.0065506143 0.038937826 0.021538554
-0.0150664775 -0.024647905 -0.02217954 0.025361719 0.04839591 0.04889662 0.0011378545 0.030922936
-0.005007079 -0.01093267 -0.049411777 -0.048467875 -0.011353956 0.012615589 0.006335238 -0.006212564
0.021597438 -0.030430535 -0.0048020347 0.014858535 0.009875583 0.004934709 0.00596575 0.026801325
0.008219169 0.034710985 -0.01664166 0.025128933 -0.020078667 0.0049067284 -0.0035666563 0.0035816692
-0.011202162 0.0038162519 -0.027961636 -0.0063793636 -0.03710396 -0.00054860266 -0.033261903 0.004375314
0.040351104 0.024099909 0.008696339 0.0043338076 0.015287116 0.004106583 0.020680772 0.04213995
-0.0052004755 0.002907445 0.018891916 -0.0061603044 -0.011455782 0.015323039 0.024568222 0.028478762
0.03029899 -0.015985878 -0.006816597 0.019502413 0.028381187 -0.014900759 0.03155468 -0.005761419
0.02127166 -0.029635439 -0.0069434284 0.0010887784 0.034493584 -0.03218601 0.0030008743 -0.004752399
0.0016680496 0.0020722717 0.0018277834 -0.003980486 -0.009220561 -0.008353424 0.002416165 0.00420479
-0.02870187 -0.0015463871 0.01764905 -0.012584709 0.0069119325 0.01466213 0.021986224 0.016565327
0.030831566 -0.020517096 0.0059383484 0.006522808 0.026022486 0.027739013 -0.0034083074 0.046447385
0.04704584 0.068048865 -0.016108068 0.067747965 -0.032133844 -0.024393102 0.033466626 0.019132856
-0.0072426293 0.032344095 0.023537058 -0.008486049 0.032988586 -0.0188978 -0.020401347 0.023175322
0.06894894 0.00069059426 -0.032056354 -0.014904975 0.03570147 -0.05856681 0.069749616 -0.004709414
0.05206958 -0.03654691 0.040649716 -0.02489884 -0.018994307 0.0033922251 0.060115248 -0.008419077
0.05528592 -0.022013508 -0.014774061 0.032837234 0.041273702 0.009465789 -0.031601474 0.04197618
0.052043874 0.054962303 0.053938765 -0.021338142 -0.046890642 0.015407488 0.030510575 0.05019249
0.043109577 -0.00758062 0.015092035 -0.009642839 -0.058087815 -0.038384195 0.04552572 0.009892349
0.0074146064 0.06393163 0.03714474 0.011517724 -0.034383025 0.014875519 0.026805932 -0.042489458
0.03190712 -0.012513077 -0.034995515 0.048333332 0.004766391 -0.04009887 -0.046341855 -0.0048383554
0.017655686 -0.06375038 -0.018016975 0.044665188 0.0042326907 -0.008530464 0.04377059 -0.05055229
-0.01721525 0.0024190242 0.039929636 0.015676152 0.046903193 -0.01587893 -0.004420145 0.012619735
0.01529064 -0.020838942 -0.02662673 -0.009566941 -0.008554266 -0.023398874 -0.043113433 0.00086623704
0.008269114 0.016884541 0.00878046 0.042725004 -0.043370046 0.018047588 -0.044408765 -0.030300306
-0.053583834 0.011690201 -0.021922067 0.039488226 -0.050878253 -0.015915964 -0.035354983 -0.027139734
-0.06387021 -0.003721784 0.016185258 0.07685969 -0.04736833 0.009264944 0.052666288 -0.020302461
00000000: 5efb 023c b456 c13c 9804 083c 0b65 ad3b
00000010: e844 913c b48f ff3b 6019 7a3b c8a7 b63b
00000020: 7ca0 e93b 7fb0 983b 41b4 a83b 43c1 be3b
00000030: d38a bd3b 5836 08bb cb28 943b ae68 133b
00000040: bf47 923b 0a32 bc3b 7b32 af3b 0460 813b
00000050: 4323 8a3b 34a8 84bc 5301 c93b e4a2 52bc
00000060: bec1 573c daaf 253c a0d5 4c3b c059 403d
00000070: bd30 f33c d655 0b3c a4f4 28bd f386 e13c
00000080: dcef 51bd 4098 ad3c 9e0f cfbb b14e 70bb
00000090: 89d9 e13b 89a6 d63b 457d 1f3d 9f71 b03c
000000a0: 63d9 76bc 67ea c9bc deb1 b5bc 61c3 cf3c
000000b0: ca3a 463d d247 483d 1024 953a 1952 fd3c
000000c0: 6c12 a4bb f11e 33bc 0164 4abd 4086 46bd
000000d0: f105 3abc 9eb1 4e3c d497 cf3b c492 cbbb
000000e0: 1ced b03c 7549 f9bc 635a 9dbb 3671 733c
000000f0: 33cd 213c 57b3 a13b 577c c33b 748e db3c
00000100: b2a9 063c 1b2d 0e3d 1754 88bc 31db cd3c
00000110: 047c a4bc 9fc8 a03b 90be 69bb 70ba 6a3b
00000120: 4689 37bc 151a 7a3b cd0f e5bc fb09 d1bb
00000130: 52fa 17bd 1ad0 0fba a23d 08bd cb5e 8f3b
00000140: 3347 253d 2c6d c53c 177b 0e3c 9d02 8e3b
00000150: d076 7a3c 8490 863b b96a a93c f19a 2c3d
00000160: c068 aabb d58a 3e3b 38c3 9a3c 61dc c9bb
00000170: 08b1 3bbc 7c0d 7b3c 4c43 c93c 4b4c e93c
00000180: 9635 f83c d1f4 82bc c35d dfbb 86c3 9f3c
00000190: aa7f e83c 5022 74bc 7b3f 013d 49ca bcbb
000001a0: e841 ae3c 05c6 f2bc b385 e3bb 57b5 8e3a
000001b0: 2549 0d3d 7ad5 03bd 51aa 443b 03ba 9bbb
000001c0: 75a2 da3a f3ce 073b 3c92 ef3a bd6e 82bb
000001d0: d611 17bc cddc 08bc 8658 1e3b 56c8 893b
000001e0: 2f20 ebbc 24b0 caba be94 903c 1830 4ebc
000001f0: 7e7d e23b 6e39 703c 741c b43c 02b4 873c
00000200: 7b92 fc3c 7813 a8bc 7a96 c23b 48bd d53b
00000210: 1c2d d53c ed3c e33c e95d 5fbb 9d3f 3e3d
00000220: 24b3 403d 345d 8b3d 11f5 83bc 72bf 8a3d
00000230: c79e 03bd 0bd4 c7bc 4d14 093d 82bc 9c3c
00000240: 9453 edbb 3e7b 043d cad0 c03c 1209 0bbc
00000250: 0a1f 073d 8fcf 9abc ba20 a7bc 2cda bd3c
00000260: 1a35 8d3d ff08 353a 864d 03bd ff33 74bc
00000270: b43b 123d c0e3 6fbd e3d8 8e3d 6e51 9abb
00000280: e946 553d 36b2 15bd 5180 263d a7f8 cbbc
00000290: f399 9bbc 1850 5e3b 683b 763d 2bf0 09bc
000002a0: 7d73 623d ac55 b4bc e70e 72bc 5680 063d
000002b0: 9d0e 293d 6616 1b3c 8c70 01bd 37ef 2b3d
000002c0: f52b 553d 2720 613d e5ee 5c3d 54cd aebc
000002d0: 6710 40bd b06f 7c3c 50f1 f93c a496 4d3d
000002e0: ab93 303d d966 f8bb 9544 773c 00fd 1dbc
000002f0: 7ded 6dbd bf38 1dbd 2d79 3a3d 8513 223c
00000300: 3af6 f23b 96ee 823d 1525 183d d6b4 3c3c
00000310: 37d5 0cbd 73b8 733c 1d98 db3c 6d09 2ebd
00000320: 0ab1 023d a603 4dbc 7557 0fbd 2cf9 453d
00000330: 632f 9c3b b63e 24bd f5d0 3dbd 118b 9ebb
00000340: a8a2 903c 8f8f 82bd 5698 93bc d8f2 363d
00000350: 62b2 8a3b 5cc3 0bbc ca48 333d eb0f 4fbd
00000360: ff06 8dbc 7e88 1e3b 428d 233d 466b 803c
00000370: 901d 403d 8814 82bc ddd6 90bb 01c3 4e3c
00000380: 9885 7a3c 6eb6 aabc 4d20 dabc a9be 1cbc
00000390: 3127 0cbc ffae bfbc b697 30bd 2f14 633a
000003a0: 2e7b 073c 7351 8a3c ebdb 0f3c 6a00 2f3d
000003b0: caa4 31bd 89d8 933c f7e5 35bd 5938 f8bc
000003c0: b97a 5bbd 4288 3f3c e895 b3bc 68be 213d
000003d0: b765 50bd 3262 82bc 63d0 10bd 2654 debc
000003e0: 62ce 82bd 2de9 73bb f296 843c 9d68 9d3d
000003f0: 4b05 42bd fecb 173c 9bb8 573d 5951 a6bc

down1.down_block3d.1.double_conv3d.0.bias f4 [8]
0.0037574598 3.9876082e-05 -0.00015901629 0.00018238644 6.2068706e-05 0.004004871 0.0021553233 -0.00078183104
00000000: b73f 763b 9e40 2738 9cbd 26b9 fd3e 3f39
00000010: e22a 8238 4b3b 833b 5340 0d3b cbf3 4cba

down1.down_block3d.1.double_conv3d.3.weight f4 [8, 8, 3, 3, 3]
0.030801492 0.021352284 -0.016244398 0.030241117 -0.026804904 0.017744904 -0.01934231 0.013012269
0.011270739 -0.031602673 -0.031863358 -0.002315743 0.019118693 0.011679116 -0.0012985098 -0.005106118
-0.0210502 -0.021332106 0.0117263235 0.022776157 0.031883392 0.029915087 -0.02866766 0.035354644
0.0011074225 -0.018051257 0.004450108 0.004860723 -0.0055790446 -0.00750379 0.015237929 0.03486413
0.012496267 0.0022796586 -0.025139105 0.03323674 -0.0033861164 0.030342484 -0.015460373 0.016302543
0.029930888 0.014686517 -0.015457164 0.030402381 -0.041308492 0.005954133 0.028092226 -0.031597164
-0.037030097 0.025951883 0.01330247 0.040037625 -0.01336496 -0.006349573 -0.018480575 -0.030687943
-0.001683216 -0.02220444 -0.028262468 0.0053481413 -0.0120885195 0.019306945 -0.013289907 0.004589421
-0.00595658 -0.0044952133 0.0019300259 0.0048160227 0.009788936 -0.0052048364 0.0036401325 -0.0047652186
0.0034937006 -0.023776805 -0.008809089 -0.0044197026 -0.011158892 0.0012586879 -0.0039057548 -0.0017155265
0.0014614137 0.002236566 0.005021498 -0.012618966 0.0016848024 0.007978178 -0.00013999932 0.007669681
0.0029802471 0.02238877 0.01260701 0.02661785 0.002169714 -0.017921608 -0.014324452 -0.023787249
0.009724088 0.02110927 -0.024602557 -0.010879287 -0.011519149 0.012352099 -0.004379109 -0.016236316
-0.020084597 0.011181851 0.015739774 -0.018929483 0.0028182273 0.038655903 0.026604176 0.034509856
-0.00046991673 0.020521214 0.01932789 -0.0013185705 -0.008762034 -0.034594607 0.036542483 0.011526709
0.020313166 0.0050014574 0.0011718422 0.027271876 0.035068005 -0.0096604815 0.0045991656 -0.0074445643
-0.008457185 -0.002156692 -0.02193446 -0.02693204 -0.014428776 -0.020410541 0.0063469894 -0.01114051
0.028408293 -0.017695757 0.023632705 -0.018780164 0.017336495 -0.015002793 -0.019051766 -0.00620585
0.012786966 0.00755357 -0.030306144 0.03379589 0.030541973 -0.026345743 0.030604364 -0.021725353
-0.008949099 -0.005000551 -0.023715215 -0.034848172 -0.03136969 0.036760885 -0.009286575 0.036831666
-0.007401661 -0.0009046759 8.155808e-05 -0.0026094192 0.008638507 -0.002235097 -0.013468557 0.007895629
0.0006930117 0.006967165 0.002309833 0.0075120386 0.0054355543 0.016212739 0.018071042 0.01642685
0.022279572 0.016147237 -0.009323025 -0.014835861 -0.0150319105 0.016773144 -0.018356724 -0.0035277738
-0.0207493 -0.005238783 0.0043732543 -0.00048982666 -0.0071763876 -0.0100257415 0.011626882 -0.0019295326
-0.0066374284 -1.5469974e-05 0.0042676013 -0.00045980877 0.0023064925 -0.0067381277 -0.0012937767 0.0072351824
0.004831462 -0.012500628 -0.003642836 -0.0049775634 -0.014460842 0.0008069881 0.0072756796 -0.013938243
-0.00800507 -0.017462697 0.010708767 0.0037724245 -0.018156068 -0.009424939 0.021179758 0.009552855
0.0075997217 0.0015002552 0.00086845283 0.0020864848 -0.0051396023 -0.008743184 -0.0067290817 -0.003312978
-0.008071654 0.005963139 0.0026103498 -0.013406731 0.008424252 0.011871105 -0.0044423286 0.017035466
-0.011556262 -0.0054409504 -0.017743584 0.0011375633 -0.016970897 -0.003293512 -0.0014713996 -0.021985887
0.018758312 -0.0014137197 -0.0065247547 -0.006957254 -0.0051400852 -0.004739029 -0.0061663273 -0.0008087725
-0.0023542612 -0.006834928 0.0023889698 -0.0028223942 0.0038864247 -0.005351603 -0.0031443455 -0.006011607
00000000: 6953 fc3c fcea ae3c f912 85bc 38bc f73c
00000010: f595 dbbc c35d 913c c473 9ebc 6931 553c
00000020: e8a8 383c ce71 01bd 2783 02bd b8c3 17bb
00000030: ce9e 9c3c c359 3f3c c232 aaba 3951 a7bb
00000040: 7871 acbc abc0 aebc c41f 403c 1095 ba3c
00000050: 2998 023d 7c10 f53c 71d8 eabc 08d0 103d
00000060: ef26 913a 3be0 93bc 36d2 913b b346 9f3b
00000070: 6bd0 b6bb 5ae2 f5bb 82a8 793c b1cd 0e3d
00000080: 25bd 4c3c 5366 153b 86f0 cdbc 3f23 083d
00000090: 9be9 5dbb cd90 f83c 814d 7dbc e98c 853c
000000a0: 9f31 f53c b89f 703c 0b40 7dbc 6a0e f93c
000000b0: 1833 29bd e31a c33b ab21 e63c 076c 01bd
000000c0: dfac 17bd 0b99 d43c 9af2 593c 7efe 233d
000000d0: b5f8 5abc 1410 d0bb 9364 97bc 4865 fbbc
000000e0: 5b9f dcba 16e6 b5bc b186 e7bc 763f af3b
000000f0: ed0e 46bc 9929 9e3c e9bd 59bc db62 963b
00000100: 6a2f c3bb 954c 93bb ecf8 fc3a bacf 9d3b
00000110: c661 203c 558d aabb 4a8f 6e3b 8d25 9cbb
00000120: 92f6 643b 93c7 c2bc ff53 10bc 27d3 90bb
00000130: c9d3 36bc 8ffa a43a b1f7 7fbb 84db e0ba
00000140: e88c bf3a 5a93 123b 618b a43b c8bf 4ebc
00000150: 96d4 dc3a e7b6 023c c8cc 12b9 f351 fb3b
00000160: 4050 433b a768 b73c a28d 4e3c ad0d da3c
00000170: c331 0e3b 56d0 92bc 1bb1 6abc 7add c2bc
00000180: c851 1f3c 59ed ac3c 4d8b c9bc 093f 32bc
00000190: d0ba 3cbc 7560 4a3c a17e 8fbb 0602 85bc
000001a0: 7488 a4bc 1534 373c b3f0 803c 0112 9bbc
000001b0: 02b2 383b a755 1e3d 00f1 d93c 355a 0d3d
000001c0: 285f f6b9 1b1c a83c 8655 9e3c e2d3 acba
000001d0: a28e 0fbc 13b3 0dbd 92ad 153d 86da 3c3c
000001e0: cc67 a63c 44e3 a33b 8098 993a 4569 df3c
000001f0: 78a3 0f3d ff46 1ebc 99b4 963b 88f1 f3bb
00000200: 0190 0abc 4a57 0dbb e6af b3bc 95a0 dcbc
00000210: ac66 6cbc 0234 a7bc 68fa cf3b b086 36bc
00000220: 82b8 e83c b1f6 90bc 6099 c13c dcd8 99bc
00000230: 4405 8e3c 46ce 75bc 7312 9cbc 715a cbbb
00000240: 6c80 513c f083 f73b 9744 f8bc 8f6d 0a3d
00000250: 2933 fa3c 07d3 d7bc 01b6 fa3c 5ef9 b1bc
00000260: 3e9f 12bc aadb a3bb 6946 c2bc f5bc 0ebd
00000270: 817d 00bd 9592 163d b826 18bc cddc 163d
00000280: a289 f2bb c627 6dba 290a ab38 ca02 2bbb
00000290: 8688 0d3c b57a 12bb 39ab 5cbc ab5c 013c
000002a0: 3aab 353a d14c e43b 9160 173b 8c27 f63b
000002b0: bc1c b23b 94d0 843c b909 943c 9a91 863c
000002c0: a683 b63c 3647 843c 9abf 18bc 1c12 73bc
000002d0: 6748 76bc d567 893c d760 96bc 3932 67bb
000002e0: 70fa a9bc 19aa abbb 844d 8f3b b667 00ba
000002f0: e727 ebbb 0243 24bc ad7e 3e3c 5fe8 fcba
00000300: c97e d9bb 84c5 81b7 3cd7 8b3b 7d12 f1b9
00000310: 8628 173b 83cb dcbb f193 a9ba 1c15 ed3b
00000320: 3e51 9e3b 6fcf 4cbc a5bc 6ebb d41a a3bb
00000330: 2bed 6cbc 0e8c 533a d368 ee3b 3a5d 64bc
00000340: b227 03bc ee0d 8fbc d373 2f3c c83a 773b
00000350: 09bc 94bc 0f6b 1abc 2c81 ad3c 9483 1c3c
00000360: 1607 f93b 36a4 c43a e2a8 633a 68bd 083b
00000370: 1c6a a8bb 923f 0fbc a17f dcbb 8c1e 59bb
00000380: f83e 04bc 6f66 c33b 6712 2b3b e8a7 5bbc
00000390: e005 0a3c 067f 423c f490 91bb f68d 8b3c
000003a0: 7a56 3dbc 004a b2bb fe5a 91bc 4a1a 953a
000003b0: 8d06 8bbc f6d7 57bb fadb c0ba bf1b b4bc
000003c0: 08ab 993c 904c b9ba 9ccd d5bb adf9 e3bb
000003d0: 296e a8bb db49 9bbb e70e cabb ce03 54ba
000003e0: f349 1abb 88f7 dfbb 4390 1c3b ebf7 38bb
000003f0: 63b3 7e3b 805c afbb 5d11 4ebb 04fd c4bb

down1.down_block3d.1.double_conv3d.3.bias f4 [8]
1.14224995e-05 -4.3550717e-05 0.00011314201 -0.0020395974 7.796283e-05 -1.2886974e-05 -0.00012740855 0.0011431052
00000000: 43a3 3f37 3aaa 36b8 a746 ed38 c4aa 05bb
00000010: fa7f a338 2235 58b7 f998 05b9 3fd4 953a

down1.down_block3d.1.shortcut.weight f4 [8, 4, 1, 1, 1]
0.26584637 -0.223432 -0.05608311 -0.17587242 -0.31742582 -0.222839 -0.30848253 0.022334721
-0.19679573 0.2811236 0.09217896 -0.052591138 -0.33594158 0.022996565 -0.3078792 -0.00041344273
0.044766076 0.38295433 -0.26954904 -0.02138044 -7.212465e-05 0.21666612 -0.3263076 -0.27691847
-0.08580454 0.10162303 0.37672588 -0.19418333 -0.23471764 -0.17540507 0.12492918 0.21976978
00000000: 041d 883e 5ccb 64be 67b7 65bd e617 34be
00000010: a385 a2be e82f 64be 6cf1 9dbe 4ef7 b63c
00000020: d284 49be 6fef 8f3e 53c8 bc3d ce69 57bd
00000030: 8900 acbe 4b63 bc3c 58a2 9dbe 58c3 d8b9
00000040: a25c 373d 9712 c43e 5502 8abe 0826 afbc
00000050: a041 97b8 b9dd 5d3e ca11 a7be 42c8 8dbe
00000060: 4aba afbd bc1f d03d 37e2 c03e ffd7 46be
00000070: d259 70be 639d 33be dfda ff3d 540b 613e

down1.down_block3d.1.shortcut.bias f4 [8]
-0.13750443 0.04687564 0.0035608825 -0.14107172 0.23195077 -0.1266316 -0.07807052 0.082130596
00000000: f6cd 0cbe ac00 403d b25d 693b 1b75 10be
00000010: 8184 6d3e b7ab 01be 70e3 9fbd 1634 a83d

down2.down_block3d.1.double_conv3d.0.weight f4 [16, 8, 3, 3, 3]
0.00018416434 6.415626e-05 -0.0007829919 0.000116238785 -0.00026901357 -0.0005230563 -2.6075395e-06 0.00029966584
0.00025367603 0.0018087043 8.8816254e-05 -0.00019894264 0.0001406009 0.0004591803 0.0004484593 -0.00015886515
0.0004745174 0.00043703197 -0.0002054423 -0.00011867873 0.0026844298 0.0010804315 -0.0001556502 0.0003741789
-0.00020568071 0.00010936608 -3.1118154e-05 0.00016550471 5.675708e-05 8.4528714e-05 4.2314707e-05 -4.9783834e-05
-2.633022e-05 -0.00027986063 -3.8859926e-06 -0.0018161502 -0.0034777494 0.00057596236 6.2567706e-05 -7.088684e-05
-0.00015584733 4.1797648e-05 -0.00043033666 -0.00031623483 -7.443965e-05 -8.550797e-05 -0.00019767645 -8.202585e-05
0.00011656467 0.00012744074 0.0005860931 -0.00010311825 -3.933798e-05 -0.0021131777 0.00038791765 0.00022504522
8.3033075e-05 -2.8363358e-05 0.001973401 0.00025015592 -0.0002010611 0.002331005 0.00014236197 0.00016620435
-0.00030708528 1.6217862e-05 -0.003958133 -0.0016282635 0.00050282455 -0.00015029867 0.0005200165 0.00052658864
-0.00022766346 -0.00017173227 0.0045280126 -0.0004009815 0.0005579216 0.0027041654 0.000117987 0.00045709702
0.00019012734 -7.5503296e-05 0.0009120497 0.00046001308 -0.00038398083 -0.0007760468 0.0013352504 6.1913997e-06
0.000615482 0.00051240047 0.00020515309 0.00028303562 0.0003258169 0.00029278133 0.00013386503 0.0005405147
0.00017265437 0.00091064384 0.00041685824 -0.00018551169 0.0007252003 0.00045608322 0.0001926135 0.00042382657
0.0004520996 0.00029188293 0.00021452672 0.0005493182 0.0016803216 0.00036174338 0.00034457754 0.0001553025
0.0002647469 0.00061445514 0.00018762822 -3.3871882e-05 0.00073241146 0.00072911696 0.00010657347 -0.0029351062
-0.00012566113 0.0021192888 0.00037354993 4.4204076e-05 -0.0001499652 0.00043559758 -0.00033031477 0.0004242589
0.0029916572 -0.0023002105 -2.6497713e-05 0.00047650203 7.467605e-05 0.0002324165 0.0034482782 -0.00038701
0.0007504894 0.00031244446 -0.0003362312 0.00042111558 5.3623764e-05 0.00016098692 0.00043839007 0.0002210324
0.00021838163 0.00016725894 0.00037803553 0.00029697057 0.00082070427 0.0006110303 6.843907e-05 -0.00021199761
0.000576346 3.4596305e-05 0.0007039843 0.00027313025 0.0003955369 -0.000202255 0.00024093935 0.00025130578
0.000935746 0.0002753961 -0.0018901952 -0.0020073317 0.000103449886 -4.3802134e-05 -1.6047772e-05 -0.0016751221
2.71487e-05 0.0004356936 7.780608e-05 0.0021610525 -7.3574076e-05 0.0005959876 7.156446e-05 -0.00016767014
0.0003604532 -0.0003157331 0.002154346 0.0002439952 -0.00031811255 -0.00030374428 -0.0002723416 -0.0005536205
-7.1103204e-05 -5.7164092e-05 -0.00024356409 -0.00024407679 0.00033915826 -9.952741e-06 0.00032791268 -6.620712e-05
0.0002016307 -5.7205572e-05 -0.00016756338 -0.0018073957 -0.001428916 0.0022396517 -7.0833055e-05 -6.0027996e-06
0.00037537803 0.00021150324 6.201217e-05 0.00024477762 -4.609806e-05 4.3463624e-05 0.00061864115 0.0040302216
-0.00026215764 -0.0023215057 -7.119531e-05 0.0012539738 -0.00027338738 0.00032845998 -6.319022e-05 -1.3151006e-05
-0.00041288685 0.0007324286 -0.0003100977 -0.00019762943 5.90215e-05 -0.00029369415 -0.0002700045 -0.00035511897
0.0009164741 3.3242854e-05 7.8815065e-06 -0.00015656275 0.00013871217 -0.00082766026 0.002151887 -0.0004442211
-0.000625605 -0.00039021677 0.0013552511 -6.506534e-05 -0.00019218425 -0.00029251605 -0.0011362361 -0.0005915584
-0.0006569065 -0.0010837044 0.0001957518 5.1782514e-05 -8.532964e-05 0.00011953181 -0.0002244437 0.0013457384
-0.0011119501 0.0015196824 0.0006983815 0.00035798128 0.0030295935 0.0001202979 0.0004402811 -7.7757766e-05
00000000: 3d1c 4139 a18b 8638 b241 4dba 39c5 f338
00000010: 640a 8db9 b71d 09ba 30fd 2eb6 781c 9d39
00000020: d2ff 8439 0c12 ed3a dd42 ba38 429b 50b9
00000030: 446e 1339 23be f039 301f eb39 0a95 26b9
00000040: a6c8 f839 7021 e539 ff6b 57b9 28e3 f8b8
00000050: 42ed 2f3b 449d 8d3a 0836 23b9 712d c439
00000060: ffab 57b9 785b e538 dd84 02b8 558b 2d39
00000070: 730e 6e38 0245 b138 127b 3138 fcce 50b8
00000080: b8df dcb7 42ba 92b9 6c64 82b6 e30b eeba
00000090: f4ea 63bb 2efc 163a c836 8338 15a9 94b8
000000a0: f36a 23b9 e24f 2f38 cf9e e1b9 52cc a5b9
000000b0: 7c1c 9cb8 be52 b3b8 5e47 4fb9 4b05 acb8
000000c0: 2e74 f438 9da1 0539 0ba4 193a 3041 d8b8
000000d0: d6fe 24b8 3d7d 0abb 6d61 cb39 1efa 6b39
000000e0: 0b22 ae38 d9ed edb7 2d54 013b 5c27 8339
000000f0: eed3 52b9 c6c3 183b 0047 1539 2447 2e39
00000100: 4a00 a1b9 980b 8837 3ab3 81bb 756b d5ba
00000110: fccf 033a 7e99 1db9 b751 083a c40a 0a3a
00000120: f2b8 6eb9 0813 34b9 b95f 943b d33a d2b9
00000130: 7c41 123a 5e38 313b ca6f f738 86a6 ef39
00000140: eb5c 4739 8657 9eb8 9f16 6f3a e92d f139
00000150: 0951 c9b9 9f6f 4bba 9203 af3a b8bf cf36
00000160: 4c58 213a 9d52 063a 5d1e 5739 6664 9439
00000170: 67d2 aa39 7280 9939 1f5e 0c39 54b1 0d3a
00000180: 8e0a 3539 46b8 6e3a c48d da39 ea85 42b9
00000190: 5e1b 3e3a 741e ef39 4bf8 4939 0a35 de39
000001a0: c807 ed39 dd07 9939 94f2 6039 1f00 103a
000001b0: 3d3e dc3a 60a8 bd39 6aa8 b439 b3d8 2239
000001c0: bacd 8a39 6313 213a 11be 4439 a811 0eb8
000001d0: 4dff 3f3a 3622 3f3a 3280 df38 e95a 40bb
000001e0: e7c3 03b9 c4e3 0a3b 06d9 c339 c467 3938
000001f0: fa3f 1db9 eb60 e439 192e adb9 116f de39
00000200: ae0f 443b 21bf 16bb 6847 deb7 05d3 f939
00000210: 669b 9c38 d4b4 7339 82fc 613b 9ae7 cab9
00000220: 7ebc 443a 96cf a339 3048 b0b9 2dc9 dc39
00000230: 14ea 6038 99ce 2839 b8d7 e539 efc4 6739
00000240: 5ffd 6439 3b62 2f39 1233 c639 b7b2 9b39
00000250: 8824 573a 8d2d 203a f286 8f38 ad4b 5eb9
00000260: ed15 173a 801b 1138 968b 383a ec32 8f39
00000270: 1060 cf39 6a14 54b9 aaa4 7c39 b1c1 8339
00000280: da4c 753a 0a63 9039 6dc0 f7ba 708d 03bb
00000290: 3cf3 d838 2fb8 37b8 549e 86b7 c58f dbba
000002a0: 64bd e337 ce6d e439 d22b a338 72a0 0d3b
000002b0: c84b 9ab8 0d3c 1c3a e014 9638 9cd0 2fb9
000002c0: 36fb bc39 fb88 a5b9 ee2f 0d3b f6d8 7f39
000002d0: 58c8 a6b9 de3f 9fb9 12c9 8eb9 d820 11ba
000002e0: 3e1d 95b8 7ac3 6fb8 3d65 7fb9 ddee 7fb9
000002f0: 0dd1 b139 b2fa 26b7 b2eb ab39 add8 8ab8
00000300: d46c 5339 04f0 6fb8 f4b3 2fb9 23e6 ecba
00000310: 774a bbba 1fc7 123b 358c 94b8 a86b c9b6
00000320: 63ce c439 f8c6 5d39 880c 8238 7f55 8039
00000330: 6a59 41b8 b64c 3638 4e2c 223a f30f 843b
00000340: 3472 89b9 6724 18bb b14e 95b8 615c a43a
00000350: 6f55 8fb9 2735 ac39 fe84 84b8 24a3 5cb7
00000360: bc78 d8b9 7400 403a 9c94 a2b9 bf3a 4fb9
00000370: da8d 7738 f6fa 99b9 648f 8db9 432f bab9
00000380: 893f 703a 3e6e 0b38 d03a 0437 fe2a 24b9
00000390: 4473 1139 57f7 58ba ac06 0d3b 59e6 e8b9
000003a0: a4ff 23ba 0296 ccb9 aea2 b13a b073 88b8
000003b0: 1185 49b9 d75c 99b9 c2ed 94ba d012 1bba
000003c0: 4034 2cba 160b 8eba b942 4d39 0d31 5938
000003d0: 00f3 b2b8 27ad fa38 a658 6bb9 7d63 b03a
000003e0: dbbe 91ba 1430 c73a 9713 373a 6faf bb39
000003f0: 258c 463b 7148 fc38 87d5 e639 e211 a3b8

down2.down_block3d.1.double_conv3d.0.bias f4 [16]
-4.0649695e-05 0.0003744111 2.9051393e-05 -0.00017660359 -3.0601976e-05 -0.0021628658 -0.00034693122 -2.4732315e-05
-9.95318e-08 8.41569e-07 7.477285e-05 -1.8976083e-05 2.64853e-05 -1.104325e-05 -4.1579195e-05 0.0013379786
00000000: 477f 2ab8 9b4c c439 64b3 f337 aa2e 39b9
00000010: 9f5a 00b8 debe 0dbb 52e4 b5b9 3e78 cfb7
00000020: 30be d5b3 2ee8 6135 5ecf 9c38 d42e 9fb7
00000030: c02c de37 6646 39b7 5265 2eb8 1d5f af3a

down2.down_block3d.1.double_conv3d.3.weight f4 [16, 16, 3, 3, 3]
0.0013756898 0.00042462218 0.00052497257 0.0012620081 3.4430777e-05 0.00059867545 0.0013803241 0.0008456585
0.0009370203 0.0013380243 0.00056841585 0.00050322246 0.0017046724 0.0007515324 0.0008150822 0.0015289818
0.00042190333 0.0010901166 0.0015074634 0.000667027 0.00038672093 0.0014122915 0.0009840255 0.00059842446
0.0024115322 0.0015895326 0.0011092275 0.0010909376 0.0002699602 0.00025853707 0.0009200337 5.8980804e-05
-0.0001767355 0.0014411388 0.00011751411 0.00011952499 0.001168279 0.0005919712 0.0008345875 0.0013618849
0.0005578099 0.00021549442 0.0016223136 0.0008461246 0.00091767847 0.000912765 0.00038533309 0.00056112796
0.001133773 0.00030724157 0.0012323526 0.0016542524 0.00087374775 0.0011402176 0.0011900213 0.0015322894
0.000988926 0.0018687935 0.0013984996 0.0009663149 0.001442008 0.0018696534 0.0012020583 0.0009578072
0.0014825016 0.0008714631 0.002186655 0.001553993 0.0009961932 0.001504643 0.0020085103 0.0012351491
0.0011374889 0.0014554637 0.00082334655 0.0017308472 0.00152845 0.0011369823 0.0012688176 0.0018019513
0.001169735 0.0009182701 5.4625852e-05 0.0004133329 0.0010971688 0.00023555104 0.0002676905 0.001352042
0.00023481043 0.00028229787 0.0007618799 0.0011233697 0.0006858277 0.0011183012 0.00028762058 0.00051548914
0.0011399791 0.0011582689 0.00059202244 0.0011102409 0.0001701197 0.00050702965 0.0011737135 0.00022481084
0.00077421195 0.0014372957 0.0004659432 0.0010184178 0.0010695125 0.0016875006 0.00093778316 0.0013429015
0.001825202 0.0010492177 0.0011167596 0.0015059938 0.001318689 0.0008625986 0.0013660281 0.0009120049
0.0016167031 0.00170322 0.0012829587 0.0014416701 0.001691179 0.0023293989 0.0014430718 0.0015847394
0.0014596701 0.0021400417 0.002018605 0.001428074 0.0017149083 0.0018318975 0.0010685805 0.0022346561
0.001631742 0.00164492 0.00234571 0.0010763681 0.0008501131 0.0013751339 0.0009905102 0.0015504673
0.0021479144 0.0018778798 0.0011104492 0.0015786854 0.0020446198 0.0020212908 0.0013755444 0.0018662459
0.002288232 0.0019016445 0.001667635 0.0008191214 0.0021088296 0.0010567303 0.0018469666 0.0020085983
0.0014753283 0.002025015 0.00066635397 0.0013033608 0.00038869726 0.00081249984 0.0007381919 0.000577357
0.0011176306 0.00094989024 0.00027349585 0.001029934 0.0009918411 0.00081221 0.0011057938 0.0007766066
0.0008277766 0.00086483103 0.0009495632 0.0015685519 0.0019445744 0.0012542899 0.0007119854 0.00086819404
0.0017441888 0.0009811476 0.002585871 0.0026446064 0.0013237454 0.00071662816 0.001062708 0.000248249
0.0012745864 0.0013574568 0.00053116353 0.0016200424 0.0012223462 0.000535717 0.00042932038 0.0013214564
0.00057715405 0.0012388946 0.0016145186 0.0004230517 0.0013941259 0.0015945262 0.0011945004 0.001004389
0.0011605909 0.00076041964 0.0014240786 0.0016051925 0.00052289944 0.0016050797 0.0017359534 0.0012672188
0.0015505345 0.0008121298 0.001009226 0.0013071054 0.0014299097 0.0010846971 0.0021486627 0.00080850755
0.0014261696 0.0010068498 0.0011060539 0.0009173109 0.0007118417 0.0013992214 0.0014614325 0.0016952698
0.0010621242 0.001174838 0.0007078489 0.00062951713 0.0003866156 0.0011142892 0.0011661489 0.00060255383
0.001837652 0.0018986366 0.0012727258 -0.00028247773 7.7199744e-05 0.0003267075 -0.00020573655 0.00019547316
8.255991e-05 -8.8682726e-05 0.00022089787 0.0001937601 -0.0010214075 -0.00016289725 -0.00033354238 -0.00038905075
00000000: 7d50 b43a d39f de39 509e 093a f769 a53a
00000010: c469 1038 6ef0 1c3a feeb b43a 2eaf 5d3a
00000020: 5ea2 753a a560 af3a be01 153a b0ea 033a
00000030: 506f df3a 7c02 453a 3eab 553a 1e68 c83a
00000040: e832 dd39 3ee2 8e3a 1496 c53a 6ddb 2e3a
00000050: cec0 ca39 a41c b93a 6bfa 803a 96df 1c3a
00000060: cc0a 1e3b dd57 d03a 8063 913a cbfd 8e3a
00000070: 7289 8d39 428c 8739 6b2e 713a 2862 7738
00000080: 1352 39b9 98e4 bc3a e871 f638 7ea9 fa38
00000090: f020 993a 842e 1b3a 38c8 5a3a 4681 b23a
000000a0: fd39 123a 58f6 6139 d0a3 d43a 76ce 5d3a
000000b0: 5c90 703a 9f46 6f3a 8806 ca39 a918 133a
000000c0: 1c9b 943a 4415 a139 e486 a13a 80d3 d83a
000000d0: 380c 653a 5b73 953a 7dfa 9b3a 1ad7 c83a
000000e0: da9e 813a 4ef2 f43a dc4d b73a 4c50 7d3a
000000f0: c201 bd3a 280f f53a 628e 9d3a 5a15 7b3a
00000100: 8050 c23a e672 643a fc4d 0f3b 5aaf cb3a
00000110: b292 823a 7137 c53a 36a1 033b bae4 a13a
00000120: cb17 953a 42c5 be3a dad5 573a 98dd e23a
00000130: 4656 c83a cc06 953a 744e a63a 742f ec3a
00000140: cb51 993a 10b8 703a 101e 6538 9ab4 d839
00000150: e0ce 8f3a 40fe 7639 d058 8c39 0037 b13a
00000160: 7237 7639 6101 9439 e5b8 473a 083e 933a
00000170: 1ec9 333a f693 923a c8cb 9639 e421 073a
00000180: 5a6b 953a 0ed1 973a f431 1b3a 8185 913a
00000190: 2962 3239 2fea 043a 4ad7 993a 33bb 6b39
000001a0: 7cf4 4a3a a463 bc3a d649 f439 6e7c 853a
000001b0: e22e 8c3a 202f dd3a 90d5 753a 4c04 b03a
000001c0: 9e3b ef3a e785 893a 3c60 923a c464 c53a
000001d0: dcd7 ac3a 0320 623a 4c0c b33a 9d13 6f3a
000001e0: 8ee7 d33a 943e df3a f328 a83a 6cf6 bc3a
000001f0: 8daa dd3a d4a8 183b 7425 bd3a 08b7 cf3a
00000200: 6752 bf3a f13f 0c3b 924a 043b 362e bb3a
00000210: c6c6 e03a 481c f03a 9d0f 8c3a 4f73 123b
00000220: 2de0 d53a 5b9a d73a 7cba 193b ec14 8d3a
00000230: 20da 5e3a d63d b43a 02d4 813a 0d39 cb3a
00000240: 06c4 0c3b 3123 f63a 7e8c 913a e4eb ce3a
00000250: 07ff 053b a277 043b 9c4b b43a d29c f43a
00000260: 2af6 153b 9a40 f93a 8c94 da3a 4eba 563a
00000270: 4a34 0a3b fc81 8a3a ea15 f23a b0a2 033b
00000280: ce5f c13a 1db6 043b 42ae 2e3a 88d5 aa3a
00000290: 10ca cb39 f1fd 543a 3883 413a c659 173a
000002a0: 767d 923a 0e02 793a fe63 8f39 dafe 863a
000002b0: aa00 823a 7eea 543a 48f0 903a 3095 4b3a
000002c0: 26ff 583a d4b5 623a 1cec 783a de97 cd3a
000002d0: 17e1 fe3a fc66 a43a 88a4 3a3a 8497 633a
000002e0: 449d e43a da99 803a b777 293b 2251 2d3b
000002f0: 8681 ad3a 1adc 3b3a 904a 8b3a 6b27 8239
00000300: 0610 a73a b1ec b13a c83d 0b3a 9a57 d43a
00000310: 2237 a03a 5c6f 0c3a 6816 e139 b834 ad3a
00000320: 274c 173a 6862 a23a 419e d33a 0acd dd39
00000330: 1abb b63a 6cff d03a c890 9c3a b4a5 833a
00000340: f81e 983a e656 473a 26a8 ba3a 5365 d23a
00000350: 3013 093a 8a61 d23a ee88 e33a cf18 a63a
00000360: 4e3b cb3a 1ce5 543a 0148 843a 2e53 ab3a
00000370: cf6b bb3a 652c 8e3a 94d0 0c3b 06f2 533a
00000380: 50ee ba3a 46f8 833a 03f9 903a b177 703a
00000390: e39a 3a3a 1466 b73a 8a8d bf3a d133 de3a
000003a0: f936 8b3a 06fd 993a f08e 393a 2e06 253a
000003b0: abb2 ca39 570d 923a 77d9 983a b4f4 1d3a
000003c0: 5edd f03a acdb f83a 97d1 a63a 8519 94b9
000003d0: 4ce6 a138 f049 ab39 fcba 57b9 edf7 4c39
000003e0: 0424 ad38 2dfb b9b8 d2a0 6739 152c 4b39
000003f0: c0e0 85ba 66cf 2ab9 4ddf aeb9 82f9 cbb9

down2.down_block3d.1.double_conv3d.3.bias f4 [16]
-9.5268115e-07 7.989591e-06 4.1241336e-05 3.846917e-06 -0.00013039428 -1.2037364e-05 9.388093e-05 -1.4383274e-06
5.186366e-06 1.1069454e-05 -2.8953556e-05 0.000106643354 0.00015483625 7.260396e-05 0.00013640514 -0.00017727361
00000000: c0bb 7fb5 080b 0637 8cfa 2c38 c414 8136
00000010: 73ba 08b9 16f4 49b7 f1e1 c438 8e0c c1b5
00000020: 8b06 ae36 f1b6 3937 4ae1 f2b7 b7a5 df38
00000030: 8a5b 2239 f442 9838 fa07 0f39 86e2 39b9

down2.down_block3d.1.shortcut.weight f4 [16, 8, 1, 1, 1]
0.111328214 -0.2258812 0.15216644 0.12953034 -0.00228018 0.13109325 -0.041655436 0.20605777
-0.2292048 -0.12564068 0.12997733 8.463564e-05 0.14866677 -0.0053385408 -0.12960368 0.15590441
0.1296153 0.11864753 -0.22221272 -0.07150846 0.2386845 6.2656254e-05 -0.17432736 -0.0062691635
0.16624478 -0.0009186667 0.031200878 -0.028946863 0.08834823 0.21685544 -0.12494031 0.042588703
0.113694616 0.09286734 -0.17837705 -0.22402811 8.774664e-05 0.09328958 0.08237054 0.24471933
-0.12950626 -0.17994314 -0.016821608 -0.031475306 0.057768285 -0.13345402 -0.03679687 0.00024923042
-0.024840513 0.000372926 -1.9671359e-05 6.967886e-05 -0.2309077 0.19423893 -0.00035495305 9.045428e-05
0.00014233321 -0.24809872 -0.23878027 -0.1356936 -0.0049941735 -0.24756083 -0.00015480997 -0.0039128284
0.21644695 -0.0002210443 0.19338296 -0.06477054 1.9596555e-06 -0.05555386 -0.015739355 -0.16182908
0.23965864 -7.44547e-05 -0.17168796 0.051269766 3.6559653e-05 -5.8756104e-06 0.19955057 0.15390775
-0.00037212847 0.22019891 -0.13418667 -0.02529296 0.09167631 0.07523785 -0.07498152 -0.031691317
-0.045590125 -0.12203994 -0.13693959 -0.0030297695 -0.15095823 -0.00021588668 -0.17541556 0.13520513
-0.057302516 -0.23128426 -0.044167895 0.13277793 7.762573e-06 -0.21712016 -0.15417658 0.074587554
-0.19817957 0.00051046023 -0.1937865 -0.00037113336 0.013304362 0.05950565 -0.1565641 -0.057662275
0.1378247 0.00015244953 -0.019595083 -3.3797827e-05 0.20648465 -0.110033214 0.18405522 -0.033078842
0.00065057946 0.14081846 -0.062712535 -2.457684e-05 0.10596651 0.08263541 -0.03854715 -0.064867735
00000000: 0c00 e43d 674d 67be 85d1 1b3e 9aa3 043e
00000010: 136f 15bb 4f3d 063e e49e 2abd cf00 533e
00000020: aab4 6abe f3a7 00be c718 053e 6a7e b138
00000030: 1a3c 183e edee aebb d4b6 04be 68a5 1f3e
00000040: e0b9 043e 7afd f23d bb8b 63be 0773 92bd
00000050: b669 743e 5266 8338 df82 32be 8e6d cdbb
00000060: 123c 2a3e aed2 70ba fc98 ff3c f921 edbc
00000070: ebef b43d 5a0f 5e3e b5e0 ffbd 7e71 2e3d
00000080: b9d8 e83d 3b31 be3d 79a8 36be a067 65be
00000090: 9e04 b838 9b0e bf3d e3b1 a83d b497 7a3e
000000a0: 4a9d 04be 0443 38be 78cd 89bc 40ec 00bd
000000b0: 709e 6c3d 2ca8 08be 51b8 16bd 24ab 8239
000000c0: 557e cbbc 4885 c339 ec03 a5b7 8e20 9238
000000d0: 1173 6cbe 92e6 463e fe18 bab9 46b2 bd38
000000e0: 483f 1539 970d 7ebe d182 74be 43f3 0abe
000000f0: 2aa6 a3bb 9680 7dbe 7c54 22b9 2f37 80bb
00000100: 45a4 5d3e 21c8 67b9 2f06 463e 6ba6 84bd
00000110: a082 0336 728c 63bd d2ef 80bc 86b6 25be
00000120: 1369 753e 9024 9cb8 f8ce 2fbe 3f00 523d
00000130: a157 1938 1c27 c5b6 fc56 4c3e fe99 1d3e
00000140: 3d1a c3b9 d37b 613e 3b68 09be 2f33 cfbc
00000150: cac0 bb3d 4d16 9a3d e98f 99bd c1ce 01bd
00000160: b6bc 3abd 13f0 f9bd e439 0cbe 198f 46bb
00000170: cb94 1abe a45f 62b9 23a0 33be 3773 0a3e
00000180: 0bb6 6abd c8d5 6cbe 65e9 34bd f0f6 073e
00000190: ff3b 0237 bf54 5ebe 77e0 1dbe 5cc1 983d
000001a0: 96ef 4abe 68d0 053a f86f 46be ad94 c2b9
000001b0: 8afa 593c 32bc 733d 5752 20be 472f 6cbd
000001c0: eb21 0d3e dcda 1f39 de85 a0bc 24c2 0db8
000001d0: b670 533e 1859 e1bd f978 3c3e ae7d 07bd
000001e0: a68b 2a3a b732 103e 6e6f 80bd 5d2a ceb7
000001f0: f804 d93d c13c a93d 9ee3 1dbd 60d9 84bd

down2.down_block3d.1.shortcut.bias f4 [16]
0.06698257 -0.005328751 -0.038297914 0.20739278 -0.084279746 -0.0012352491 -0.00012800554 -0.18331935
-0.00030756448 -0.00037120952 -0.009245374 0.17073008 0.014577345 0.17097986 -8.0268896e-05 -0.0733096
00000000: 282e 893d ce9c aebb 46de 1cbd c65e 543e
00000010: dc9a acbd 15e8 a1ba 3a39 06b9 11b8 3bbe
00000020: 9b40 a1b9 e69e c2b9 e979 17bc ded3 2e3e
00000030: d1d5 6e3c 5815 2f3e 0956 a8b8 5823 96bd
