simple_3dunet/checkpoints/test/backup/0.004-300/240.pth (torch, 375503 bytes, 49 tensors)

input.double_conv3d.0.weight f4 [4, 2, 3, 3, 3]
-0.1176911 -0.056018118 0.009254937 -0.066710375 -0.023141604 0.023411652 -0.05499862 -0.009395061
0.042480808 -0.15356067 -0.081431665 -0.010077332 -0.12052346 -0.017977104 0.04095559 -0.09134422
0.01891303 0.073141225 -0.116681844 -0.037454452 0.004459576 -0.08176831 0.03052728 0.06391992
-0.06412028 0.041961763 0.057074465 -0.1199994 -0.055758614 -0.0018162137 -0.07152612 0.004947361
0.024639644 -0.05102508 -0.0059432983 0.06341108 -0.14481293 -0.06893933 -0.005626523 -0.10507638
-0.014140469 0.026842682 -0.06410243 -0.00393894 0.038604543 -0.11885274 -0.040019102 0.03191625
-0.06359261 0.0058966987 0.062979445 -0.05502624 0.03230391 0.08594879 -0.10802139 -0.04120952
0.029598238 -0.09612603 -0.027732462 0.056469105 -0.07485059 0.010348908 0.07523843 -0.15546961
-0.07033031 0.011821951 -0.13548498 -0.043734137 0.046832275 -0.09680631 0.0010607496 0.07116161
-0.14078684 -0.048616905 0.03131662 -0.1251325 -0.020884342 0.06402355 -0.08732959 0.02107819
0.08934118 -0.10800423 -0.04121322 0.029565714 -0.096124746 -0.02773487 0.056454018 -0.07485019
0.010371518 0.07520184 -0.15546924 -0.07034221 0.011825111 -0.13548654 -0.04373083 0.046831317
-0.09680634 0.001065099 0.07117179 -0.14078633 -0.048624344 0.031230493 -0.12508756 -0.020888887
0.06415957 -0.08749303 0.021112131 0.08934855 -0.04213707 -0.02218983 0.02098216 -0.044408
0.005942799 0.04299516 -0.029434783 0.012030889 0.059257362 -0.08894446 -0.069693334 -0.018193014
-0.099350266 -0.03798703 0.007821759 -0.08275641 -0.028259823 0.025168302 -0.07758284 -0.054178014
-0.013833876 -0.08376939 -0.0285674 0.0049694222 -0.07223996 -0.026178828 0.020020854 -0.04226451
-0.021939704 0.020913938 -0.044821005 0.007800803 0.042253464 -0.028731586 0.012879245 0.05788232
-0.08905485 -0.06948625 -0.018262675 -0.09926095 -0.039777383 0.0077400967 -0.082812816 -0.026204443
0.025176551 -0.0794229 -0.05298387 -0.014652156 -0.08392121 -0.028459108 0.0061342395 -0.07433945
-0.028066773 0.018348206 -0.097773455 0.021127729 -0.16984175 0.079685204 0.18750684 -0.019587513
-0.017660625 0.046072945 -0.14468178 0.002012624 0.120596744 -0.12044746 0.28224584 0.37894475
0.12141386 0.23804013 0.29121974 0.05050801 -0.13892028 -0.08755492 -0.2468946 0.03702631
0.081479415 -0.061007272 0.017397748 0.03610307 -0.119083665 -0.10175316 0.02499845 -0.17604056
0.07415407 0.18141764 -0.02256524 -0.0070766183 0.042982124 -0.13931732 -0.015547766 0.114010215
-0.12749793 0.26910585 0.38157305 0.117600955 0.23837145 0.28697228 0.033077706 -0.16108808
-0.08102945 -0.2386212 0.037010334 0.0810215 -0.07645389 0.013118936 0.043931678 -0.113571115
00000000: 0808 f1bd 4173 65bd 05a2 173c 739f 88bd
00000010: 7693 bdbc cbc9 bf3c 3c46 61bd beed 19bc
00000020: 5b00 2e3d 023f 1dbe a5c5 a6bd 651b 25bc
00000030: 01d5 f6bd b844 93bc 0cc1 273d ae12 bbbd
00000040: 80ef 9a3c 11cb 953d e4f6 eebd d769 19bd
00000050: a321 923b 2576 a7bd 5914 fa3c 72e8 823d
00000060: 7e51 83bd 19e0 2b3d eac6 693d 3fc2 f5bd
00000070: 2563 64bd 050e eeba 497c 92bd 791d a23b
00000080: 14d9 c93c adff 50bd 00c0 c2bb abdd 813d
00000090: d749 14be 1030 8dbd b25e b8bb 4932 d7bd
000000a0: 6dad 67bc 2fe5 db3c 2348 83bd 3912 81bb
000000b0: cc1f 1e3d 1169 f3bd 12eb 23bd 9dba 023d
000000c0: d83c 82bd 1839 c13b 5efb 803d 3263 61bd
000000d0: 1b51 043d eb05 b03d 523a ddbd 50cb 28bd
000000e0: 0178 f23c b9dd c4bd 302f e3bc 264c 673d
000000f0: 444b 99bd 778e 293c 9b16 9a3d 6d33 1fbe
00000100: 5609 90bd dbb0 413c 93bc 0abe 9122 33bd
00000110: 33d3 3f3d 6342 c6bd da08 8b3a 2ebd 913d
00000120: 6d2a 10be 8522 47bd db45 003d bc22 00be
00000130: a415 abbc c71e 833d dbd9 b2bd 2bac ac3c
00000140: 82f8 b63d 5231 ddbd 32cf 28bd cc33 f23c
00000150: 0ddd c4bd 3d34 e3bc 543c 673d 0e4b 99bd
00000160: 4ded 293c 6c03 9a3d 5433 1fbe 940f 90bd
00000170: 1cbe 413c fcbc 0abe 191f 33bd 32d2 3f3d
00000180: 6742 c6bd cb9a 8b3a 84c2 913d 4b2a 10be
00000190: 522a 47bd 17d7 ff3c f416 00be 2c1f abbc
000001a0: 1866 833d 8c2f b3bd 59f3 ac3c 5ffc b63d
000001b0: ec97 2cbd 72c7 b5bc c7e2 ab3c 2ae5 35bd
000001c0: d0bb c23b b11b 303d 3721 f1bc 351d 453c
000001d0: d9b7 723d 8328 b6bd 61bb 8ebd 8409 95bc
000001e0: 2778 cbbd 4a98 1bbd d626 003c 317c a9bd
000001f0: 2581 e7bc c12d ce3c c1e3 9ebd c4e9 5dbd
00000200: 7ba7 62bc 498f abbd 2e06 eabc 89d6 a23b
00000210: 8bf2 93bd fb74 d6bc c602 a43c 8d1d 2dbd
00000220: e5ba b3bc b553 ab3c 3b96 37bd e19d ff3b
00000230: f811 2d3d 815e ebbc 7803 533c 0316 6d3d
00000240: 6462 b6bd cf4e 8ebd 9b9b 95bc 5349 cbbd
00000250: 9ced 22bd a3a0 fd3b c499 a9bd b3aa d6bc
00000260: 0e3f ce3c 79a8 a2bd 9d05 59bd 990f 70bc
00000270: e2de abbd 1323 e9bc bb01 c93b 483f 98bd
00000280: 4aec e5bc fa4e 963c 733d c8bd 0f14 ad3c
00000290: ffea 2dbe ff31 a33d cb01 403e fe75 a0bc
000002a0: 04ad 90bc fcb6 3c3d 7627 14be 3ae6 033b
000002b0: 6dfb f63d 28ad f6bd 8782 903e 0c05 c23e
000002c0: d4a7 f83d cbc0 733e c11a 953e 7de1 4e3d
000002d0: 1e41 0ebe fe4f b3bd f0d1 7cbe e6a8 173d
000002e0: aede a63d c3e2 79bd b985 8e3c d0e0 133d
000002f0: 23e2 f3bd f663 d0bd 8dc9 cc3c fa43 34be
00000300: 17de 973d 8cc5 393e bdda b8bc fae2 e7bb
00000310: 060e 303d 33a9 0ebe 0fbc 7ebc 307e e93d
00000320: d18e 02be 3ec8 893e 8b5d c33e c5d8 f03d
00000330: a517 743e 08ee 923e 7d7c 073d 46f4 24be
00000340: c5f2 a5bd 1e59 74be 2698 173d 9aee a53d
00000350: db93 9cbd cef0 563c b4f1 333d f997 e8bd

input.double_conv3d.0.bias f4 [4]
-3.136365e-05 -4.694523e-05 -4.8265592e-06 -0.0003185297
00000000: 768c 03b8 0fe7 44b8 d4f3 a1b6 5500 a7b9

input.double_conv3d.3.weight f4 [4, 4, 3, 3, 3]
-0.09968192 -0.085822664 -0.07221807 -0.07799329 -0.06824948 -0.061136052 -0.06416314 -0.06255901
-0.04941317 -0.10049108 -0.08284466 -0.07361999 -0.078221716 -0.06899685 -0.06304069 -0.06923153
-0.06305768 -0.05267706 -0.09065449 -0.07430195 -0.06266374 -0.07015798 -0.057756912 -0.05042271
-0.057269838 -0.049991176 -0.043569222 -0.102365196 -0.08602604 -0.076863885 -0.08362122 -0.07250182
-0.06678336 -0.07259693 -0.06823645 -0.05825953 -0.11262965 -0.09566895 -0.08540599 -0.09507878
-0.08286179 -0.07613598 -0.08330048 -0.07873842 -0.069325924 -0.11141883 -0.094398156 -0.083612494
-0.093386866 -0.0810752 -0.07419753 -0.08232817 -0.077525705 -0.06772682 -0.09627372 -0.08356022
-0.076862045 -0.08140333 -0.07202037 -0.065626025 -0.07219855 -0.06702924 -0.053120658 -0.105312616
-0.09031782 -0.08323802 -0.08905734 -0.07891621 -0.07255976 -0.08066761 -0.0748938 -0.06281497
-0.102338836 -0.08744887 -0.08074919 -0.08707814 -0.076919176 -0.070216656 -0.079718836 -0.072837815
-0.060487907 0.0051655266 0.01905456 0.040823013 -0.01414994 -0.002584808 0.02471925 -0.033474155
-0.009243499 0.022421414 -0.0025812632 0.008854088 0.029715292 -0.035029642 -0.0269929 -0.004889674
-0.04324679 -0.027688919 -0.00013831649 -0.079903394 -0.0742294 -0.05539386 -0.10847938 -0.10778871
-0.0870316 -0.11891542 -0.11092037 -0.091122486 -0.11166646 -0.13145505 -0.13971378 -0.069435164
-0.10492337 -0.11193372 -0.024502663 -0.06443965 -0.08408288 -0.10254842 -0.12740496 -0.13745649
-0.054033127 -0.09555712 -0.10549541 -0.007054586 -0.05062442 -0.074782945 -0.09142617 -0.11546115
-0.12656681 -0.044363875 -0.08430271 -0.093524344 0.0021822967 -0.040493764 -0.06323226 -0.10006088
-0.12343524 -0.12083544 -0.04910447 -0.09351316 -0.09457822 0.006339365 -0.040269226 -0.06500147
-0.0935465 -0.120247796 -0.11963884 -0.0390483 -0.08506951 -0.08966381 0.01652989 -0.030747842
-0.05897947 -0.06870136 -0.09361722 -0.09489741 -0.0170463 -0.0595626 -0.06405159 0.03651644
-0.008970474 -0.033879817 -0.100446634 -0.11963702 -0.12242592 -0.057632808 -0.09169497 -0.09384739
-0.010795589 -0.04917167 -0.069011964 -0.096086904 -0.11592139 -0.12041331 -0.050675288 -0.08492137
-0.0894202 -0.004002168 -0.042725943 -0.06430868 -0.0551805 -0.07453757 -0.08220617 -0.013820029
-0.043331176 -0.050018646 0.030541997 -0.0041588824 -0.025247362 -0.1273656 -0.10597292 -0.07234914
-0.13790672 -0.12502448 -0.092136934 -0.14602983 -0.12858535 -0.101348855 -0.077394105 -0.057747386
-0.030048588 -0.09090891 -0.073867396 -0.04079368 -0.10362282 -0.07552665 -0.04333022 -0.03724231
-0.018191714 0.013367654 -0.040582076 -0.025693186 0.005389538 -0.04685533 -0.019176695 0.009454555
-0.022112468 -0.047543347 -0.047855966 -0.0249404 -0.05094696 -0.05225932 -0.0061334777 -0.044563074
-0.048704118 -0.074118964 -0.09813755 -0.09633213 -0.07376611 -0.09879838 -0.09888555 -0.05334763
-0.091750614 -0.09473476 -0.019687101 -0.03988049 -0.03581025 -0.020120738 -0.040239822 -0.03503079
-0.0022395132 -0.036568448 -0.03272796 -0.062354326 -0.08651333 -0.089699976 -0.057713427 -0.081513286
-0.08762386 -0.03494155 -0.07934988 -0.08844606 -0.079244554 -0.1014939 -0.10078384 -0.07431667
00000000: 0926 ccbd cbc3 afbd 11e7 93bd f2ba 9fbd
00000010: 62c6 8bbd cc69 7abd f767 83bd f01e 80bd
00000020: 7765 4abd 44ce cdbd 76aa a9bd 14c6 96bd
00000030: b532 a0bd 384e 8dbd 7a1b 81bd 43c9 8dbd
00000040: 6324 81bd e7c3 57bd 10a9 b9bd 9f2b 98bd
00000050: d955 80bd fdae 8fbd 8392 6cbd 0b88 4ebd
00000060: c793 6abd 8cc3 4cbd a475 32bd d8a4 d1bd
00000070: 6c2e b0bd d06a 9dbd 9a41 abbd d67b 94bd
00000080: b7c5 88bd b3ad 94bd 8dbf 8bbd 8ca1 6ebd
00000090: 60aa e6bd 15ee c3bd 56e9 aebd aab8 c2bd
000000a0: 71b3 a9bd 2eed 9bbd 7199 aabd 9c41 a1bd
000000b0: c0fa 8dbd 8e2f e4bd d253 c1bd 073d abbd
000000c0: 9d41 bfbd c10a a6bd e0f4 97bd ac9b a8bd
000000d0: ccc5 9ebd 5cb4 8abd 282b c5bd 9f21 abbd
000000e0: d969 9dbd cab6 a6bd 6a7f 93bd f066 86bd
000000f0: d5dc 93bd a046 89bd 0c95 59bd 24ae d7bd
00000100: 8df8 b8bd b278 aabd b263 b6bd d29e a1bd
00000110: 369a 94bd 0f35 a5bd ec61 99bd 23a5 80bd
00000120: 0697 d1bd 6518 b3bd d55f a5bd 0656 b2bd
00000130: cd87 9dbd c0cd 8fbd a143 a3bd fe2b 95bd
00000140: 2bc2 77bd 9443 a93b 4f18 9c3c 0836 273d
00000150: 26d5 67bc e265 29bb 0680 ca3c 321c 09bd
00000160: 0b72 17bc 1dad b73c 692a 29bb bd10 113c
00000170: 7c6d f33c 3e7b 0fbd 3720 ddbc 8f39 a0bb
00000180: 8c23 31bd dfd3 e2bc 0d09 11b9 64a4 a3bd
00000190: 9505 98bd ace4 62bd 702a debd 54c0 dcbd
000001a0: a03d b2bd ed89 f3bd 382a e3bd 6d9e babd
000001b0: 63b1 e4bd 279c 06be 2111 0fbe 0634 8ebd
000001c0: 10e2 d6bd 823d e5bd cfb9 c8bc eff8 83bd
000001d0: a533 acbd e804 d2bd 7276 02be 65c1 0cbe
000001e0: d751 5dbd 74b3 c3bd fa0d d8bd 282a e7bb
000001f0: 8d5b 4fbd cd27 99bd a53d bbbd e576 ecbd
00000200: bb9a 01be e5b6 35bd e6a6 acbd b189 bfbd
00000210: dd04 0f3b cadc 25bd ea7f 81bd b8ec ccbd
00000220: 9dcb fcbd 9278 f7bd c521 49bd d483 bfbd
00000230: 3ab2 c1bd 73ba cf3b 58f1 24bd 7e1f 85bd
00000240: 4f95 bfbd 7a44 f6bd 3505 f5bd 1cf1 1fbd
00000250: ec38 aebd a9a1 b7bd b169 873c e6e2 fbbc
00000260: 7594 71bd 4cb3 8cbd 63ba bfbd 9359 c2bd
00000270: afa4 8bbc eaf7 73bd 7b2d 83bd 4392 153d
00000280: e5f8 12bc 90c5 0abd f7b6 cdbd 4104 f5bd
00000290: 71ba fabd 6110 6cbd 93ca bbbd 0f33 c0bd
000002a0: fbdf 30bc 3c68 49bd 2556 8dbd 36c9 c4bd
000002b0: 3268 edbd 419b f6bd e490 4fbd 41eb adbd
000002c0: f021 b7bd 9e24 83bb 6601 2fbd 45b4 83bd
000002d0: f304 62bd 27a7 98bd b55b a8bd 676d 62bc
000002e0: 087c 31bd 5ae0 4cbd 3633 fa3c 3c47 88bb
000002f0: 8ed3 cebc 216c 02be 5508 d9bd c92b 94bd
00000300: 6b37 0dbe 6b06 00be 4ab2 bcbd d888 15be
00000310: e1ab 03be fd8f cfbd cd80 9ebd 8688 6cbd
00000320: 7528 f6bc 732e babd ca47 97bd 4617 27bd
00000330: 3338 d4bd b7ad 9abd 077b 31bd 648b 18bd
00000340: ca06 95bc 0104 5b3c 6439 26bd 847a d2bc
00000350: b99a b03b 60eb 3fbd 7218 9dbc 47e7 1a3c
00000360: 3525 b5bc d0bc 42bd 9e04 44bd cf4f ccbc
00000370: c2ad 50bd de0d 56bd 57fb c8bb c587 36bd
00000380: f87d 47bd afcb 97bd 57fc c8bd c849 c5bd
00000390: b012 97bd ce56 cabd 8284 cabd 0b83 5abd
000003a0: bfe7 bbbd 4c04 c2bd d846 a1bc ba59 23bd
000003b0: c5ad 12bd 3fd4 a4bc 83d2 24bd 727c 0fbd
000003c0: ccc4 12bb ccc8 15bd c10d 06bd 4067 7fbd
000003d0: e72d b1bd 9fb4 b7bd ea64 6cbd 70f0 a6bd
000003e0: 2374 b3bd df1e 0fbd 3182 a2bd 3523 b5bd
000003f0: f84a a2bd 09dc cfbd c267 cebd 5733 98bd

input.double_conv3d.3.bias f4 [4]
3.359233e-05 -3.3617107e-07 -3.954506e-06 -0.00024242862
00000000: 7de5 0c38 007b b4b4 f3b0 84b6 7034 7eb9

input.shortcut.weight f4 [4, 2, 1, 1, 1]
0.16173147 0.0012819658 0.116452575 0.50469434 -0.185442 -0.18748485 0.42861864 0.9331525
00000000: ef9c 253e a207 a83a b07e ee3d a633 013f
00000010: 82e4 3dbe 07fc 3fbe e773 db3e 15e3 6e3f

input.shortcut.bias f4 [4]
0.261211 -0.241111 0.38181683 -0.2817267
00000000: 73bd 853e cde5 76be 7f7d c33e 7b3e 90be

down1.down_block3d.1.double_conv3d.0.weight f4 [8, 4, 3, 3, 3]
-0.13009773 -0.123848505 -0.12874277 -0.12867984 -0.115652084 -0.11525651 -0.14995873 -0.12671398
-0.11593932 0.0032696978 0.007755255 -0.0038171906 0.007136881 0.014265967 0.007020004 -0.014328641
0.0021094985 0.0046422365 -0.064224295 -0.063296616 -0.074174136 -0.06186829 -0.06008506 -0.06597144
-0.074654296 -0.06692439 -0.06449922 -0.07105063 -0.07352916 -0.06451257 -0.070569046 -0.06051676
-0.0387629 -0.07200246 -0.0572228 -0.026842887 -0.029668868 -0.01892393 0.006436428 -0.041068397
-0.0056014084 0.03441944 -0.04910125 -4.789835e-05 0.050301503 -0.025041623 -0.00886805 -0.0006869298
-0.021467065 0.0088394405 0.018747916 -0.030711921 0.009822949 0.026982171 0.04632352 0.014579879
-0.04245781 0.06948902 0.06783181 0.016830431 0.024326732 0.06391084 0.04417699 0.30065495
0.26019472 0.11672329 0.33936152 0.29062614 0.14593683 0.27651957 0.26435852 0.15540422
0.15681636 0.10759435 -0.028038185 0.1817968 0.113553844 -0.020233426 0.12398389 0.0709409
-0.032662194 0.08987311 0.097502105 0.09214788 0.10113014 0.0961221 0.12784144 0.12856704
0.112179466 0.16437222 0.0023259209 -0.011238584 0.047438104 -0.044470374 -0.014539898 0.09983647
-0.018105827 0.019635517 0.16095386 -0.020522255 -0.020630514 0.013630305 -0.08171882 -0.035286214
0.05554284 -0.0941297 -0.027989313 0.075680345 -0.061498195 -0.06236879 -0.05854483 -0.027686285
-0.042819645 -0.035962395 -0.008933413 -0.017223625 -0.006889732 -0.054124393 -0.061399855 -0.06367068
-0.014062325 -0.038762007 -0.038125895 0.011876181 -0.006316669 0.00016205208 -0.05566709 -0.06440468
-0.06578629 -0.022790415 -0.04816562 -0.046942502 0.005122861 -0.015544221 -0.010042734 -0.13998832
-0.13789502 -0.12712626 -0.10932942 -0.11383003 -0.10253999 -0.07798366 -0.08995475 -0.08042224
-0.110642545 -0.104428895 -0.096241385 -0.07184028 -0.06925832 -0.057598438 -0.040628303 -0.044699267
-0.03348996 -0.13847959 -0.13919456 -0.13711941 -0.09572048 -0.1020814 -0.09677793 -0.050489377
-0.06399822 -0.05980369 -0.0074787037 -0.11049559 -0.16806436 0.14998391 0.024638006 -0.041015297
0.32641488 0.21443897 0.14664865 -0.0012059608 -0.14251018 -0.24056225 0.1763655 0.0010051546
-0.114257686 0.38130322 0.22450463 0.12016058 -0.1486898 -0.2778488 -0.36944124 0.0070522735
-0.169324 -0.27903765 0.21813445 0.054153353 -0.045529947 0.034518402 0.029910032 -0.005814493
0.0052502286 0.01069741 -0.027373748 -0.038937584 -0.022535296 -0.03716829 0.09893717 0.12834243
0.112126425 2.8750399e-05 0.08186101 0.085112244 -0.13574468 -0.043708522 -0.02167103 0.030985652
0.0338548 0.028013606 -0.050099276 -0.013450818 0.0011491138 -0.13832773 -0.08771603 -0.06440018
-0.014732179 -0.008351667 0.0053931405 0.00289906 0.0010015507 0.018562652 0.012156026 0.01603788
0.03390263 0.018935286 0.016332705 0.029354604 0.05983633 0.04454745 0.05798602 0.08882217
0.08591629 0.09864492 -0.022829399 -0.003952802 0.00974374 -0.005968935 0.0017487399 0.017492903
-0.0041602794 -0.0016336965 0.0115174195 0.0054852744 0.010904098 -0.0051922873 0.042187613 0.049870964
0.024144694 0.04842135 0.05454942 0.033964224 -0.012105305 -0.023901965 -0.06571662 0.06898557
00000000: 5738 05be 49a4 fdbd 25d5 03be a6c4 03be
00000010: 00db ecbd 9b0b ecbd c88e 19be 4fc1 01be
00000020: 9871 edbd 6d48 563b cb1f fe3b d529 7abb
00000030: 7fdc e93b cdbb 693c 1008 e63b adc2 6abc
00000040: 833f 0a3b e71d 983b 0788 83bd a8a1 81bd
00000050: 9ce8 97bd 9b69 7dbd c01b 76bd 091c 87bd
00000060: 5ae4 98bd a80f 89bd 2b18 84bd fe82 91bd
00000070: 7596 96bd 2b1f 84bd 8186 90bd 6ce0 77bd
00000080: d9c5 1ebd 0776 93bd 7462 6abd 9de5 dbbc
00000090: 200c f3bc 5c06 9bbc ace8 d23b 5637 28bd
000000a0: 058c b7bb 66fb 0c3d 641e 49bd 76e6 48b8
000000b0: f308 4e3d 1724 cdbc 4c4b 11bc 1413 34ba
000000c0: b3db afbc 4dd3 103c 3b95 993c 9197 fbbc
000000d0: 6ff0 203c b709 dd3c bbbd 3d3d 72e0 6e3c
000000e0: 3ee8 2dbd 4250 8e3d 67eb 8a3d f9df 893c
000000f0: db48 c73c b0e3 823d eef2 343d 72ef 993e
00000100: 3e38 853e 9f0c ef3d cbc0 ad3e f3cc 943e
00000110: 7770 153e f993 8d3e 005a 873e 4922 1f3e
00000120: 7894 203e 6d5a dc3d 56b0 e5bc f128 3a3e
00000130: eb8e e83d 92c0 a5bc 44eb fd3d 7649 913d
00000140: cbc8 05bd 650f b83d 2faf c73d 07b8 bc3d
00000150: 521d cf3d aadb c43d dee8 023e 14a7 033e
00000160: 59be e53d 3151 283e 7a6e 183b 0a22 38bc
00000170: 754e 423d 9126 36bd c138 6ebc 1077 cc3d
00000180: ac52 94bc aada a03c 17d1 243e 4a1e a8bc
00000190: 5301 a9bc a551 5f3c 325c a7bd 4788 10bd
000001a0: e480 633d 12c7 c0bd d849 e5bc 4cfe 9a3d
000001b0: 88e5 7bbd 6b76 7fbd b4cc 6fbd 59ce e2bc
000001c0: a763 2fbd 4e4d 13bd 735d 12bc 8f18 8dbc
000001d0: 43c3 e1bb 8ab1 5dbd 6a7e 7bbd c665 82bd
000001e0: aa65 66bc e9c4 1ebd e629 1cbd 5094 423c
000001f0: 0ffc cebb 86ec 2939 2d03 64bd 9ae6 83bd
00000200: f6ba 86bd f7b2 babc 5049 45bd c846 40bd
00000210: acdd a73b 30ad 7ebc 488a 24bc 1959 0fbe
00000220: 5a34 0dbe 632d 02be 1ae8 dfbd b81f e9bd
00000230: 7c00 d2bd e6b5 9fbd 323a b8bd 6ab4 a4bd
00000240: 8f98 e2bd d1de d5bd 341a c5bd ff20 93bd
00000250: 4ed7 8dbd 57ec 6bbd dd69 26bd 9416 37bd
00000260: c52c 09bd 98cd 0dbe 0589 0ebe 0869 0cbe
00000270: 1909 c4bd 0e10 d1bd 8233 c6bd f3cd 4ebd
00000280: 8011 83bd b7f4 74bd ea0f f5bb 834b e2bd
00000290: 1019 2cbe 6295 193e a5d5 c93c a8ff 27bd
000002a0: da1f a73e e495 5b3e 102b 163e 5411 9eba
000002b0: 30ee 11be f355 76be 2899 343e 64bf 833a
000002c0: efff e9bd 2d3a c33e 8be4 653e c016 f63d
000002d0: 2442 18be 3342 8ebe 6727 bdbe c216 e73b
000002e0: 4563 2dbe 06de 8ebe a35e 5f3e e8cf 5d3d
000002f0: 9c7d 3abd 2b63 0d3d e205 f53c 8187 bebb
00000300: 1c0a ac3b 3144 2f3c e93e e0bc 047d 1fbd
00000310: f19b b8bc c73d 18bd 929f ca3d 336c 033e
00000320: 8aa2 e53d 032d f137 bfa6 a73d 544f ae3d
00000330: a700 0bbe b507 33bd 7287 b1bc 9fd5 fd3c
00000340: 55ab 0a3d ca7c e53c e634 4dbd d260 5cbc
00000350: dc9d 963a c9a5 0dbe 76a4 b3bd 3ee4 83bd
00000360: 3d5f 71bc 6ed5 08bc f1b8 b03b 28fe 3d3b
00000370: 7746 833a b410 983c 122a 473c df61 833c
00000380: 7cdd 0a3d 2c1e 9b3c 2acc 853c 1179 f03c
00000390: f116 753d 6377 363d c082 6d3d 66e8 b53d
000003a0: e1f4 af3d 5906 ca3d b804 bbbc 8286 81bb
000003b0: 35a4 1f3c 0e97 c3bb f935 e53a 474d 8f3c
000003c0: f452 88bb c221 d6ba 8fb3 3c3c d1bd b33b
000003d0: 1aa7 323c 1024 aabb ebcc 2c3d 7f45 4c3d
000003e0: 18cb c53c 7755 463d 366f 5f3d 121e 0b3d
000003f0: 5455 46bc 0ece c3bc 6f96 86bd 4e48 8d3d

down1.down_block3d.1.double_conv3d.0.bias f4 [8]
0.0024834375 0.00045092413 -0.0019459813 -0.0014760178 -0.002258912 -0.011486382 -0.0015319076 -0.0010922342
00000000: 2bc1 223b 036a ec39 4c10 ffba f076 c1ba
00000010: 410a 14bb 6131 3cbc 4aca c8ba 4c29 8fba

down1.down_block3d.1.double_conv3d.3.weight f4 [8, 8, 3, 3, 3]
-0.0068582613 -0.005108393 0.021502515 -0.0151356915 0.007600783 0.031969562 -0.023071926 0.0070189894
0.04635049 0.03011885 0.02984387 0.03744975 0.028583359 0.049949355 0.047595885 0.0017483176
0.04050367 0.05733544 0.08566842 0.122530304 0.11589622 0.10515447 0.1528659 0.12117596
0.08560154 0.12204337 0.11381323 0.03400561 0.04568513 0.05156765 0.017343631 0.020984666
0.04001097 0.013969479 0.010169337 0.02607708 0.05493843 0.06130457 0.05602729 0.028399993
0.035996336 0.046362784 0.017566295 0.020325055 0.035913043 0.06941406 0.079474814 0.07551141
0.03265506 0.047319233 0.059428982 0.0033650997 0.019702703 0.043182388 0.052758817 0.009696229
-0.015723523 0.024342764 0.011074419 0.0016826935 0.012364983 0.016865755 0.0027105636 0.03357331
0.017360816 -0.00704528 0.027421974 0.0407457 0.03303511 0.023901658 0.05101954 0.042307395
-0.03894073 -0.06032052 -0.0610942 -0.06547446 -0.035567433 -0.013999278 -0.042410858 0.0005976638
0.018768923 0.010792975 0.02738508 0.054428086 0.034483936 0.049687974 0.06868951 0.07509458
0.08479936 0.09368015 0.054718107 0.07007127 0.09018348 0.07827346 0.09495822 0.105322994
0.10521762 0.12245747 0.12822203 0.0777122 0.07658164 0.07745249 0.10416395 0.09993061
0.088747635 0.12554713 0.12668988 0.11370015 -0.081083536 -0.06450245 -0.037333213 -0.07853152
-0.07649829 -0.05836043 -0.07687326 -0.07687436 -0.07164625 -0.0587636 -0.042458262 -0.021381276
-0.04934137 -0.04636002 -0.037760727 -0.049559757 -0.051126234 -0.054820776 -0.039166 -0.025746629
-0.013763221 -0.02733798 -0.029772196 -0.035840005 -0.031130625 -0.040040284 -0.056994513 -0.032085948
-0.037111606 -0.07618317 -0.042035926 -0.054535188 -0.08641723 -0.027512677 -0.041588973 -0.07041594
0.059775967 0.05950801 0.011292949 0.038532775 0.040322613 -0.0045691784 0.021871727 0.020441115
-0.0019335333 0.040793303 0.04710239 0.0039103585 0.051531136 0.06193445 0.030190725 0.054528814
0.06635696 0.05077794 -0.026289707 -0.0018558924 0.008736762 -0.06731848 -0.011013614 0.03197071
-0.07295387 -0.019243125 0.03410712 -0.015948087 0.0069591594 0.016403068 -0.06013022 -0.020596912
0.021017823 -0.078245215 -0.032995615 0.027922705 0.01854742 0.015693445 0.00318232 -0.022746129
-0.006885375 0.0043350263 -0.06851517 -0.038456645 -0.0069354787 0.014351324 0.04611658 0.10882515
-0.0063928505 0.025855264 0.0870095 -0.04633204 -0.010152968 0.03440438 0.048618156 0.08345354
0.13443579 0.0557629 0.07510153 0.10939333 0.0445412 0.051798802 0.05570977 0.07115336
0.101294376 0.12771127 0.1181381 0.12751544 0.11770599 0.14743285 0.12695585 0.07821183
-0.10691921 -0.11258544 -0.12128559 -0.0966106 -0.08460459 -0.09115581 -0.09364508 -0.070259996
-0.08240948 -0.10214156 -0.11574625 -0.14272092 -0.109897874 -0.10840927 -0.12230263 -0.11336805
-0.096120656 -0.10874726 -0.06670049 -0.07066753 -0.0736941 -0.06459178 -0.066272944 -0.05544163
-0.07723012 -0.06752099 -0.041663066 -0.09045648 -0.058653824 -0.06269654 -0.089314744 -0.05025335
-0.049385913 -0.16423942 -0.11320861 -0.1107837 -0.06162582 -0.02731375 -0.03657472 -0.09290966
00000000: 44bb e0bb 4e64 a7bb 0b26 b03c b1fb 77bc
00000010: fd0f f93b 84f2 023d 5601 bdbc 8dff e53b
00000020: 03da 3d3d cebb f63c 227b f43c e964 193d
00000030: a627 ea3c b297 4c3d e7f3 423d ce27 e53a
00000040: 2de7 253d 91d8 6a3d ed72 af3d 2bf1 fa3d
00000050: ff5a ed3d 3a5b d73d e188 1c3e 1a2b f83d
00000060: dc4f af3d e0f1 f93d e916 e93d 7749 0b3d
00000070: 5520 3b3d 9a38 533d 3b14 8e3c 09e8 ab3c
00000080: 8be2 233d 3ee0 643c 4a9d 263c 9a9f d53c
00000090: 1f07 613d 801a 7b3d df7c 653d 1aa7 e83c
000000a0: e570 133d e7e6 3d3d 31e7 8f3c bb80 a63c
000000b0: 8e19 133d f528 8e3d b1c3 a23d baa5 9a3d
000000c0: 50c1 053d d0d1 413d ce6b 733d 0189 5c3b
000000d0: 9067 a13c 04e0 303d a119 583d efdc 1e3c
000000e0: 9ece 80bc 7a6a c73c 7b71 353c d38d dc3a
000000f0: 7f96 4a3c 0d2a 8a3c b6a3 313b 2b84 093d
00000100: 4538 8e3c 18dc e6bb 0ca4 e03c f7e4 263d
00000110: d34f 073d 69cd c33c ddf9 503d 854a 2d3d
00000120: 5180 1fbd a612 77bd e93d 7abd 7917 86bd
00000130: 28af 11bd 3a5d 65bc 02b7 2dbd 8aac 1c3a
00000140: 49c1 993c 05d5 303c ad56 e03c fcef 5e3d
00000150: 073f 0d3d 9e85 4b3d 16ad 8c3d 30cb 993d
00000160: 49ab ad3d 61db bf3d 1820 603d 8781 8f3d
00000170: 1eb2 b83d d64d a03d 7579 c23d 95b3 d73d
00000180: 567c d73d fbca fa3d a34c 033e 9327 9f3d
00000190: d6d6 9c3d 699f 9e3d e953 d53d 6ba8 cc3d
000001a0: 52c1 b53d 6d8f 003e feba 013e a0db e83d
000001b0: 200f a6bd dc19 84bd b6ea 18bd 22d5 a0bd
000001c0: 23ab 9cbd 590b 6fbd ba6f 9dbd 4e70 9dbd
000001d0: 45bb 92bd 1ab2 70bd b7e8 2dbd c927 afbc
000001e0: 2d1a 4abd 01e4 3dbd feaa 1abd 2cff 4abd
000001f0: be69 51bd c08b 60bd 876c 20bd 98ea d2bc
00000200: 227f 61bc e6f3 dfbc d2e4 f3bc f8cc 12bd
00000210: a705 ffbc 4801 24bd 1473 69bd 8e6c 03bd
00000220: 5702 18bd ec05 9cbd dd2d 2cbd 4a60 5fbd
00000230: 84fb b0bd 4462 e1bc 3359 2abd 3b36 90bd
00000240: a5d7 743d acbe 733d 1006 393c 8bd4 1d3d
00000250: 5329 253d 0cb9 95bb 562c b33c 2074 a73c
00000260: 9d6e fdba e116 273d 70ee 403d 7722 803b
00000270: 5012 533d faae 7d3d 8a52 f73c 9b59 5f3d
00000280: 28e6 873d 87fc 4f3d 835d d7bc 6a41 f3ba
00000290: a324 0f3c 45de 89bd 7272 34bc b8f3 023d
000002a0: d768 95bd c2a3 9dbc e8b3 0b3d 90a5 82bc
000002b0: a909 e43b ba5f 863c 1b4b 76bd dbba a8bc
000002c0: 922d ac3c 073f a0bd 6926 07bd 28be e43c
000002d0: c2f0 973c 8a8f 803c 788e 503b 1756 babc
000002e0: b69e e1bb d60c 8e3b ae51 8cbd b784 1dbd
000002f0: 0343 e3bb d121 6b3c bde4 3c3d b8df de3d
00000300: 1e7b d1bb 6bce d33c 0932 b23d aac6 3dbd
00000310: a258 26bc 9beb 0c3d d523 473d b1e9 aa3d
00000320: 89a9 093e a367 643d d5ce 993d 9c09 e03d
00000330: d570 363d fb2a 543d ee2f 643d dab8 913d
00000340: 6d73 cf3d bec6 023e 63f2 f13d 6893 023e
00000350: d70f f13d a3f8 163e b700 023e 862d a03d
00000360: 75f8 dabd 3293 e6bd 9464 f8bd c7db c5bd
00000370: 2c45 adbd e6af babd fec8 bfbd 79e4 8fbd
00000380: 4dc6 a8bd 982f d1bd 5f0c edbd 6f25 12be
00000390: 2312 e1bd ae05 debd cd79 fabd 822d e8bd
000003a0: e8da c4bd e2b6 debd 449a 88bd 23ba 90bd
000003b0: efec 96bd b248 84bd 1cba 87bd c316 63bd
000003c0: d32a 9ebd 7248 8abd e4a6 2abd 3f41 b9bd
000003d0: fe3e 70bd 0b67 80bd a6ea b6bd 75d6 4dbd
000003e0: e248 4abd 612e 28be ead9 e7bd 91e2 e2bd
000003f0: 5b6b 7cbd 16c1 dfbc 60cf 15bd 6b47 bebd

down1.down_block3d.1.double_conv3d.3.bias f4 [8]
-4.8461134e-06 2.6368542e-05 1.1505229e-05 2.4433259e-05 -1.2975522e-05 -2.6935992e-05 -2.9701293e-06 -1.808777e-05
00000000: cc9b a2b6 0332 dd37 9506 4137 06f6 cc37
00000010: 71b1 59b7 9af4 e1b7 6f52 47b6 31bb 97b7

down1.down_block3d.1.shortcut.weight f4 [8, 4, 1, 1, 1]
0.046535168 -0.024514345 0.08677901 0.10221618 0.20202257 0.049703196 0.30940643 -0.6980314
0.29112023 -0.011096966 0.32307562 -0.4289635 0.11721431 -0.01594554 -0.015169574 -0.46303666
-0.020777268 -0.025200786 -0.03824719 0.46037635 0.48826382 0.32602298 0.45075047 -0.3811166
0.3567272 0.01780779 0.49898228 -0.51742655 0.15110649 0.031613726 0.111554906 -0.31725055
00000000: a99b 3e3d 4fd2 c8bc 32b9 b13d b756 d13d
00000010: 01df 4e3e 9495 4b3d 856a 9e3e 30b2 32bf
00000020: b60d 953e 0dd0 35bc 2b6a a53e 1ba1 dbbe
00000030: 0e0e f03d 39a0 82bc ce89 78bc 2413 edbe
00000040: 1735 aabc e171 cebc 16a9 1cbd 73b6 eb3e
00000050: b7fd f93e 7cec a63e c4c8 e63e b721 c3be
00000060: f3a4 b63e a4e1 913c 9b7a ff3e 1176 04bf
00000070: a9bb 1a3e 657d 013d e676 e43d aa6e a2be

down1.down_block3d.1.shortcut.bias f4 [8]
-0.08463323 0.19730535 0.39465296 0.26990816 -0.22973119 0.5226327 0.4692343 0.28346997
00000000: 3054 adbd 6a0a 4a3e f40f ca3e 6731 8a3e
00000010: a73e 6bbe 42cb 053f 7a3f f03e fa22 913e

down2.down_block3d.1.double_conv3d.0.weight f4 [16, 8, 3, 3, 3]
-0.045122977 -0.08011319 -0.09426418 -0.01643961 -0.038350474 -0.02724038 0.0045258743 0.018069176
0.044280075 -0.06109125 -0.072644554 -0.06597678 -0.058098897 -0.056193918 -0.022313215 -0.056407996
-0.019931337 0.023077954 -0.037733506 -0.010746596 0.0058555407 -0.04404756 -0.004175937 0.03325611
-0.06145214 -0.0049327207 0.04361875 0.036571633 0.06329096 0.12774315 0.0050154 0.013292047
0.056558006 0.021581946 0.035382304 0.044979203 0.21080936 0.11710094 0.13787296 0.19611005
0.095960155 0.09883482 0.25330785 0.1915563 0.14915161 0.061732523 0.0010013214 0.059535753
0.08719835 0.00575243 0.051588368 0.12409164 0.04248245 0.03262802 -0.07035363 -0.032830365
0.043008305 -0.14762898 -0.088236384 -0.008124612 -0.17868416 -0.0886309 -0.022551158 0.12957804
0.090490215 0.13978155 0.018259231 0.028127577 0.09231134 -0.0762625 0.0062900945 0.059211027
0.040962745 0.043434042 0.1057496 -0.012496802 0.01846053 0.08640564 -0.116488665 -0.050569978
0.001851003 -0.047116347 -0.040339336 0.0005673987 -0.03840466 -0.07536859 -0.07280033 0.002552071
-0.043554626 -0.07437835 0.15352264 0.07519668 0.05712671 0.15009212 0.030375812 -0.01218282
0.1840928 0.07097676 0.006936552 0.12854315 0.06341841 0.057383906 0.12159094 0.025350053
0.01301333 0.15248764 0.039019536 -0.005926764 0.0065147583 -0.049132936 -0.074730545 0.014656238
-0.015273389 -0.022165962 -0.0094016325 0.007175532 0.026651036 -0.020074867 -0.046064965 -0.052592933
-0.024616437 -0.030540673 -0.030292558 -0.059946682 -0.027675819 -0.009863951 -0.077291764 -0.060847577
-0.047810387 -0.08905177 -0.05593548 -0.04931439 -0.11801399 -0.07229548 -0.061782643 0.06679339
0.06353462 0.11270927 -0.028724821 -0.005815319 0.05358754 -0.10473125 -0.0394169 0.011466298
0.10231586 0.032375634 0.102426924 0.011275317 -0.016226977 0.07234724 -0.057076868 -0.0018387622
0.062719144 -0.054122105 -0.042321038 0.07559125 -0.08370307 -0.055865772 0.06447064 -0.15756533
-0.08916236 0.005573445 0.028319113 0.049047135 0.11619118 0.0054566967 0.003443799 0.049004
0.040122483 0.045398217 0.055376116 0.24528684 0.13811445 0.17174791 0.20031236 0.0890962
0.10160695 0.255496 0.16871038 0.14125511 0.09157755 0.016717011 0.07652445 0.070527
-0.022474566 0.03231825 0.110021815 0.010465475 0.0046913926 -0.020542633 0.007714157 0.0570482
-0.02135864 -0.030301789 -0.015391428 0.014380789 -0.010614603 -0.033477716 0.1607653 0.10467859
0.10370726 0.14496857 0.06843167 0.050446577 0.19942425 0.107215345 0.06194454 0.08050171
0.007236033 0.015194628 0.08482991 -0.017811237 -0.015359019 0.123334326 0.01112556 -0.02370634
0.013417183 -0.017694697 -0.03498521 0.0044752257 -0.019079654 -0.02368049 0.009273368 0.005338029
0.0062314696 0.022808855 0.0011171049 0.002886997 0.004935068 -0.01193074 -0.0029623643 0.0021069783
0.0029668 0.013905308 0.038198844 0.03341451 0.048457094 0.020062866 0.012736946 0.030321643
0.0123672215 0.016494283 0.034379955 0.051608562 0.017697146 -0.027080655 0.005753655 -0.03502368
-0.10690018 0.066549435 0.020109864 -0.041982006 0.044255596 0.011120127 -0.040982597 -0.055240992
00000000: dfd2 38bd 6212 a4bd 940d c1bd 5cac 86bc
00000010: 6315 1dbd 3827 dfbc c94d 943b cf05 943c
00000020: 065f 353d d23a 7abd abc6 94bd d61e 87bd
00000030: 1cf9 6dbd 982b 66bd 34ca b6bc 120c 67bd
00000040: 0b47 a3bc fa0d bd3c 738e 1abd 7e12 30bc
00000050: d6df bf3b 376b 34bd 4cd6 88bb 8f37 083d
00000060: 3db5 7bbd a9a2 a1bb 93a9 323d 23cc 153d
00000070: b19e 813d 1acf 023e 3958 a43b e3c6 593c
00000080: 5ea9 673d 9fcc b03c 09ed 103d 1d3c 383d
00000090: 69de 573e 9ed2 ef3d 922e 0d3e 13d1 483e
000000a0: c286 c43d e969 ca3d 91b1 813e 5627 443e
000000b0: 33bb 183e 3edb 7c3d c53e 833a c3db 733d
000000c0: 0c95 b23d e17e bc3b 534e 533d c223 fe3d
000000d0: 1402 2e3d f5a4 053d 9015 90bd 2279 06bd
000000e0: 7a29 303d 0d2c 17be 47b5 b4bd 181d 05bc
000000f0: fbf8 36be 1e84 b5bd 35bd b8bc 1bb0 043e
00000100: ef52 b93d e522 0f3e 6294 953c ce6b e63c
00000110: ba0d bd3d 832f 9cbd 231d ce3b 4387 723d
00000120: 8dc8 273d e5e7 313d 3f93 d83d 63bf 4cbc
00000130: 8a3a 973c 71f5 b03d 9c91 eebd 7722 4fbd
00000140: 5b9d f23a 12fd 40bd dc3a 25bd 7bbd 143a
00000150: 344e 1dbd d95a 9abd 5718 95bd a540 273b
00000160: 5666 32bd ad53 98bd 0a35 1d3e b800 9a3d
00000170: b2fd 693d c0b1 193e b2d6 f83c 739a 47bc
00000180: d382 3c3e 435c 913d 044c e33b d1a0 033e
00000190: 83e1 813d 630b 6b3d ac04 f93d eaaa cf3c
000001a0: dd35 553c b825 1c3e f3d2 1f3d 4d35 c2bb
000001b0: c179 d53b 9e3f 49bd 540c 99bd b820 703c
000001c0: 3d3d 7abc 6495 b5bc 4e09 1abc ba20 eb3b
000001d0: 4653 da3c 0c74 a4bc 9eae 3cbd b06b 57bd
000001e0: 69a8 c9bc 6f30 fabc 1928 f8bc a78a 75bd
000001f0: 66b8 e2bc 699c 21bc 254b 9ebd 4f3b 79bd
00000200: d3d4 43bd c660 b6bd 9a1c 65bd e3fd 49bd
00000210: 52b1 f1bd a70f 94bd cc0f 7dbd f9ca 883d
00000220: 701e 823d 1ed4 e63d 5150 ebbc 6e8e bebb
00000230: 9c7e 5b3d 567d d6bd 9e73 21bd 24dd 3b3c
00000240: fa8a d13d 509c 043d 35c5 d13d 1bbc 383c
00000250: 70ee 84bc ca2a 943d 6fc9 69bd 9f02 f1ba
00000260: e572 803d 24af 5dbd d358 2dbd 96cf 9a3d
00000270: 846c abbd 82d3 64bd 2f09 843d ce58 21be
00000280: c19a b6bd 72a1 b63b 7cfd e73c a6e5 483d
00000290: a4f5 ed3d 17ce b23b 5cb1 613b 6bb8 483d
000002a0: 7957 243d 7bf3 393d 11d2 623d 792c 7b3e
000002b0: e06d 0d3e afde 2f3e af1e 4d3e 1278 b63d
000002c0: 4e17 d03d 5fd0 823e 6ac2 2c3e 2ea5 103e
000002d0: 038d bb3d 1df2 883c dab8 9c3d 7670 903d
000002e0: 951c b8bc 2460 043d 1e53 e13d 6277 2b3c
000002f0: 41ba 993b 0649 a8bc 0ac7 fc3b 60ab 693d
00000300: 51f8 aebc 753b f8bc 542c 7cbc 679d 6b3c
00000310: dfe8 2dbc ee1f 09bd a99f 243e bb61 d63d
00000320: 7964 d43d a472 143e e725 8c3d 12a1 4e3d
00000330: df35 4c3e b893 db3d 8fb9 7d3d 15de a43d
00000340: 3f1c ed3b e4f2 783c 4ebb ad3d dfe8 91bc
00000350: 65a4 7bbc b596 fc3d fb47 363c cc33 c2bc
00000360: bfd3 5b3c 78f4 90bc a74c 0fbd eaa4 923b
00000370: ef4c 9cbc 96fd c1bc 53ef 173c a2ea ae3b
00000380: 5b31 cc3b a3d9 ba3c d26b 923a c633 3d3b
00000390: 5ab6 a13b 2779 43bc 3a24 42bb 3b15 0a3b
000003a0: a56e 423b 17d3 633c 6476 1c3d a7dd 083d
000003b0: f27a 463d e15a a43c a0ae 503c 1865 f83c
000003c0: e39f 4a3c 051f 873c ffd1 0c3d 8063 533d
000003d0: 9bf9 903c 40d8 ddbc 2889 bc3b fe74 0fbd
000003e0: 7bee dabd 124b 883d 71bd a43c 53f5 2bbd
000003f0: 5b45 353d 3131 363c 5edd 27bd 6144 62bd

down2.down_block3d.1.double_conv3d.0.bias f4 [16]
0.000320639 0.0001245537 -0.00015771406 -8.1564314e-05 -0.00021427868 -6.247508e-05 -1.7932254e-05 0.00023834384
0.000102559876 -0.00019057913 -0.00026288777 -0.00010596034 9.107635e-05 -1.5356378e-05 4.1091516e-05 2.4286635e-05
00000000: 701b a839 a19a 0239 0c60 25b9 820d abb8
00000010: ffaf 60b9 0e05 83b8 396d 96b7 f0eb 7939
00000020: 6a15 d738 32d6 47b9 33d4 89b9 0637 deb8
00000030: 3e00 bf38 92d1 80b7 ae59 2c38 27bb cb37

down2.down_block3d.1.double_conv3d.3.weight f4 [16, 16, 3, 3, 3]
-0.011956683 -0.007625405 0.003326039 -0.0124151325 -0.0072491537 0.0041218754 -0.009282264 0.0007249891
0.006750555 -0.012693102 -0.012957871 0.014823088 -0.00462401 -0.019525718 -0.0051383525 0.015883889
-0.0039944313 -0.008854725 0.002661995 0.0069180494 0.018862346 -0.006320214 -0.005788076 0.021722829
0.002933986 0.0012446282 0.021744931 -0.029184222 -0.012988566 -0.02118982 -0.031493336 -0.018817808
-0.011766928 -0.01642134 -0.009597517 0.00245129 -0.04702504 -0.03129946 -0.038756706 -0.04459091
-0.03914891 -0.05170419 -0.04292827 -0.051898926 -0.050085425 -0.040890567 -0.035804138 -0.025630878
-0.04581377 -0.032426592 -0.026083946 -0.035431307 -0.01995456 -0.013081797 0.00042713716 -0.0007610067
0.0036262113 0.013112616 0.011699996 0.015473217 0.023625271 0.021257754 0.026008574 -0.018848442
-0.018742377 -0.022455996 -0.005379698 -0.009112789 -0.020706808 0.0024196666 -0.00748901 -0.01630389
-0.01460258 -0.014259676 -0.024473084 -0.0034377761 -0.014222285 -0.023401402 -0.0018757279 -0.017584436
-0.0217662 -0.019660745 -0.012708955 -0.020772295 -0.02886791 -0.01456429 -0.018048 -0.025717726
-0.016131451 -0.0058043334 -0.0387725 -0.03908902 -0.042890057 -0.029731944 -0.010283405 -0.033820108
-0.05472051 -0.034573767 -0.033351056 -0.02042057 -0.022441996 -0.018119367 -0.032315332 -0.022295797
-0.022499235 -0.035726488 -0.020177966 -0.015808208 -0.0290977 -0.039517257 -0.04661658 -0.054858435
-0.0026328356 -0.027473664 -0.06790456 -0.02691366 -0.02344618 -0.017217243 -0.05743121 -0.04653423
0.017240606 -0.015538338 -0.033686116 -0.0088409 -0.023082646 -0.057648394 -0.044094034 -0.027642917
0.0043926225 0.0014279606 -0.0016852953 -0.008381287 0.004614077 -0.0117476145 -0.03784906 -0.025430972
-0.013770508 -0.020937465 -0.04615216 -0.021316512 -0.011739492 -0.038408604 -0.01485908 0.015617973
-0.03982907 -0.024990411 -0.019508053 -0.022249302 -0.0003762213 -0.015842445 -0.026508354 0.0026729177
0.0060379235 -0.028393881 -0.014262936 -0.0056570387 -0.030339194 -0.024515519 -0.016220214 -0.019710425
-0.008753199 -0.0040040435 0.002461546 0.014185478 0.026758578 0.013033991 0.011996862 0.033907905
0.03483576 0.015758589 0.038944747 0.027545976 0.050921097 0.078702256 -0.0028024071 -0.0072757425
0.06921198 0.030339273 -0.011024376 0.025052926 -0.025993787 -0.029712318 -0.0027314823 -0.017943416
-0.007117548 0.02928469 0.028189525 0.018968727 0.036711175 -0.051949967 0.0386295 0.07948557
-0.08952 -0.07748584 0.016265498 0.012404038 -0.0700984 -0.05046515 -0.030179914 0.0399541
0.04524651 -0.15640764 -0.03290752 0.04932925 -0.11765476 -0.105480075 0.0037546349 0.066588394
0.045378454 -0.040953886 -0.040764615 0.0029250712 -0.01826018 -0.06587511 0.006150729 0.03194861
-0.0025686398 0.0037203464 0.0038986036 -0.012632914 -0.017305942 -0.003004636 -0.01746247 -0.018518453
-0.0012294175 0.003659135 0.0075884964 0.041760083 0.0021398982 -0.034727138 -0.014207123 0.036178607
-0.012459697 -0.022125747 0.0044384967 -0.0033561038 -0.014433376 0.028095758 0.01315934 0.0014846071
0.043521162 0.02130108 -0.013475226 0.0060063326 -0.008855706 -0.012083879 -0.00020137295 -0.010220365
-0.023575524 -0.02030043 -0.025585609 -0.031875122 0.025074067 0.02821277 0.023086926 0.01589887
00000000: f7e5 43bc 89de f9bb adf9 593b d768 4bbc
00000010: 4f8a edbb cc10 873b a314 18bc 320d 3e3a
00000020: c233 dd3b baf6 4fbc 404d 54bc 8adc 723c
00000030: 0285 97bb 66f4 9fbc a05f a8bb ee1e 823c
00000040: b8e3 82bb 6913 11bc dd74 2e3b ceb0 e23b
00000050: 3585 9a3c cc19 cfbb e7a9 bdbb 13f4 b13c
00000060: 1e48 403b cb22 a33a 6d22 b23c c013 efbc
00000070: ffcd 54bc 4696 adbc 28ff 00bd ce27 9abc
00000080: 13ca 40bc 0c86 86bc e73e 1dbc d2a5 203b
00000090: 549d 40bd dd33 00bd 5abf 1ebd f5a4 36bd
000000a0: 9c5a 20bd c6c7 53bd 8ed5 2fbd f893 54bd
000000b0: 6026 4dbd de7c 27bd 5ca7 12bd d9f7 d1bc
000000c0: 38a7 3bbd bfd1 04bd 00ae d5bc 6b20 11bd
000000d0: bf77 a3bc 0955 56bc 61f1 df39 4c7e 47ba
000000e0: bba5 6d3b 4cd6 563c 57b1 3f3c 6083 7d3c
000000f0: c989 c13c be24 ae3c ef0f d53c 0c68 9abc
00000100: 9d89 99bc a3f5 b7bc 2d48 b0bb cf4d 15bc
00000110: 53a1 a9bc 4593 1e3b 5f66 f5bb bc8f 85bc
00000120: a93f 6fbc 6ba1 69bc c77b c8bc 504c 61bb
00000130: 9604 69bc 4cb4 bfbc fcda f5ba 3c0d 90bc
00000140: 084f b2bc 920f a1bc 3939 50bc a92a aabc
00000150: 657c ecbc 0f9f 6ebc 66d9 93bc fbad d2bc
00000160: 1b26 84bc 4732 bebb eacf 1ebd cf1b 20bd
00000170: 7cad 2fbd 6890 f3bc ba7b 28bc f486 0abd
00000180: 9d22 60bd 399d 0dbd 1e9b 08bd 0a49 a7bc
00000190: 47d8 b7bc 116f 94bc 155d 04bd ada5 b6bc
000001a0: 5150 b8bc f055 12bd 434c a5bc 3780 81bc
000001b0: 4d5e eebc d9dc 21bd 07f1 3ebd 3db3 60bd
000001c0: a78b 2cbb 7310 e1bc 8c11 8bbd 097a dcbc
000001d0: 3412 c0bc 2d0b 8dbc fd3c 6bbd ad9a 3ebd
000001e0: 2c3c 8d3c 8394 7ebc 74fa 09bd 6cd9 10bc
000001f0: d117 bdbc b920 6cbd f29b 34bd 6673 e2bc
00000200: fdef 8f3b 682a bb3a 20e5 dcba aa51 09bc
00000210: af31 973b 1179 40bc 9e07 1bbd 9d54 d0bc
00000220: b29d 61bc 0c85 abbc 0c0a 3dbd f79f aebc
00000230: 0057 40bc 5752 1dbd 8073 73bc 87e2 7f3c
00000240: cf23 23bd b1b8 ccbc 5acf 9fbc 2b44 b6bc
00000250: 913f c5b9 04c8 81bc 0c28 d9bc 1e2c 2f3b
00000260: c6d9 c53b 499a e8bc 17af 69bc ae5e b9bb
00000270: e789 f8bc c5d4 c8bc 41e0 84bc c277 a1bc
00000280: 9469 0fbc 5a34 83bb e451 213b 356a 683c
00000290: ce34 db3c 858c 553c 7c8e 443c 04e3 0a3d
000002a0: f1af 0e3d 2818 813c 8784 1f3d 19a8 e13c
000002b0: a492 503d a62e a13d 97a8 37bb 5a69 eebb
000002c0: 03bf 8d3d 118a f83c 969f 34bc cb3b cd3c
000002d0: ecf0 d4bc 3f67 f3bc ab02 33bb 12fe 92bc
000002e0: 523a e9bb 72e6 ef3c b8ed e63c 4e64 9b3c
000002f0: 755e 163d 7dc9 54bd f739 1e3d 55c9 a23d
00000300: 4356 b7bd e5b0 9ebd 393f 853c 4e3a 4b3c
00000310: c08f 8fbd 8cb4 4ebd de3b f7bc e9a6 233d
00000320: 6854 393d 5329 20be 09ca 06bd 780d 4a3d
00000330: fbf4 f0bd f005 d8bd 5210 763b 7f5f 883d
00000340: c2de 393d 43bf 27bd ccf8 26bd 8db2 3f3b
00000350: 5f96 95bc 88e9 86bd 0e8c c93b 8cdc 023d
00000360: a056 28bb 0ed1 733b b77f 7f3b 48fa 4ebc
00000370: 31c5 8dbc 6de9 44bb 740d 8fbc 03b4 97bc
00000380: 6824 a1ba 19ce 6f3b eca8 f83b 9f0c 2b3d
00000390: 893d 0c3b 0b3e 0ebd fec4 68bc 0530 143d
000003a0: c223 4cbc 0e41 b5bc cf70 913b 14f2 5bbb
000003b0: f779 6cbc 1329 e63c 469a 573c 2697 c23a
000003c0: 3f43 323d 9a7f ae3c 32c7 5cbc c5d0 c43b
000003d0: 8617 11bc 76fb 45bc a427 53b9 5173 27bc
000003e0: 7521 c1bc 164d a6bc e998 d1bc 7d8f 02bd
000003f0: 2168 cd3c 781e e73c cb20 bd3c 593e 823c

down2.down_block3d.1.double_conv3d.3.bias f4 [16]
0.0005491415 -0.00070668093 7.497425e-06 0.00012685926 0.00023644902 3.7554724e-05 -4.319255e-05 -6.0031958e-05
-0.00022714815 -0.00014303121 4.206753e-05 -2.4227977e-05 -0.00027026254 -3.0130988e-05 -3.0716747e-05 3.2083168e-05
00000000: 43f4 0f3a 8e40 39ba 6492 fb36 8605 0539
00000010: 4def 7739 1484 1d38 a629 35b8 d3ca 7bb8
00000020: 9e2e 6eb9 a6fa 15b9 ab71 3038 2f3d cbb7
00000030: 06b2 8db9 cec1 fcb7 dbd5 00b8 0a91 0638

down2.down_block3d.1.shortcut.weight f4 [16, 8, 1, 1, 1]
-0.05302769 -0.1805636 -0.10039461 -0.1294439 -0.010527085 -0.09728482 -0.176316 -0.14206387
-0.0751796 -0.07233321 -0.099493176 -0.13036041 0.10336374 -0.1846797 -0.063285984 -0.12569489
-0.3820778 0.079415575 0.10704319 -0.0133561585 -0.12694134 -0.13295324 0.053359304 -0.069899105
-0.086974874 -0.087356985 -0.1485426 -0.076522745 -0.12356413 -0.16173013 -0.11460696 -0.08667834
-0.15192533 -0.19908285 -0.28086194 -0.23090653 -0.24011582 -0.35139376 -0.18800656 -0.1703358
0.048151407 0.12725896 0.1939973 0.029761018 0.05839112 0.031916067 0.15493804 0.07015721
-0.06723378 -0.19902407 -0.16140915 -0.19442502 -0.119841516 -0.18025862 -0.23650591 -0.20536155
-0.3291737 0.023692774 0.041198317 -0.055376843 -0.08733487 -0.34100342 0.019272517 -0.0239962
-0.1414422 0.16647519 0.19727077 -0.15349543 -0.14825805 0.19671561 0.11479295 -0.20319834
-0.20588866 -0.12536845 -0.20898555 -0.1509989 -0.21841595 -0.14206178 -0.14019388 -0.10456618
-0.13856196 -0.08233459 -0.053013522 -0.11968285 -0.098178886 -0.25026852 -0.06208506 -0.12781791
-0.05475472 -0.010861905 -0.18347928 -0.08142972 0.104019016 -0.14209361 -0.031997234 -0.12951545
-0.37912002 -0.20650767 -0.109673955 -0.26175612 -0.32021236 -0.1807195 -0.20535973 -0.17577767
-0.25111902 -0.04651475 -0.08306517 -0.1298866 0.1865427 -0.2055211 -0.061383333 -0.110824436
0.13246068 0.18930186 0.32013637 0.13680927 0.29476961 0.11870313 0.31965694 0.105669655
-0.2358697 -0.010701624 -0.10713799 -0.123641685 -0.11008345 -0.09875477 -0.05391518 -0.18300584
00000000: 9033 59bd aae5 38be b09b cdbd f18c 04be
00000010: cb79 2cbc 443d c7bd 2e8c 34be 3179 11be
00000020: c3f7 99bd 6f23 94bd 14c3 cbbd 337d 05be
00000030: 5eb0 d33d ad1c 3dbe 159c 81bd 29b6 00be
00000040: b49f c3be a2a4 a23d 7639 db3d cad3 5abc
00000050: e9fc 01be e524 08be 498f 5a3d 4327 8fbd
00000060: e21f b2bd 38e8 b2bd 8d1b 18be f5b7 9cbd
00000070: 310f fdbd 959c 25be 0eb7 eabd 6a84 b1bd
00000080: 5092 1bbe 60dc 4bbe 23cd 8fbe c372 6cbe
00000090: ece0 75be e2e9 b3be cb84 40be 826c 2ebe
000000a0: 693a 453d 2c50 023e 3aa7 463e 61cd f33c
000000b0: 872b 6f3d 6cba 023d 14a8 1e3e 95ae 8f3d
000000c0: ddb1 89bd f7cc 4bbe 7148 25be 5a17 47be
000000d0: 786f f5bd b795 38be 9b2e 72be 4c4a 52be
000000e0: 7589 a8be 5917 c23c 91bf 283d d4d2 62bd
000000f0: a0dc b2bd 0098 aebe 66e1 9d3c ae93 c4bc
00000100: 39d6 10be 7978 2a3e 5901 4a3e e82d 1dbe
00000110: f5d0 17be d16f 493e 9118 eb3d 3a13 50be
00000120: 7ad4 52be 9660 00be 4f00 56be 759f 1abe
00000130: 6ea8 5fbe a578 11be fc8e 0fbe cb26 d6bd
00000140: 30e3 0dbe 0a9f a8bd b524 59bd 481c f5bd
00000150: 0312 c9bd 3223 80be e74c 7ebd b3e2 02be
00000160: 7c46 60bd 22f6 31bc fee1 3bbe a0c4 a6bd
00000170: ec07 d53d fd80 11be 880f 03bd b39f 04be
00000180: 051c c2be bf76 53be bd9c e0bd e604 86be
00000190: e0f2 a3be 880e 39be d249 52be 10ff 33be
000001a0: ac92 80be 4086 3ebd 121e aabd fe00 05be
000001b0: 0d05 3f3e 2074 52be 176d 7bbd ecf7 e2bd
000001c0: c6a3 073e 59d8 413e eae8 a33e bb17 0c3e
000001d0: 0bec 963e a01a f33d 13aa a33e 5569 d83d
000001e0: d487 71be dd55 2fbc 2a6b dbbd da37 fdbd
000001f0: 6f73 e1bd f13f cabd 2ad6 5cbd e265 3bbe

down2.down_block3d.1.shortcut.bias f4 [16]
-0.0795151 -0.10829727 -0.08931609 -0.13822994 -0.15059847 0.16751178 -0.16732793 0.035130907
-0.024834815 -0.0965156 0.035353586 -0.06433423 -0.015083943 -0.16084823 0.45159566 -0.031906918
00000000: d0d8 a2bd f6ca ddbd 5beb b6bd 268c 0dbe
00000010: 7c36 1abe 3588 2b3e 0358 2bbe 6de5 0f3d
00000020: 6272 cbbc f9a9 c5bd ecce 103d aac1 83bd
00000030: a422 77bc 66b5 24be 8c37 e73e d4b0 02bd

down3.down_block3d.1.double_conv3d.0.weight f4 [32, 16, 3, 3, 3]
-0.0036129355 0.01235409 0.010438902 0.010489669 -0.0070709414 -0.017107653 0.005408587 -0.016016774
-0.033585384 -0.026320215 0.0034455738 0.007268903 -0.0022040932 -0.0058741276 -0.007837766 -0.011317259
-0.011274795 -0.02230431 -0.024424447 -0.0062138312 0.0015441846 -0.03003625 -0.025164125 -0.016854066
-0.022216814 -0.023695406 -0.017806062 0.012109441 -0.0042694565 -7.8129015e-06 -0.0017359557 -0.031487312
-0.024954401 0.00413304 -0.03882267 -0.027368562 0.021746797 0.019262277 0.035943627 0.017837357
0.0026048918 0.014519567 0.047460165 0.00044498558 -0.0013103186 0.035831362 0.035958596 0.04613766
0.037124462 0.023250347 0.029586822 0.080936626 0.04435705 0.034861162 0.064852834 0.058749642
0.07112285 0.030656092 0.040857334 0.062446807 0.029365148 0.039533276 0.077904835 0.040103737
0.05771513 0.105943695 -0.008874948 0.023570843 0.08491472 0.010543554 0.036008045 0.097573586
0.05403451 0.0664264 0.09238872 -0.017465563 0.0031380365 0.052595686 -0.020027736 0.012993491
0.07131882 0.033973005 -0.00039212103 -0.011698125 0.030013956 -0.022565784 -0.03781183 -0.0077386075
-0.047039516 -0.06674233 0.032359336 -0.017192854 -0.026085898 0.017586622 -0.044750426 -0.05813477
-0.025662692 -0.071210735 -0.09694633 0.060636617 0.037409026 0.024485067 0.03585121 0.0040386114
-0.014915504 -0.0021807163 -0.04907315 -0.06954521 -0.0022485165 -0.014097239 -0.025587603 0.010350203
0.001842448 -0.022358125 -0.014204908 -0.022174308 -0.0522908 -0.022403186 -0.044053487 -0.04543126
-0.01585491 -0.028489823 -0.040055864 -0.027871098 -0.047374204 -0.07248883 -0.016121509 -0.015165695
-0.011180763 -0.013615652 -0.011989157 -0.020862827 -0.022897882 -0.03454849 -0.05974111 -0.003644017
-0.019219792 -0.036903612 0.016546471 0.019361334 0.00448608 0.019079614 0.014937477 -0.0013725988
-0.003414345 -0.0142744845 -0.019404637 0.0060273125 0.0017309465 0.0057460642 0.015091443 0.004375466
-0.00022312414 -0.0265432 -0.024642859 -0.01594442 -0.019109871 -0.02150148 -0.0063283565 -0.021588476
-0.026274512 -0.015747914 0.03188997 0.038034488 0.030041046 0.035126213 0.028921347 0.027561443
0.01839511 0.014616796 0.014090583 0.015939822 0.023357473 0.009187224 0.0059722518 0.008326105
0.010654335 -0.023031054 -0.00039152885 0.004884649 -0.003948169 -0.0050429665 -0.012199844 -0.016472783
-0.014522061 -0.014965013 -0.027016398 -0.02361766 -0.013010956 0.04186153 0.042763945 0.032646444
0.04259033 0.029726021 0.024660053 0.031075446 0.017613364 0.015216719 0.008244681 0.0017643849
0.011102508 0.020431533 0.008229698 0.01782303 0.039338812 0.025278835 0.033504877 -0.010975608
-0.010375348 0.0054241004 0.0022519538 -0.0036565524 0.008065401 0.01374613 0.0147028705 0.026641173
0.051955514 0.015013885 -0.0020950797 0.029436983 0.0006757232 -0.0077102287 0.0018349794 -0.0059436928
-0.0055588805 0.06320527 0.015041491 0.012089856 0.01609742 -0.019054595 -0.013669146 -0.05170087
-0.059383716 -0.039132856 0.061712023 0.025820024 0.035757232 -0.0065275594 -0.02175439 8.440912e-05
-0.07929989 -0.06871906 -0.035178225 0.031877566 0.027543245 0.019543994 0.03769342 0.00842666
-0.0030174002 0.01015756 -0.00093167875 -0.011025473 0.003130445 0.0029700487 0.0007119876 7.86101e-05
00000000: 00c7 6cbb cf68 4a3c ee07 2b3c dcdc 2b3c
00000010: 5bb3 e7bb 5925 8cbc 843a b13b 9c35 83bc
00000020: d490 09bd 7e9d d7bc 23cf 613b fa2f ee3b
00000030: 8c72 10bb c17b c0bb f969 00bc 066c 39bc
00000040: ebb9 38bc 87b7 b6bc c715 c8bc 659d cbbb
00000050: 3d66 ca3a 950e f6bc ff24 cebc 8a11 8abc
00000060: 0900 b6bc de1c c2bc 05de 91bc ad66 463c
00000070: cce6 8bbb 2814 03b7 0289 e3ba d7f8 00bd
00000080: 2c6d ccbc 746e 873b 8504 1fbd 0934 e0bc
00000090: 5726 b23c eccb 9d3c a039 133d a61f 923c
000000a0: d5b6 2a3b 7ae3 6d3c 9765 423d f44c e939
000000b0: ffbe abba e8c3 123d 5249 133d d8fa 3c3d
000000c0: d20f 183d 8377 be3c 1060 f23c 1ac2 a53d
000000d0: bdaf 353d 94ca 0e3d 90d1 843d 77a3 703d
000000e0: dba8 913d 7c22 fb3c 055a 273d 39c8 7f3d
000000f0: 2e8f f03c a5ed 213d 928c 9f3d d143 243d
00000100: b366 6c3d 02f9 d83d 3b68 11bc a417 c13c
00000110: c5e7 ad3d dfbe 2c3c 2c7d 133d a9d4 c73d
00000120: 4a53 5d3d 900a 883d 4c36 bd3d f113 8fbc
00000130: 84a7 4d3b 936e 573d 3511 a4bc a7e2 543c
00000140: 9a0f 923d 4727 0b3d 9895 cdb9 7ea9 3fbc
00000150: d4df f53c e1db b8bc 94e0 1abd 2594 fdbb
00000160: 82ac 40bd 34b0 88bd 398b 043d 07d8 8cbc
00000170: 18b2 d5bc d211 903c 394c 37bd b91e 6ebd
00000180: 913a d2bc efd6 91bd cc8b c6bd 1a5e 783d
00000190: 353a 193d e894 c83c b8d8 123d 5456 843b
000001a0: 2860 74bc 59ea 0ebb ed00 49bd b86d 8ebd
000001b0: d95b 13bb 1bf8 66bc 189d d1bc e693 293c
000001c0: 4c7e f13a 6328 b7bc b4bb 68bc e5a6 b5bc
000001d0: e12e 56bd e386 b7bc 6e71 34bd 2116 3abd
000001e0: 28e2 81bc 7d63 e9bc 9e11 24bd ee51 e4bc
000001f0: 740b 42bd 0675 94bd 4111 84bc 8979 78bc
00000200: 852f 37bc 2f14 5fbc 2b6e 44bc 85e8 aabc
00000210: 5794 bbbc b882 0dbd 18b3 74bd 76d0 6ebb
00000220: d372 9dbc 3e28 17bd 778c 873c a99b 9e3c
00000230: f7ff 923b da4c 9c3c 52bc 743c c6e8 b3ba
00000240: 34c3 5fbb 87df 69bc 79f6 9ebc c380 c53b
00000250: ede0 e23a 7b49 bc3b 1a42 773c 1260 8f3b
00000260: 6ef6 69b9 2071 d9bc d2df c9bc df9d 82bc
00000270: 4e8c 9cbc df23 b0bc 1a5e cfbb 51da b0bc
00000280: a53d d7bc c501 81bc 0f9f 023d 0dca 1b3d
00000290: a418 f63c 81e0 0f3d 76ec ec3c 89c8 e13c
000002a0: 57b1 963c 497b 6f3c 30dc 663c 3b94 823c
000002b0: 2c58 bf3c 0386 163c e1b2 c33b 376a 083c
000002c0: 858f 2e3c 9fab bcbc 1d46 cdb9 680f a03b
000002d0: a45f 81bb 783f a5bb dbe1 47bc eef1 86bc
000002e0: f0ed 6dbc d02f 75bc 7e51 ddbc d379 c1bc
000002f0: e82b 55bc ff76 2b3d 3f29 2f3d 47b8 053d
00000300: 3373 2e3d fc83 f33c e103 ca3c ef91 fe3c
00000310: e749 903c 8c4f 793c b314 073c ef42 e73a
00000320: 4be7 353c 0860 a73c dbd5 063c 9a01 923c
00000330: bc21 213d 8f15 cf3c 693c 093d 09d3 33bc
00000340: 5dfd 29bc a7bc b13b 8495 133b c5a2 6fbb
00000350: be24 043c 7337 613c 4fe4 703c 973e da3c
00000360: 4ecf 543d ccfc 753c 9b4d 09bb d425 f13c
00000370: 0423 313a 16a6 fcbb b183 f03a 4fc3 c2bb
00000380: 4527 b6bb c471 813d 9670 763c 8814 463c
00000390: bdde 833c 6218 9cbc 8ef4 5fbc 4bc4 53bd
000003a0: 573c 73bd c649 20bd bfc5 7c3d 8484 d33c
000003b0: 2d76 123d 23e5 d5bb 4336 b2bc cd04 b138
000003c0: fb67 a2bd 94bc 8cbd 0b17 10bd 0d92 023d
000003d0: 5fa2 e13c ba1a a03c 6a64 1a3d f90f 0a3c
000003e0: 93bf 45bb e56b 263c e73b 74ba 2fa4 34bc
000003f0: 2728 4d3b 26a5 423b aea4 3a3a 7adb a438
