simple_3dunet/checkpoints/test/backup/0.004-300/best_model-0.6905.pth (torch, 375503 bytes, 49 tensors)

input.double_conv3d.0.weight f4 [4, 2, 3, 3, 3]
00000000: 68df f1bd 26eb 65bd 2640 143c dc20 8abd
00000010: d47f c0bc d59d bc3c 12ae 65bd b936 25bc
00000020: 9f6d 2b3d d240 1fbe fcae a8bd 50da 31bc
00000030: 99f7 fabd 36c6 9abc 0b8b 243d a62e bfbd
00000040: 628c 913c 1ac4 933d 0a2f efbd 7fb7 19bd
00000050: 89a3 873b 5951 a8bd aa83 f83c 3527 823d
00000060: cc0b 85bd 4892 293d fc23 673d 24a1 f6bd
00000070: 13da 64bd 643b 06bb 840a 94bd e9fe 983b
00000080: f6b1 c63c ea57 55bd 4f0f d9bb 32a7 803d
00000090: 4f3a 16be 0100 8fbd 4482 d1bb 2a27 dbbd
000000a0: 2881 76bc e83f d53c 402b 87bd 6c66 a8bb
000000b0: 3dd2 193d ada6 f3bd 3b41 24bd 44a9 013d
000000c0: 2bf1 82bd 8ae8 b83b 4239 803d 30b9 64bd
000000d0: baed 013d 2bcd ae3d 7eb8 ddbd f7f0 28bd
000000e0: 0b3c f13c c78a c6bd d1a2 e6bc 67a0 653d
000000f0: fad5 9bbd 65be 1d3c 20dd 983d 22c7 20be
00000100: e05c 91bd 79bb 373c ff7b 0cbe 46d5 36bd
00000110: e296 3c3d c520 cabd c8b0 bdb8 7ec8 8f3d
00000120: f506 10be 3c2d 47bd d695 fe3c 45a5 00be
00000130: 112b aebc 022c 823d f7f8 b4bd 42e7 a63c
00000140: 3cab b53d 75af ddbd ddf4 28bd bef7 f03c
00000150: 1b8a c6bd dfa7 e6bc 9290 653d c4d5 9bbd
00000160: 5e1d 1e3c efc9 983d 09c7 20be 2463 91bd
00000170: c4c8 373c 687c 0cbe ccd1 36bd e195 3c3d
00000180: c920 cabd 228e b4b8 d8cd 8f3d d306 10be
00000190: 0d35 47bd e5e0 fd3c 7399 00be a134 aebc
000001a0: 6c73 823d db4e b5bd 832e a73c 1baf b53d
000001b0: 9230 28bd 7af1 a7bc 4364 b33c 3598 33bd
000001c0: 1c24 dc3b a057 313d 2f19 f7bc 136d 413c
000001d0: 4a08 723d 0e75 b8bd 991a 8fbd f63a 98bc
000001e0: 66ba d0bd 2a5f 1fbd 340a e63b 3ed1 b0bd
000001f0: 6459 f5bc 0e3d c43c 96e2 9bbd 90d5 57bd
00000200: 3ab3 5bbc 8e46 aabd 7790 e6bc 7dd3 9d3b
00000210: c913 96bd be65 dbbc d4ea 9e3c 05b7 28bd
00000220: fbe1 a5bc a6d4 b23c 364c 35bd 92a6 0c3c
00000230: a54b 2e3d fc4d f1bc 3e60 4f3c b362 6c3d
00000240: 7daf b8bd 17ad 8ebd b1cd 98bc 0a8b d0bd
00000250: 3bbf 26bd fe5a e33b 0fef b0bd 3371 e4bc
00000260: 644e c43c 34b0 9fbd 53e9 52bd 1228 69bc
00000270: df96 aabd 4bac e5bc 8c1a c43b 7e67 9abd
00000280: 46eb eabc 282e 913c 97c7 cabd d0c6 a13c
00000290: 97e4 2ebe 88cf 9f3d c53d 3e3e 7725 a9bc
000002a0: 729f 9ebc ba59 363d 43f7 14be 13ee 693b
000002b0: 05a6 f93d aadd f2bd f80d 913e 5a7c c23e
000002c0: de9e fc3d b8ec 743e 87d2 953e c738 593d
000002d0: a13b 0dbe 36ae b1bd b5c4 7bbe ce77 1a3d
000002e0: 640f a83d 74c0 75bd c66a 943c 1251 173d
000002f0: ef29 f1bd c9ee d2bd f67e c13c 123e 35be
00000300: aa7a 943d ff00 383e 458c c1bc 29c7 0fbc
00000310: a6af 293d 8978 0fbe b45d 65bc 3627 ec3d
00000320: d3a7 00be b552 8a3e 06d5 c33e dcce f43d
00000330: 9943 753e 7aa5 933e 04cb 113d 31f0 23be
00000340: 2750 a4bd 5d4b 73be 0d67 1a3d 3e1f a73d
00000350: ab84 9abd 3cb6 623c 0864 373d 0adf e5bd
-0.118101895 -0.05613246 0.009048497 -0.06744549 -0.023498453 0.023024479 -0.05607421 -0.010083848
0.04185259 -0.1555207 -0.082365006 -0.010855272 -0.12254257 -0.018893342 0.040171664 -0.09335069
0.017767135 0.07215138 -0.11678894 -0.03752851 0.004139368 -0.08218641 0.03033622 0.063551344
-0.06496391 0.04139927 0.0564308 -0.12042454 -0.055872034 -0.0020482177 -0.07228568 0.0046690595
0.02425478 -0.052085795 -0.0066241394 0.0628189 -0.1467068 -0.069824226 -0.0063937027 -0.10700829
-0.015045442 0.02603145 -0.06600046 -0.0051391628 0.037554014 -0.11897025 -0.04010127 0.031655565
-0.063936554 0.005642955 0.06260921 -0.05584067 0.031720854 0.085352264 -0.10826205 -0.041245427
0.029447576 -0.096944384 -0.028153809 0.056061175 -0.07609172 0.009627913 0.07464051 -0.15700963
-0.070977926 0.011214131 -0.13719176 -0.044636987 0.04604233 -0.098695315 -9.0451504e-05 0.07020663
-0.14065154 -0.048627123 0.031077307 -0.12563045 -0.02126077 0.0635605 -0.08836549 0.020373944
0.08870551 -0.108244814 -0.041249145 0.029415008 -0.0969431 -0.028156219 0.056046076 -0.07609132
0.009650556 0.07460391 -0.15700926 -0.07098988 0.0112173 -0.13719332 -0.04463367 0.046041373
-0.098695345 -8.609543e-05 0.070216835 -0.14065103 -0.048634578 0.030991027 -0.12558536 -0.02126533
0.06369671 -0.08852931 0.02040792 0.08871289 -0.041061945 -0.020500887 0.021898394 -0.043846328
0.0067181718 0.043296456 -0.030163376 0.0118057905 0.059089936 -0.090067014 -0.06987495 -0.018582802
-0.10191803 -0.038909115 0.0070202593 -0.0863366 -0.029949851 0.023954894 -0.07611577 -0.052693903
-0.01340943 -0.083142385 -0.028145058 0.004816471 -0.073279925 -0.026781913 0.019399084 -0.041190166
-0.020249357 0.021829914 -0.044262134 0.008584635 0.04255261 -0.029456131 0.012657223 0.057711314
-0.09017847 -0.06966608 -0.018652769 -0.101827696 -0.040709715 0.0069383373 -0.08639347 -0.027886009
0.02396316 -0.0779728 -0.051492047 -0.014230745 -0.083295576 -0.028036257 0.00598461 -0.07539271
-0.02867664 0.017722204 -0.0990135 0.019748122 -0.17079388 0.07803255 0.1857825 -0.020647747
-0.019363139 0.044519164 -0.14547448 0.0035694882 0.12189869 -0.11858685 0.2833097 0.37985498
0.12334989 0.23918426 0.29262182 0.053032663 -0.13792278 -0.08675806 -0.24586757 0.03771191
0.082060605 -0.05999799 0.01811732 0.03694255 -0.11775576 -0.10299451 0.02362011 -0.17699459
0.07249959 0.1796913 -0.023626456 -0.008775511 0.041427277 -0.14010824 -0.013999391 0.115309164
-0.1256402 0.27016225 0.3824846 0.11953518 0.23951568 0.28837186 0.035594 -0.16009595
-0.080231 -0.23759218 0.037695933 0.08160256 -0.07544836 0.013837393 0.04477313 -0.11224182

input.double_conv3d.0.bias f4 [4]
00000000: 7021 4737 b49f 98b6 bfc2 85b6 b8de 3038
1.186911e-05 -4.548545e-06 -3.9863803e-06 4.2169093e-05

input.double_conv3d.3.weight f4 [4, 4, 3, 3, 3]
00000000: e4f3 cdbd feef b1bd 2ef6 95bd d0a5 a2bd
00000010: 0484 8ebd 3c19 7fbd 077f 86bd 0b05 83bd
00000020: 1310 4fbd 2939 cfbd 2370 abbd 4878 98bd
00000030: a7b4 a2bd bab4 8fbd 6411 83bd 3695 90bd
00000040: 1ab8 83bd efc2 5bbd c1fc babd 00ec 99bd
00000050: a507 82bd 8a22 92bd d441 71bd c67b 52bd
00000060: 40ec 6fbd 90c7 51bd 15ab 36bd 26c5 d3bd
00000070: c096 b2bd fcaf 9fbd 2563 aebd 055c 97bd
00000080: 1b48 8bbd 3415 98bd 3de8 8ebd 86dc 73bd
00000090: aca5 e8bd 2a40 c6bd ce07 b1bd 96bc c5bd
000000a0: de80 acbd 5d49 9ebd 53df adbd 2c5e a4bd
000000b0: 9879 90bd 8238 e6bd ecc2 c3bd 3588 adbd
000000c0: ec4e c2bd 95fa a8bd f38a 9abd 0dfa abbd
000000d0: 9d0f a2bd 5676 8dbd 4cc5 c7bd eab0 adbd
000000e0: f0b5 9fbd dce3 a9bd 7b48 96bd b1cc 88bd
000000f0: 0153 97bd 6571 8cbd 82a1 5ebd 6a2c dabd
00000100: 3967 bbbd aba4 acbd 3968 b9bd 9744 a4bd
00000110: 33dd 96bd 987f a8bd ea69 9cbd 741e 83bd
00000120: 280d d4bd 19a6 b5bd b3cc a7bd 9f57 b5bd
00000130: ba55 a0bd a55b 92bd 0797 a6bd 3459 98bd
00000140: 0345 7dbd 8204 9e3b 1d90 9a3c b933 263d
00000150: 11c5 71bc 7a30 45bb e2b6 c73c 103b 0dbd
00000160: 615b 24bc 4070 b23c 7350 3bbb b0f4 0b3c
00000170: 4685 ef3c d6c5 11bd d592 e1bc 79d2 b2bb
00000180: 0de9 34bd 3a69 e9bc c335 68ba b5f5 a1bd
00000190: ecf7 95bd a6e4 5ebd baf7 dcbd 9645 dbbd
000001a0: 038e b0bd b140 f3bd a38e e2bd ddac b9bd
000001b0: bdd8 e8bd fbb2 08be be2d 11be f40f 92bd
000001c0: fed1 dabd 4033 e9bd c78f d6bc 5395 87bd
000001d0: 18f6 afbd ce0a d6bd 687d 04be f0d0 0ebe
000001e0: e4ae 64bd be7b c7bd ece1 dbbd 55e0 0dbc
000001f0: 933d 56bd eec6 9cbd 0d31 bfbd c274 f0bd
00000200: fba5 03be 5af6 3cbd bc62 b0bd bc57 c3bd
00000210: bf18 1e3a 61ae 2cbd 171c 85bd eb02 d1bd
00000220: 8272 00be 5087 fbbd 428e 50bd 4959 c3bd
00000230: f984 c5bd 973c 9b3b 26da 2bbd 10c2 88bd
00000240: e291 c3bd d943 fabd 5cfe f8bd 8a1f 27bd
00000250: caed b1bd a359 bbbd 4971 753c 939a 04bd
00000260: 82a6 78bd 068c 90bd 8096 c3bd 2e36 c6bd
00000270: 3887 99bc f623 7bbd a7cb 86bd 6173 0f3d
00000280: aedf 2cbc 85a9 11bd aba1 d1bd 0bfc f8bd
00000290: cbc0 febd c935 73bd 9288 bfbd 54fc c3bd
000002a0: 60fc 4abc 7861 50bd 9d09 91bd 44a4 c8bd
000002b0: 3f4e f1bd c591 fabd bc90 56bd 7392 b1bd
000002c0: 6fd7 babd bd41 b6bb d5cf 35bd df55 87bd
000002d0: c25d 69bd 8461 9cbd cf29 acbd 023d 7dbc
000002e0: ec78 38bd 94fd 53bd cb03 ee3c 1344 bcbb
000002f0: fab7 dcbc 3374 00be e1ac d5bd 096e 91bd
00000300: ff35 0bbe 8387 fcbd 9ccd b9bd d983 13be
00000310: dfdd 01be 7797 ccbd 4511 9bbd 4c3c 67bd
00000320: 3f15 eebc 1dc9 b6bd c39a 94bd b014 23bd
00000330: b4cb d0bd a8e3 97bd 3c63 2dbd 1323 10bd
00000340: 9019 87bc 1312 723c 3107 1ebd 40d7 c4bc
00000350: 297e dd3b 0a14 38bd e6d2 8fbc d961 303c
00000360: fb04 c1bc 2341 48bd 87dc 48bd 6c68 d7bc
00000370: 1ef0 55bd e9d0 5abd 2530 f7bb 1e4a 3cbd
00000380: 5faf 4cbd a959 9bbd 1954 ccbd 244f c8bd
00000390: af6e 9abd b892 cdbd 1687 cdbd 8370 61bd
000003a0: 0966 bfbd cb3a c5bd f04e aabc a47e 27bd
000003b0: e731 16bd 1216 adbc 0eb9 28bd 39e9 12bd
000003c0: 4897 57bb a123 1abd 99cc 09bd 81d4 82bd
000003d0: bf14 b4bd d74b babd 6d4c 72bd a0be a9bd
000003e0: 8505 b6bd ad4d 15bd 6696 a5bd b3f0 b7bd
000003f0: a6bb a5bd 8513 d3bd a950 d1bd fa74 9bbd
-0.10056284 -0.08688353 -0.07322346 -0.079417825 -0.06958774 -0.062279925 -0.06567197 -0.06397446
-0.05055244 -0.10118324 -0.08370998 -0.07444817 -0.07944613 -0.07016893 -0.063998014 -0.0705971
-0.06431599 -0.0536527 -0.0913024 -0.075157166 -0.06349114 -0.07135494 -0.05890067 -0.05138757
-0.058574915 -0.05121571 -0.04459675 -0.103403375 -0.087201595 -0.07797238 -0.08515004 -0.07390598
-0.068008624 -0.07425919 -0.0697789 -0.05953648 -0.113597244 -0.09680207 -0.08644067 -0.096551105
-0.08423017 -0.07728837 -0.08489861 -0.08025774 -0.07054442 -0.11241247 -0.09558663 -0.08473245
-0.094877094 -0.0825092 -0.07546034 -0.08397303 -0.07913134 -0.069073364 -0.09754428 -0.08481009
-0.07798374 -0.08295414 -0.07338043 -0.06679667 -0.073888786 -0.06857566 -0.054353245 -0.106530026
-0.091505475 -0.084298454 -0.09053082 -0.08020895 -0.07366409 -0.082274616 -0.07637389 -0.06402293
-0.10354072 -0.08869571 -0.0819334 -0.08854603 -0.07828851 -0.07146386 -0.08134275 -0.07438889
-0.061833393 0.0048223147 0.018867547 0.04057667 -0.014756457 -0.0030088709 0.024379198 -0.034480155
-0.010031552 0.02178204 -0.0028581887 0.008542225 0.029238354 -0.03558906 -0.027535835 -0.005457219
-0.044167567 -0.028492559 -0.0008858109 -0.07908193 -0.07322678 -0.054417275 -0.107894376 -0.10706632
-0.086208366 -0.11877573 -0.11062362 -0.09066174 -0.113694645 -0.13349526 -0.14177606 -0.07131949
-0.10684584 -0.11386728 -0.026191605 -0.06620278 -0.085918605 -0.104512796 -0.12938464 -0.13946891
-0.05583085 -0.09740399 -0.107364506 -0.008659442 -0.052304816 -0.0765513 -0.093355276 -0.1174102
-0.12856285 -0.046133377 -0.08612582 -0.095382184 0.0006030909 -0.04215849 -0.06499498 -0.10205635
-0.12543681 -0.12281668 -0.050916918 -0.09538514 -0.09644503 0.0047374475 -0.04195609 -0.066776395
-0.09549309 -0.12219972 -0.1215789 -0.040801562 -0.08687933 -0.09147956 0.014980623 -0.032373976
-0.06070567 -0.07057957 -0.0955019 -0.09678303 -0.018741235 -0.061313592 -0.06581812 0.035022143
-0.010551376 -0.035562057 -0.10235914 -0.121574484 -0.12439116 -0.059377465 -0.093522206 -0.09569612
-0.012389272 -0.050874203 -0.07081912 -0.09796956 -0.117825024 -0.122348346 -0.052384123 -0.08670511
-0.09123122 -0.005562036 -0.044387657 -0.066081755 -0.05697418 -0.07635787 -0.08406412 -0.01545644
-0.045037195 -0.051755503 0.029054543 -0.0057454198 -0.026943196 -0.12544326 -0.10433365 -0.07101066
-0.13594817 -0.12330534 -0.0907242 -0.14405765 -0.12682293 -0.09989827 -0.07571653 -0.056453988
-0.029062865 -0.08925078 -0.07256081 -0.03981465 -0.10195103 -0.07416469 -0.042330965 -0.0351897
-0.016491681 0.014774817 -0.038581077 -0.02402842 0.006759424 -0.044940986 -0.017556619 0.010765516
-0.023561945 -0.048890244 -0.049038436 -0.02629491 -0.052230947 -0.05342189 -0.007543581 -0.04596912
-0.049971934 -0.07585461 -0.09976978 -0.0978072 -0.075406425 -0.1003775 -0.10035531 -0.05503894
-0.093456335 -0.096303545 -0.020789593 -0.04089226 -0.036668684 -0.021128688 -0.041192107 -0.03586695
-0.0032896567 -0.037631635 -0.033642385 -0.06388188 -0.087930195 -0.090964966 -0.059154917 -0.08288312
-0.088877715 -0.03645103 -0.08085327 -0.089814566 -0.08092432 -0.103064574 -0.10220463 -0.07590671

input.double_conv3d.3.bias f4 [4]
00000000: f6a6 fc37 0b30 80b7 dc47 7637 ee32 3e39
3.0118488e-05 -1.528116e-05 1.4679474e-05 0.00018138785

input.shortcut.weight f4 [4, 2, 1, 1, 1]
00000000: 50c2 243e 9a45 d839 25b6 f03d 4b80 013f
00000010: 41ae 3cbe dbc5 3ebe 5a36 db3e 4ac6 6e3f
0.1608975 0.00041250588 0.11753491 0.50586385 -0.18425848 -0.18630163 0.42814904 0.93271315

input.shortcut.bias f4 [4]
00000000: e3da 843e 3609 78be 513a c33e 63c0 90be
0.25948247 -0.24222264 0.3813043 -0.2827178

down1.down_block3d.1.double_conv3d.0.weight f4 [8, 4, 3, 3, 3]
00000000: cf6c 04be 09e4 fbbd e5dc 02be 7c1d 03be
00000010: d068 ebbd f35f eabd 0a08 19be 422e 01be
00000020: 8612 ecbd 9158 473b 4f44 fc3b 8e75 70bb
00000030: 7f82 da3b 6e4b 643c 0f2f e13b c29f 75bc
00000040: d38a c73a 90a6 893b 9b52 7fbd ca40 7bbd
00000050: 79bd 93bd 9c70 76bd e8fc 6ebd cf65 83bd
00000060: 9cc4 95bd 96e6 85bd 14cd 80bd 1fca 8fbd
00000070: 82db 94bd 0022 82bd 7daa 8ebd 6c59 74bd
00000080: f22f 1bbd d99c 91bd 79a4 67bd 1678 d7bc
00000090: 92de fbbc ce90 a4bc 71bd b53b 0e25 2cbd
000000a0: eb46 ddbb 46ce 083d 8395 4cbd 6acc 9eba
000000b0: 5130 493d 403c c4bc 9809 00bc 27cf 423a
000000c0: 8aa1 a5bc d477 223c 5dae a43c 585c f0bc
000000d0: 288c 323c 0bf8 e53c e3f1 413d 6a93 803c
000000e0: a157 29bd f925 8f3d cd59 8c3d 7179 923c
000000f0: 3591 c63c aade 833d f854 393d 8398 9a3e
00000100: 4f37 863e 67ee f33d ea88 ad3e 011d 953e
00000110: 0685 173e 67cd 8c3e 633f 873e 73a7 203e
00000120: f76e 233e 590b e33d 6f4a c9bc f2c5 3b3e
00000130: a36b ed3d eab3 8bbc d594 ff3d de1e 953d
00000140: 34e8 f3bc 58b4 ba3d 2d7f ca3d 8c91 c03d
00000150: 8c53 d53d 9f10 ca3d 5555 053e 0dcf 073e
00000160: 007d eb3d a84d 2a3e e487 51ba 160a 79bc
00000170: a25b 333d 0ad9 36bd 04c9 85bc dbe4 c63d
00000180: f36d 85bc 50df 9d3c 6878 223e e486 c7bc
00000190: 5870 d0bc 37d6 1a3c 7c0b a8bd aeda 19bd
000001a0: f1cd 573d b32e bdbd fd69 e8bc 8d40 973d
000001b0: 5be1 7abd 6ea4 7ebd 8e28 6fbd cb7e e1bc
000001c0: dbf3 2ebd 39f7 12bd e4bf 11bc 50c6 8cbc
000001d0: edc8 dfbb 7a18 5cbd c058 7abd ede9 81bd
000001e0: fad6 60bc cce8 1dbd 3475 1bbd 0e96 463c
000001f0: ca25 c9bb 24f7 b239 3d21 67bd c2b8 85bd
00000200: cac7 88bd 14ac c1bc 9f56 49bd 63ab 44bd
00000210: e91b 873b 6ce6 87bc 35c9 35bc 9dad 0fbe
00000220: 54a2 0dbe e98e 02be 8ca6 e0bd 3e10 eabd
00000230: 63c8 d2bd 537c a0bd c914 b9bd 4140 a5bd
00000240: e57c e3bd dcec d6bd d3ed c5bd 14ed 93bd
00000250: 8fd9 8ebd 308c 6dbd 6fc6 27bd bab7 38bd
00000260: 3761 0abd 4955 0fbe 672d 10be 1b07 0ebe
00000270: a34e c7bd f68c d4bd 8596 c9bd ff4a 55bd
00000280: c94d 86bd a60d 7bbd cfa1 bbbb a428 dfbd
00000290: 841e 2bbe 5ac3 1a3e 19a5 d03c 27a5 26bd
000002a0: 0a77 a73e 3707 5c3e 9341 163e 85a7 043a
000002b0: 9416 10be d9eb 74be ffbc 353e 5eec 033b
000002c0: 70ce e8bd d07f c33e be4d 663e 742f f63d
000002d0: 54ca 16be 08b7 8dbe f8dc bcbe 4098 073c
000002e0: 9ab3 2cbe a5d1 8ebe b90e 603e b46c 5e3d
000002f0: b9e2 3bbd f9f8 0d3d 77aa f03c 46fb ccbb
00000300: 5677 aa3b 0d31 283c 7ffa dfbc ad53 21bd
00000310: 6e9f bcbc 956c 16bd c084 ca3d c993 023e
00000320: f00e e43d e94a 6438 5772 a63d 1669 ad3d
00000330: d92e 0bbe 88d3 34bd 6541 b1bc 8d8e ee3c
00000340: 8c42 023d 0e53 d53c 8890 57bd d3e1 80bc
00000350: 942d 57ba 34e3 10be 9598 b8bd c753 87bd
00000360: 6c34 84bc f625 1ebc 66e6 883b 0f94 c73a
00000370: bb65 92b9 c17b 8e3c 1cae 303c d616 713c
00000380: 020d 063d fbf9 833c 1627 603c 8024 de3c
00000390: afcd 693d 0ba5 2b3d 68a2 643d 608f b03d
000003a0: 6ab3 aa3d 56a6 c53d daaa bcbc aa45 88bb
000003b0: ee30 1d3c 2948 c8bb db4f d03a fe80 8e3c
000003c0: 7e78 8bbb 87fb e4ba 6b05 3c3c 0ebd 913b
000003d0: 83df 1e3c 67a2 c7bb f670 273d 74da 453d
000003e0: 9ac3 bc3c 5dc8 403d 47c8 583d cb48 063d
000003f0: 46bf 58bc e354 cdbc 7b94 87bd 7357 8a3d
-0.12932132 -0.12299354 -0.12779577 -0.12804216 -0.11494601 -0.11444082 -0.14944473 -0.12615302
-0.115269706 0.003041778 0.0076985727 -0.0036691162 0.0066683884 0.013933999 0.006872065 -0.0149917025
0.0015223868 0.004200764 -0.062334638 -0.061341085 -0.072138734 -0.060165986 -0.05834666 -0.06415903
-0.07312891 -0.065381214 -0.062891155 -0.070209734 -0.0726843 -0.06354141 -0.06966112 -0.05965559
-0.03788752 -0.071099944 -0.056553338 -0.026302379 -0.030745778 -0.02008858 0.005546265 -0.042027526
-0.006752839 0.033399843 -0.049947273 -0.0012115363 0.049118344 -0.02395451 -0.007814787 0.0007431381
-0.02021863 0.009916265 0.020102674 -0.029340908 0.010897674 0.028072378 0.04734982 0.015695293
-0.041343335 0.069896646 0.06853066 0.017880173 0.024239162 0.06438954 0.04524705 0.30194482
0.26214072 0.11910706 0.3389352 0.2912369 0.14796838 0.2750046 0.26415548 0.15688877
0.15960298 0.11086149 -0.024571626 0.18337229 0.11592796 -0.017053563 0.12479559 0.07281278
-0.029773809 0.09116429 0.09887538 0.09402761 0.10416326 0.098664515 0.13020833 0.13262577
0.11498451 0.16631186 -0.00079929666 -0.015200159 0.04378856 -0.04464058 -0.016331203 0.097116195
-0.01628778 0.019271523 0.15866244 -0.024356313 -0.025444195 0.009450487 -0.082053155 -0.037562065
0.052686635 -0.09237423 -0.028370852 0.07385359 -0.061250072 -0.06216853 -0.058388285 -0.02752628
-0.042713027 -0.0358803 -0.008895848 -0.017184407 -0.006829372 -0.05373428 -0.061119795 -0.06343446
-0.013723129 -0.03855209 -0.03795357 0.012120737 -0.006138538 0.0003413494 -0.056428183 -0.065293804
-0.06678732 -0.023641624 -0.049154874 -0.04801501 0.0041232 -0.016589366 -0.011095335 -0.14031072
-0.13831455 -0.12749828 -0.10969266 -0.11428879 -0.10292127 -0.07836213 -0.090371676 -0.08068896
-0.11107806 -0.10494396 -0.09664502 -0.072229534 -0.0697509 -0.05799502 -0.040960725 -0.04509709
-0.033784118 -0.13997377 -0.1407982 -0.13869898 -0.09731796 -0.10378449 -0.098431624 -0.052073475
-0.06557805 -0.061292313 -0.005726076 -0.108964235 -0.1671086 0.15113583 0.02546935 -0.040684845
0.32708007 0.21487127 0.14673452 0.0005060363 -0.14071113 -0.23918094 0.17747878 0.00201299
-0.113675 0.3818345 0.22490594 0.1202077 -0.1472562 -0.27678704 -0.36887336 0.008276045
-0.16865388 -0.2789432 0.21880616 0.054302886 -0.045870516 0.034661267 0.029378159 -0.00625554
0.0052022142 0.010265601 -0.027341126 -0.03938644 -0.02302524 -0.036724646 0.09888601 0.12751688
0.111356616 5.44292e-05 0.08127277 0.08467309 -0.1359209 -0.044147044 -0.021637628 0.029120708
0.031801745 0.02604058 -0.05262807 -0.015732681 -0.0008208391 -0.14149171 -0.09013478 -0.06607776
-0.016138278 -0.009652605 0.0041778563 0.001522662 -0.00027923085 0.017392995 0.010783698 0.014714917
0.03272725 0.01611041 0.013681194 0.027117014 0.05708092 0.041905444 0.055818945 0.086210966
0.08335002 0.09650867 -0.023030687 -0.004158695 0.009594185 -0.006112118 0.0015892939 0.017395493
-0.004256307 -0.001746998 0.011475901 0.004447586 0.009696844 -0.006092358 0.040879212 0.048304036
0.023042489 0.04706608 0.052925374 0.032784265 -0.013229197 -0.025064891 -0.06620117 0.06754961

down1.down_block3d.1.double_conv3d.0.bias f4 [8]
00000000: 8cc0 81b7 d2b0 c8b9 5e72 39b8 94e8 86bb
00000010: a711 a439 f9a9 0cbc 8eab 7639 5c37 bf39
-1.546766e-05 -0.00038278714 -4.421395e-05 -0.004117081 0.0003129367 -0.0085854465 0.00023524297 0.00036471605

down1.down_block3d.1.double_conv3d.3.weight f4 [8, 8, 3, 3, 3]
00000000: 287e e6bb d5e1 c4bb 0231 a93c 2bd7 77bc
00000010: 4df7 e43b 659f 003d 6186 b9bc 1a35 df3b
00000020: f09b 3c3d 5187 003d e907 f93c 6db4 1b3d
00000030: 02f9 f43c 016c 4f3d 2210 463d 2ea0 5b3b
00000040: 6666 2a3d 5206 6f3d abbe ae3d c23b fa3d
00000050: 6f40 ed3d 1636 d63d 7835 1c3e d353 f83d
00000060: fd6b ae3d 40da f93d 42e7 e93d af84 003d
00000070: 2072 2f3d 8ead 463d ba5d 783c bcf1 963c
00000080: 89b6 173d aa37 413c 9976 003c a600 bf3c
00000090: 2227 563d 0051 6f3d f9cc 593d d9e9 d53c
000000a0: 09b4 073d 2e85 313d 1563 813c 89f7 943c
000000b0: 7932 083d e176 873d bd7c 9b3d 13d6 923d
000000c0: 596b f23c 5772 333d 503b 643d 0d2f d839
000000d0: ec5a 863c f00b 223d 9021 563d ee5b 1d3c
000000e0: 00cc 81bc 282e c93c b8ce 303c 08ba 803a
000000f0: 3a99 503c d451 873c 7dd5 d63a 581e 0b3d
00000100: 82cf 973c ea85 b2bb 0aa4 ea3c 30ee 2a3d
00000110: e24a 0b3d cec4 d13c 7b0a 563d 60a1 313d
00000120: 8450 23bd d907 78bd e0c9 79bd d17c 85bd
00000130: 8e17 11bd 7970 5ebc c4ab 2bbd a739 813a
00000140: 4986 a13c fc81 423c 2205 ed3c d685 673d
00000150: 765a 133d 1cb9 513d 4725 903d 906c 9d3d
00000160: 3ab3 b03d 4c5a c23d 0c72 613d c9d5 903d
00000170: e8fc ba3d 9d02 a13d a4ef c33d 5d9e da3d
00000180: d625 d93d ea81 fc3d 2772 043e 20f9 a03d
00000190: 3c5f 9e3d 0bac a03d 6193 d63d 3f4d ce3d
000001a0: 09a1 b83d 534d 013e 20bb 023e 9e11 ec3d
000001b0: ce88 a5bd d66a 83bd 8c6c 17bd 38c6 9fbd
000001c0: 84ec 9bbd 87d9 6dbd 2346 9cbd 0af4 9cbd
000001d0: a344 92bd b627 6dbd abda 29bd ab10 a8bc
000001e0: 39ef 45bd 6703 3abd 987d 17bd e252 46bd
000001f0: 77f8 4dbd d4b6 5dbd da67 1fbd 7735 cfbc
00000200: ff4f 5abc 4b41 dcbc ff1c f1bc 7d90 11bd
00000210: f41f fabc 06d8 22bd 948e 68bd ec9d 0abd
00000220: 4a90 27bd 624f a5bd 3730 37bd 825c 73bd
00000230: a22d bcbd ff52 00bd 4408 46bd 2699 a0bd
00000240: dcea 793d f995 753d 0464 2c3c 8365 213d
00000250: 4d6d 233d 5b34 d1bb ed9b bd3c 40ce a33c
00000260: 3fd2 94bb 6ca1 2d3d 3393 4b3d c17d f43b
00000270: d4bd 593d 44f2 823d 05f9 043d e7c8 693d
00000280: 1875 8c3d eae7 563d 2df9 e1bc ceee 0abb
00000290: bb30 233c a37e 86bd ca34 21bc d59d 083d
000002a0: 5af8 8dbd 63f1 84bc 32c9 163d 3ac4 9abc
000002b0: d587 613b 3577 553c 44dd 7ebd ed52 bfbc
000002c0: f545 993c 3e74 a3bd 844f 0dbd 2455 df3c
000002d0: 32be 733c da12 3a3c 3f49 93ba 7bf9 d2bc
000002e0: 9551 30bc fcac 2f3a 10c8 91bd 1aae 29bd
000002f0: 20ab 1bbc 4983 503c 589d 333d 4aee da3d
00000300: a262 09bc e45b c13c 58d9 ae3d 7aab 43bd
00000310: 8da1 3cbc 6b08 0a3d b726 443d 7dd5 a83d
00000320: 7902 093e 0d99 603d 39de 963d e0bd de3d
00000330: 2aaa 333d 72ac 513d 1bd0 643d 7428 8e3d
00000340: d128 cd3d c2ac 023e 585b ee3d a42b 013e
00000350: b983 f03d cb53 153e daad 003e bd07 a03d
00000360: 0d7d debd 1d71 eabd eb35 fcbd 65ba c8bd
00000370: ed46 b0bd a2de bdbd fa5e c2bd d249 92bd
00000380: 7ded abbd b159 d2bd 8cdd eebd 6c4b 13be
00000390: ab7a e1bd 559b debd 457c fbbd ce06 e8bd
000003a0: ea64 c4bd 9d21 dfbd 7fed 88bd c363 92bd
000003b0: 94bd 99bd 2bc9 84bd cbc6 88bd 8f47 66bd
000003c0: 48c5 9ebd 0ee8 8abd b6d6 2dbd c532 b6bd
000003d0: 662b 6abd 0ec0 7bbd f0e9 b3bd 7480 47bd
000003e0: aeb8 44bd a025 27be 2f7d e5bd a971 e0bd
000003f0: 93a5 6dbd 372e c5bc 7e58 0abd 9efd b6bd
-0.007034082 -0.0060083666 0.020653252 -0.015126984 0.0069874884 0.03140201 -0.022647085 0.00681175
0.04604715 0.031379048 0.03039928 0.038013864 0.029903892 0.05064011 0.04835523 0.0033512223
0.04160156 0.058355637 0.08532461 0.12218429 0.11584555 0.10459535 0.15254772 0.12125363
0.08516691 0.12199831 0.11421062 0.031376537 0.042833447 0.04850536 0.015159065 0.018425815
0.037039313 0.0117930565 0.007840776 0.023315739 0.052283414 0.058426857 0.053173993 0.026112484
0.03313068 0.0433399 0.015794316 0.01818444 0.03325126 0.06614471 0.07592151 0.07169738
0.029592203 0.043810215 0.055720627 0.00041233786 0.016400777 0.039562166 0.0522781 0.009604437
-0.015844345 0.024558142 0.010791473 0.0009821067 0.012731845 0.01651851 0.0016390529 0.033964485
0.018531565 -0.0054480927 0.028642673 0.04173106 0.03400696 0.02560654 0.05225609 0.04336679
-0.039871708 -0.06055436 -0.06098354 -0.065179475 -0.035422854 -0.01357662 -0.041911855 0.0009859101
0.019717352 0.011871811 0.028933112 0.05652412 0.035974942 0.051201925 0.0703836 0.07686722
0.08627935 0.09489879 0.055040404 0.07072026 0.09130269 0.078618266 0.09567192 0.10674737
0.1060292 0.12329467 0.1293417 0.07860017 0.07733008 0.078453146 0.10477329 0.10073327
0.0901509 0.12627153 0.12766695 0.11526798 -0.08082734 -0.06416862 -0.036968753 -0.07801479
-0.07613471 -0.05806878 -0.07630565 -0.07663734 -0.07141998 -0.0578992 -0.041468304 -0.02051576
-0.048323844 -0.0454134 -0.03698501 -0.048418887 -0.050285783 -0.054129437 -0.0389174 -0.025294049
-0.013324737 -0.026886603 -0.029432772 -0.035538185 -0.030532815 -0.039756797 -0.056776598 -0.033842012
-0.04090909 -0.08071782 -0.044723716 -0.059414394 -0.09188391 -0.03132915 -0.048347726 -0.07841711
0.061014995 0.05995748 0.010521892 0.03940345 0.03989916 -0.006384415 0.02314564 0.019995809
-0.004541665 0.042390272 0.049700927 0.00746128 0.05315955 0.06393865 0.032464046 0.05707636
0.06858271 0.052467264 -0.027584637 -0.0021199468 0.009960349 -0.06567123 -0.009839246 0.033353645
-0.06932135 -0.016228383 0.03681297 -0.018892396 0.0034413238 0.013028909 -0.062222734 -0.023354972
0.018710116 -0.07981156 -0.03449966 0.027262278 0.014876889 0.011357034 -0.0011237039 -0.025753727
-0.010761638 0.0006701497 -0.07118237 -0.0414258 -0.009501249 0.012726613 0.043851227 0.10689981
-0.008385332 0.023603387 0.08537549 -0.047770955 -0.011513126 0.033699434 0.047888484 0.08243845
0.1337985 0.05483346 0.07366604 0.108760595 0.043863453 0.051189847 0.055862527 0.069413096
0.10017551 0.12761214 0.11638516 0.12614304 0.11743874 0.14582746 0.12566319 0.07813976
-0.10863695 -0.11447356 -0.123149715 -0.09801177 -0.08607278 -0.092709795 -0.094907716 -0.07142986
-0.08394907 -0.102710135 -0.116633505 -0.1438424 -0.11009725 -0.10869471 -0.12279562 -0.11329423
-0.0958956 -0.10895083 -0.06685924 -0.07147934 -0.07506862 -0.06483682 -0.06678542 -0.056220587
-0.07752472 -0.06782542 -0.042441092 -0.08896402 -0.057170294 -0.061462454 -0.087848544 -0.048706487
-0.048027687 -0.16322947 -0.112055175 -0.10959179 -0.058019232 -0.024069889 -0.0337758 -0.089350924

down1.down_block3d.1.double_conv3d.3.bias f4 [8]
00000000: 58a0 3f36 76cd 72b8 7501 2938 f0bc a335
00000010: 6905 5137 cd56 e8b6 fe27 1336 9a4d 0437
2.855455e-06 -5.7888647e-05 4.0294097e-05 1.2199434e-06 1.245863e-05 -6.9242437e-06 2.1927985e-06 7.885881e-06

down1.down_block3d.1.shortcut.weight f4 [8, 4, 1, 1, 1]
00000000: 3755 453d 8f85 babc 17de b33d 6476 d33d
00000010: bde1 4e3e 5429 4b3d 6975 9e3e 1398 32bf
00000020: f854 953e ce69 30bc ec83 a63e b832 dcbe
00000030: e048 eb3d 72f5 95bc c430 86bc 78e5 edbe
00000040: 23ca 97bc 3459 c0bc 1268 12bd e422 ec3e
00000050: 2a21 fa3e d208 a73e 2d4c e73e 8c16 c3be
00000060: 0c1f b63e 4671 873c bd6f ff3e 10d9 04bf
00000070: d9c1 193e 33f2 f93c 5f65 e43d 6130 a3be
0.04817697 -0.022768764 0.08782595 0.103253156 0.202033 0.04959996 0.30948952 -0.69763297
0.2916639 -0.010767413 0.32522523 -0.43007445 0.11488509 -0.018305514 -0.016380675 -0.46464133
-0.018529003 -0.023480035 -0.03574378 0.4612037 0.48853427 0.32623917 0.45175305 -0.3810314
0.35570562 0.016533505 0.49889937 -0.5189371 0.15015353 0.030510997 0.111521475 -0.31872848

down1.down_block3d.1.shortcut.bias f4 [8]
00000000: c462 aabd 0b89 4a3e 364c ca3e 3f21 8a3e
00000010: 38b5 68be 3ff4 053f 1526 f03e 9108 913e
-0.08319619 0.1977884 0.3951127 0.2697849 -0.2272538 0.52325815 0.46904054 0.28326848

down2.down_block3d.1.double_conv3d.0.weight f4 [16, 8, 3, 3, 3]
00000000: 7632 41bd 79e5 a6bd 2e4b c3bd fb13 96bc
00000010: 04dc 21bd afb7 e5bc 3b51 283b cc8a 893c
00000020: 8cee 313d 78ab 81bd 6633 99bd 5071 8cbd
00000030: 4782 76bd 5ac0 6ebd 2e40 c9bc d436 70bd
00000040: 8577 b4bc d756 ae3c 603c 21bd f5e9 51bc
00000050: 4fe0 423b 44d2 3abd 83b9 ccbb aac7 fa3c
00000060: 068c 81bd e944 e7bb 8648 293d 79ef 1c3d
00000070: 338b 823d 2879 023e 087f d13b 2065 5c3c
00000080: 446f 653d 012c ba3c ae0b 123d d359 373d
00000090: 4670 5a3e 9c6a ef3d d8a4 0c3e dfca 4b3e
000000a0: 4e4c c63d 4b01 cb3d fe29 833e 026f 463e
000000b0: 852c 1a3e 03e9 7a3d 9b70 7d3a 3a07 783d
000000c0: bb33 b33d b264 da3b 64f6 5a3d aa97 ff3d
000000d0: ff61 333d a139 0d3d 2c50 8bbd 38f6 00bd
000000e0: 9f06 323d 0755 15be 80c6 b2bd 6eb7 02bc
000000f0: edbd 35be 4f57 b4bd 3d2c b9bc 5811 073e
00000100: d490 bc3d 4d2e 103e 7bba a43c 5265 f33c
00000110: 5019 bf3d f745 9abd 7bfc ef3b 18ce 743d
00000120: ae5b 253d 78e5 313d cc0d da3d 996b 53bc
00000130: eb49 993c 97c7 b23d 416c f0bd 6b9a 4fbd
00000140: d12e 133b 4b4b 44bd 0ef7 2cbd 17b4 faba
00000150: a18d 1fbd 3485 9dbd 4fc4 99bd f798 373b
00000160: b5b7 34bd 270b 9bbd 6d56 1c3e c75a 953d
00000170: b222 5e3d 45f4 183e 7bce ea3c d149 6ebc
00000180: f3ae 3c3e 2a5a 903d 4bcd ba3b c564 033e
00000190: b3cc 7e3d faf3 653d 217f fa3d 874b cf3c
000001a0: b9c2 4e3c 3dc6 1d3e d97b 243d 7f80 afbb
000001b0: bd97 b63b 7781 49bd cc58 99bd e8d4 5e3c
000001c0: 4c39 7cbc 5289 b6bc 5015 31bc 4270 db3b
000001d0: a79a d83c dd3b b4bc 798f 41bd 45d8 5dbd
000001e0: eed2 d8bc 3d97 02bd a653 02bd f3a1 7dbd
000001f0: 814b eebc 12ff 34bc 13d3 a2bd f49d 80bd
00000200: 6985 4fbd bcd2 babd d71e 6ebd dfa5 55bd
00000210: 8938 f6bd a0c5 98bd 02be 83bd dc1f 893d
00000220: 8d26 813d ba49 e53d 7680 ebbc b1af d2bb
00000230: 8004 583d 1afb d6bd f22a 24bd 7993 2f3c
00000240: 04af ce3d 1b46 fa3c 223c ce3d 5485 243c
00000250: d638 91bc f339 913d 6098 6ebd 32fc 47bb
00000260: 2a07 7c3d 3c1b 66bd d70e 35bd 8ce6 973d
00000270: 9a88 aebd b9b1 69bd 167b 823d 6be0 22be
00000280: 0988 b8bd f87e a53b 02ac f03c dce2 473d
00000290: 5224 ec3d 9fd4 cb3b 6081 443b a9a8 443d
000002a0: a42f 273d d66f 393d b4ba 603d 4d1d 7c3e
000002b0: 70f7 0a3e 6b3d 2d3e 5b03 4e3e f7c6 b23d
000002c0: bd74 cb3d ce76 833e fcd8 2c3e 5017 103e
000002d0: 16d0 ba3d 6231 863c 27d0 9d3d 6b16 913d
000002e0: 1cd1 b3bc 0dab 093d 43b5 e23d cdd9 3c3c
000002f0: 2511 c83b ca3b a2bc 5db7 e33b 4bb5 633d
00000300: c2d5 abbc d085 00bd 73fa 8bbc 5e21 733c
00000310: 9995 37bc 618c 0dbd 1632 263e 3ce9 d23d
00000320: e773 d03d 0e0b 163e 6111 893d da1b 473d
00000330: 8efb 4d3e 3a92 db3d 983a 7b3d 48a8 a53d
00000340: cac0 f13b dc95 843c 4d3c b03d 0a0a 88bc
00000350: 4b3a 60bc 68f1 ff3d 2a34 533c 06d5 b3bc
00000360: 964b 413c 90de 98bc b902 11bd 013f 473b
00000370: d10f a3bc 7a0e c4bc 31d6 033c f70d 983b
00000380: c4f9 c73b fc68 a73c ef41 42ba e309 d13a
00000390: 91e9 333b 1f68 5cbc 8660 80bb a642 4839
000003a0: 2e77 da3a 8c4e 563c 929d 123d 9ea8 003d
000003b0: 2c94 3f3d 097a 913c e21f 333c 8860 ed3c
000003c0: e60e 2a3c a394 753c 1e7b 083d 8579 5e3d
000003d0: 570b a13c f28f d7bc 4bed f33b 547a 0bbd
000003e0: 6ee4 dbbd b06b 8b3d 0f5b ac3c f0ec 2dbd
000003f0: f578 453d c93c 763c da2b 1ebd 3c8b 54bd
-0.047167264 -0.08149237 -0.09535824 -0.018320074 -0.039516464 -0.028041689 0.0025683183 0.016789816
0.043440387 -0.06331533 -0.074805066 -0.0685755 -0.060182836 -0.05828891 -0.024566736 -0.05864604
-0.022029648 0.021281643 -0.03936422 -0.012812127 0.002973575 -0.04561068 -0.0062477007 0.030612785
-0.063255355 -0.0070577753 0.04132893 0.038314316 0.063742064 0.1274153 0.006393317 0.013451844
0.056014314 0.02272606 0.03565567 0.044763397 0.21331891 0.11690256 0.13734758 0.19901608
0.09682523 0.09912356 0.25617975 0.19378284 0.15056045 0.061257374 0.00096679636 0.060553767
0.08750101 0.006664836 0.053457633 0.124800995 0.04379463 0.034478787 -0.06802401 -0.031484812
0.043463346 -0.14583217 -0.08729267 -0.007978303 -0.17748232 -0.08805715 -0.022604102 0.1319021
0.09207311 0.14080162 0.020108452 0.0297114 0.09331 -0.07532876 0.007323799 0.05976686
0.040370636 0.04343173 0.10647163 -0.012904071 0.018712005 0.08729475 -0.11739398 -0.050684374
0.0022458325 -0.047923367 -0.042227797 -0.0019127157 -0.038953427 -0.07691422 -0.07508146 0.0028014758
-0.04412051 -0.075704865 0.15267344 0.07292705 0.054232307 0.14936931 0.02866291 -0.014543966
0.18426113 0.070484474 0.0057007424 0.1283141 0.062206935 0.056140877 0.12231279 0.025304569
0.012619668 0.15407653 0.040157173 -0.005355894 0.005572288 -0.049195733 -0.0748764 0.0136005655
-0.01539452 -0.022282276 -0.010808304 0.006696732 0.026440931 -0.022001201 -0.047255967 -0.05416133
-0.026467767 -0.031882513 -0.031818055 -0.061922025 -0.029088737 -0.011047142 -0.079504155 -0.06280127
-0.05066434 -0.09122226 -0.05813488 -0.05216014 -0.12022502 -0.07459569 -0.064327255 0.0669553
0.06306181 0.11195703 -0.028747778 -0.0064296355 0.052738667 -0.104971126 -0.04008002 0.010716313
0.10091975 0.030551007 0.10070063 0.0100415535 -0.017727297 0.07091131 -0.058250785 -0.003051531
0.06153027 -0.056178316 -0.044203606 0.0741702 -0.085221484 -0.057054255 0.06371133 -0.15905921
-0.09010322 0.0050505362 0.029378895 0.048800334 0.11530365 0.006220415 0.002998434 0.04801241
0.040816918 0.04527267 0.054865554 0.24620552 0.13570952 0.1691796 0.20118468 0.08729356
0.099343754 0.25676578 0.16879648 0.14071393 0.091217205 0.01638097 0.077057175 0.07084354
-0.021950297 0.033610392 0.11069729 0.011526537 0.0061055594 -0.0198039 0.006949349 0.055592816
-0.020975951 -0.031377614 -0.017087197 0.014839498 -0.0112051 -0.034557704 0.16230044 0.10298392
0.101783566 0.14652655 0.06692768 0.048610546 0.20115492 0.1072125 0.061335176 0.08088738
0.0073777186 0.01618474 0.086052515 -0.01660635 -0.013685773 0.124972165 0.012890855 -0.021952163
0.011797806 -0.018660814 -0.035402987 0.0030402543 -0.019905003 -0.023932684 0.008046673 0.0046403366
0.0061027724 0.020435803 -0.00074103376 0.0015948381 0.002745245 -0.013452559 -0.0039177565 0.00019098315
0.0016667598 0.0130802505 0.035794802 0.031410806 0.046772167 0.017758386 0.010932894 0.028976694
0.010379529 0.014989051 0.03332054 0.05431511 0.019658728 -0.026313756 0.007444059 -0.034052208
-0.10736929 0.06807649 0.021039514 -0.04246229 0.048211057 0.015029141 -0.03861604 -0.051890597

down2.down_block3d.1.double_conv3d.0.bias f4 [16]
00000000: d3a9 4cb9 600a 25b9 a2dd 8a38 9e49 f137
00000010: 56ef a0b8 a4c1 6339 b9cd b0b8 5a77 6d39
00000020: f60f 88b8 8d9c beb9 fd7b 8839 343e beb9
00000030: f0ef 5fb7 124a fb37 b813 2e37 3b8a feb8
-0.0001951822 -0.00015739491 6.621635e-05 2.876372e-05 -7.673974e-05 0.00021720544 -8.430653e-05 0.00022646543
-6.487958e-05 -0.00036356263 0.0002603232 -0.0003628597 -1.3347701e-05 2.9956023e-05 1.0375799e-05 -0.00012137411

down2.down_block3d.1.double_conv3d.3.weight f4 [16, 16, 3, 3, 3]
00000000: 1543 e8bb 6f62 89bb fc59 be3b d0f0 f9bb
00000010: 9667 6cbb 0574 ef3b 53e2 98bb f4c4 8a3b
00000020: d1e4 1b3c d964 38bc 5636 47bc e08e 7a3c
00000030: bcb5 57bb fe95 97bc 135c 58bb ae6e 923c
00000040: ee46 d0ba 7889 bbbb 422a 803b 5936 083c
00000050: 7e9f a83c fee1 8dbb 3410 7cbb 5c15 c33c
00000060: b1d1 c23b 2b3b 833b b0e1 c73c cee0 07bd
00000070: bd37 89bc 5af5 c7bc ca93 0cbd 4c55 b4bc
00000080: 4d12 81bc 8474 a6bc 11ef 6ebc 65ad 32bb
00000090: 701c 55bd 9f7b 0dbd a456 29bd 9f70 48bd
000000a0: 8074 27bd ea05 59bd dafa 3bbd 8f24 5cbd
000000b0: f2aa 52bd 4fc1 32bd f84c 1bbd d054 e5bc
000000c0: 7a7f 4bbd 20a6 0ebd f40f e3bc 5876 17bd
000000d0: b866 a0bc c882 47bc f279 93ba be8b 49bb
000000e0: a7f3 63ba cf97 2f3c 26c0 023c 3e7a 2b3c
000000f0: 55f0 a13c 9da4 893c 0847 af3c 8e1e 9bbc
00000100: eebf a0bc 1a67 c5bc dea8 e0bb a371 2fbc
00000110: ef8c b0bc b250 9f38 a160 15bc 748f 92bc
00000120: 32da 5fbc 77e4 73bc fa90 d3bc a79d a6bb
00000130: 5ca2 7cbc b043 c2bc 9b8e 8abb befd 8fbc
00000140: 2f6d a4bc 6e8a c7bc c82f 8bbc ed1b cebc
00000150: 2f80 0abd cacc 99bc 93db adbc fc03 f0bc
00000160: d3de 9fbc ac6c 0dbc 643d 37bd f5a0 3abd
00000170: b54a 40bd 74af 0bbd 59a8 67bc 0810 16bd
00000180: 6469 6cbd cb71 15bd 1d8c 0dbd eac1 c3bc
00000190: 1e21 e6bc b334 c7bc 2f14 11bd 5f41 d8bc
000001a0: 0bbf e6bc 5b4d 25bd 7585 c9bc 064d a9bc
000001b0: b0e9 e1bc 2766 17bd 6710 3fbd 414b 59bd
000001c0: b08a fdba 2706 f5bc c52f 89bd 901e e9bc
000001d0: ca29 e3bc f460 9bbc 190b 67bd 110d 40bd
000001e0: 44bb 923c 4b9b 73bc c2a1 0bbd a4a4 0fbc
000001f0: 26b7 c6bc 4936 73bd a178 36bd dc2b dabc
00000200: 1cd4 5a3b 98c6 3e3b 01fa ceba 90a3 1cbc
00000210: 83bd 983b 84aa 50bc fdf8 23bd 53ff e2bc
00000220: e852 56bc f05e 97bc a698 3ebd 223b 97bc
00000230: 20c1 24bc 0cad 16bd 5724 48bc 2c2d 8d3c
00000240: 09a3 1ebd 702b bebc 30e3 9dbc a7ea aebc
00000250: a108 393a 00e4 82bc 2be6 d3bc 3bc6 893b
00000260: bbaa cb3b e0f9 f1bc 083a 7abc a2a2 03bc
00000270: 86a2 f2bc b52e bdbc ad44 90bc d067 9cbc
00000280: 1557 dbbb f26e a1bb 4bfa ee3b 9d49 8d3c
00000290: 18bc e73c c789 8a3c 7fab 783c c038 143d
000002a0: 6628 1d3d 6e5f 983c 7168 263d 0074 d73c
000002b0: fd4b 483d 29fc 983d f0c6 99bb 1fec 20bc
000002c0: 4ccb 823d f6d1 e83c e48d 4fbc a88e ad3c
000002d0: d23a f0bc 1456 03bd 6f35 9cbb 670a a1bc
000002e0: 9c68 15bc bbbb d33c e320 da3c 2f17 8e3c
000002f0: 0683 0e3d 6a08 4abd 690b 263d 5c92 a43d
00000300: 9215 b4bd 52c7 9cbd a626 873c 4a27 953c
00000310: 606b 8cbd 490a 47bd 8b24 d8bc d15b 2b3d
00000320: d7d4 3d3d def2 1abe 1531 03bd 56c4 473d
00000330: c9a4 e2bd df66 cfbd 921d 593b 6341 8c3d
00000340: 0984 3f3d b3fe 19bd c3d3 13bd 9b5d 9e3b
00000350: 697e 8dbc 5257 79bd 7c27 133c 0b93 023d
00000360: 5a6c 6e3a f0cf f03b b79b cd3b 1030 24bc
00000370: 7de0 75bc cba8 c7ba 934e 7fbc c43f 8fbc
00000380: 9b5a d3ba 7b2f 78ba f37e 4b3b 6d99 173d
00000390: 483c 52bb 7855 1ebd 4a72 98bc 0f8a fa3c
000003a0: 77bd 82bc 3995 d1bc c083 4bbb 4a5f 21bc
000003b0: 6ec3 9bbc 2392 b83c 8772 073c 2fe5 11bb
000003c0: 7a1c 213d 6193 953c 5b53 80bc 9c74 223c
000003d0: 6ea2 acbb d21d 18bc 51d1 673b 83f1 cdbb
000003e0: 9994 a0bc 6f08 81bc 5c50 b2bc e8ac f1bc
000003f0: d6eb ba3c 107a e23c 6110 b73c d50f 723c
-0.007088075 -0.0041926424 0.005809067 -0.007627584 -0.0036072484 0.007307532 -0.004665652 0.0042349044
0.009515003 -0.011254513 -0.012158951 0.015292853 -0.0032914719 -0.018504139 -0.0033013865 0.017875042
-0.0015890279 -0.0057231747 0.0039112875 0.008313739 0.020583864 -0.004329919 -0.0038461806 0.023813896
0.0059454073 0.004004856 0.024399608 -0.033173375 -0.01675021 -0.024408985 -0.03432063 -0.022013329
-0.015755797 -0.02031923 -0.014583365 -0.0027263996 -0.052029073 -0.034541722 -0.041342393 -0.04893553
-0.040882587 -0.052984156 -0.045893528 -0.053745802 -0.051432557 -0.043641385 -0.0379152 -0.027994543
-0.049682118 -0.034826398 -0.027717568 -0.036978096 -0.01958023 -0.012177177 -0.0011251552 -0.003075346
-0.000869567 0.010717346 0.007980382 0.0104661565 0.01976792 0.016802127 0.021396175 -0.018935468
-0.01962277 -0.024097014 -0.006856068 -0.010708245 -0.021551577 7.5967415e-05 -0.009117276 -0.01789067
-0.013662862 -0.014886013 -0.025825966 -0.0050847116 -0.015419569 -0.023713917 -0.0042284257 -0.017577048
-0.020071594 -0.024358 -0.016990557 -0.0251598 -0.03381365 -0.018774409 -0.021222865 -0.029298775
-0.01951543 -0.008631866 -0.04473628 -0.045563657 -0.046946246 -0.034102872 -0.014139258 -0.036636382
-0.057717696 -0.036485475 -0.03455745 -0.023896176 -0.028091963 -0.024317121 -0.03541964 -0.026398359
-0.028167268 -0.040356975 -0.02459977 -0.02066661 -0.027577251 -0.036962654 -0.046646502 -0.053050283
-0.00193437 -0.02991016 -0.066985644 -0.028456956 -0.027729888 -0.01896713 -0.056407068 -0.04688746
0.01791156 -0.014868568 -0.03408981 -0.008767281 -0.024257254 -0.059377942 -0.044548634 -0.026632242
0.0033390587 0.002911007 -0.001579106 -0.009560481 0.0046612634 -0.012735967 -0.040032376 -0.027709639
-0.01308129 -0.018477887 -0.046532296 -0.018460814 -0.01005581 -0.036786124 -0.012215695 0.017233454
-0.0387297 -0.023214072 -0.01927337 -0.021352125 0.0007058476 -0.01597786 -0.025866589 0.004204539
0.006215421 -0.029538095 -0.015272625 -0.00803438 -0.029618513 -0.02309356 -0.017610872 -0.01909247
-0.0066937306 -0.004926556 0.007293021 0.017247016 0.028287932 0.0169114 0.015177607 0.036186934
0.038368605 0.018600192 0.040626947 0.02630043 0.048900593 0.07469971 -0.0046929047 -0.009821921
0.06386432 0.02842043 -0.012668107 0.021186188 -0.029324923 -0.032064512 -0.004767112 -0.01965828
-0.009119179 0.025846353 0.02662701 0.01734504 0.034792922 -0.04932443 0.040538225 0.08035728
-0.08793177 -0.07655205 0.016497921 0.018207211 -0.06856418 -0.048593793 -0.026384613 0.04183561
0.046345558 -0.15131709 -0.03202923 0.048771225 -0.110665865 -0.10127043 0.0033129198 0.06848409
0.046756778 -0.037596416 -0.036090624 0.004832936 -0.017272191 -0.06087429 0.008981582 0.031878512
0.0009095125 0.007349007 0.006274666 -0.010021225 -0.015007135 -0.0015232799 -0.015582698 -0.01748646
-0.0016125025 -0.00094675244 0.003105101 0.037011553 -0.0032079387 -0.038655728 -0.018609185 0.03058341
-0.015959485 -0.02558385 -0.003105387 -0.009849379 -0.019014087 0.02253062 0.008267052 -0.0022261848
0.039333798 0.018258752 -0.015664747 0.009915497 -0.0052683866 -0.0092844535 0.0035372565 -0.006284894
-0.019602107 -0.015751092 -0.021766834 -0.029501393 0.022817533 0.027646095 0.022346677 0.014774282

down2.down_block3d.1.double_conv3d.3.bias f4 [16]
00000000: 3edb 4bb8 f481 8bb9 11c5 a4b9 7d18 d439
00000010: 6889 8eb9 5cd1 6537 209e 64b7 2ac5 2d38
00000020: 911d be39 8602 ca38 6666 0d38 2a52 b238
00000030: 8731 093a 2b93 5cb9 3ac2 bb37 ea3f 5839
-4.8603157e-05 -0.0002660897 -0.00031427343 0.00040454036 -0.00027186726 1.3698209e-05 -1.3626675e-05 4.1430038e-05
0.00036261653 9.6325806e-05 3.3712386e-05 8.503006e-05 0.00052335154 -0.0002103566 2.2382581e-05 0.00020623175

down2.down_block3d.1.shortcut.weight f4 [16, 8, 1, 1, 1]
00000000: c785 5cbd ee1e 3dbe 189c d5bd e4e6 0abe
00000010: 663c 2fbc 6e90 cebd 96fa 38be 73cf 16be
00000020: f07d 99bd 0a87 92bd 51c7 c8bd fe0e 03be
00000030: 06e4 d43d fdba 3cbe 9df3 7fbd d135 00be
00000040: 51c7 c3be aa14 983d 65cb d23d ca14 72bc
00000050: 2e2a ffbd 4faa 0bbe 5d34 483d 082f 98bd
00000060: 3f0a b2bd e6bc b1bd 994f 17be 61fe 9abd
00000070: b423 00be fa2f 25be 7ad0 e9bd 63a7 b0bd
00000080: a720 1abe 80be 4abe 94dd 8ebe b314 6abe
00000090: 84c4 77be 824c b4be 9eba 3ebe 02b3 2cbe
000000a0: 335b 3a3d 199c 043e 2af3 473e ba29 f33c
000000b0: 8b6b 6a3d 3b0e fd3c 0c57 203e 4f4d 953d
000000c0: 947c 90bd fc02 4dbe 4672 26be 31d5 49be
000000d0: 1f30 fabd 4ccf 39be 51f7 73be 1c84 54be
000000e0: 35f4 a8be 7470 ba3c e74d 223d ec26 5fbd
000000f0: cd84 b4bd 1c3f aebe ed97 963c 166c c7bc
00000100: 2653 12be 0e2a 283e bdab 483e 5b0e 20be
00000110: 489f 19be 55e3 473e b9b1 e53d 310f 53be
00000120: 3866 54be 20e5 00be 1291 55be 44b1 1cbe
00000130: 9003 5fbe 098f 11be 8b78 10be 0431 d9bd
00000140: da50 0ebe 0d8f aabd b54f 62bd 437c f2bd
00000150: 25b8 cabd 50c0 7fbe a913 80bd 9ec1 02be
00000160: 6ddf 6abd 0421 31bc e68a 3cbe 14c9 a5bd
00000170: 3c3d d23d fd02 12be 7c5a 02bd da2e 04be
00000180: ad62 c3be 6d09 55be 7ba8 e4bd acb5 86be
00000190: f2aa a3be 5673 3abe d509 54be 55af 35be
000001a0: 0bb2 80be 5ac3 30bd 4413 a2bd afc9 04be
000001b0: 43b9 403e 22e7 4ebe 0cc0 6ebd 86c4 ddbd
000001c0: 6ea1 0b3e de34 3f3e 0d59 a23e fd6b 093e
000001d0: 8c37 983e 124d f53d 1374 a23e 095b d23d
000001e0: 5e68 73be 1abb 2abc fdf1 d6bd e896 00be
000001f0: 2007 e3bd d88b c9bd 2a5e 5ebd 047d 3cbe
-0.053838518 -0.1846883 -0.10430163 -0.1356464 -0.010695552 -0.100861415 -0.18064341 -0.14727573
-0.07494724 -0.07154663 -0.098036416 -0.12798688 0.103950545 -0.18430705 -0.062488187 -0.1252053
-0.38238004 0.07425816 0.10292701 -0.014775464 -0.12459217 -0.13639186 0.048878063 -0.074308455
-0.086933605 -0.08678608 -0.14776458 -0.0756805 -0.1251362 -0.16131583 -0.11416717 -0.086256765
-0.15051518 -0.19799232 -0.27903426 -0.22859459 -0.24196059 -0.3521462 -0.18625876 -0.16865161
0.04549713 0.12950172 0.19526353 0.029682983 0.057231467 0.030890575 0.15658206 0.07290136
-0.070550114 -0.2002067 -0.1625453 -0.19710232 -0.122162096 -0.18145484 -0.23824812 -0.2075352
-0.32998815 0.0227587 0.039625075 -0.05448048 -0.08814392 -0.34032524 0.01838299 -0.024343532
-0.14289531 0.16422293 0.19596763 -0.15630476 -0.15002167 0.19520314 0.112155385 -0.20611264
-0.20742118 -0.12587404 -0.20856121 -0.15301996 -0.21778703 -0.1421472 -0.14108483 -0.10605052
-0.1389803 -0.08328066 -0.055251796 -0.11840107 -0.09898404 -0.24975705 -0.0625375 -0.12769172
-0.05734198 -0.010811094 -0.1841236 -0.08094993 0.10265586 -0.14258952 -0.031824574 -0.12908497
-0.3816122 -0.20804377 -0.111649476 -0.2631048 -0.31966358 -0.1820806 -0.20706876 -0.17742665
-0.25135836 -0.04315505 -0.07913831 -0.12967561 0.18820672 -0.20205358 -0.05828862 -0.108284995
0.136358 0.18672511 0.31708565 0.134201 0.2972988 0.119775906 0.31729183 0.1027127
-0.23770282 -0.010420585 -0.10495374 -0.12557566 -0.11085343 -0.09841126 -0.05428902 -0.18407065

down2.down_block3d.1.shortcut.bias f4 [16]
00000000: 5115 abbd 2b39 debd 10ee bbbd 874d 0dbe
00000010: 8269 18be 7acd 2c3e a4c7 2cbe c150 073d
00000020: f66e d9bc 82be c4bd 22ac 0d3d 82aa 86bd
00000030: 2242 86bc 44ef 20be ecc1 e63e d249 00bd
-0.08353675 -0.10850748 -0.09176266 -0.13799106 -0.14883998 0.16875258 -0.16873032 0.033035997
-0.026542168 -0.09606649 0.034587987 -0.065754905 -0.016388956 -0.15716273 0.45069826 -0.0313204

down3.down_block3d.1.double_conv3d.0.weight f4 [32, 16, 3, 3, 3]
00000000: c9fb 65bb 2c94 523c fa78 4e3c cb5a 213c
00000010: 7d9a d8bb 6a3f 78bc 44ba 8e3b 5859 77bc
00000020: 1de4 00bd a1c9 d6bc 032a 4d3b d6ec 093c
00000030: 042e 92bb 196d f6bb 1b71 fcbb 35b2 5fbc
00000040: 576e 40bc 5cd0 b7bc b6de cbbc 3a0d 09bc
00000050: 6ed5 60ba fb9e 05bd 705c e7bc 3e87 a2bc
00000060: eef9 c5bc 1deb ccbc c524 a6bc eb8d 263c
00000070: e00b d7bb b287 25bb 0957 bdbb 7d33 13bd
00000080: 597a e9bc c80d 873a 5ada 2abd da2e f4bc
00000090: c3ed a83c 11af 923c 6ba6 0d3d fc4e 843c
000000a0: 26cc 5939 1aed 503c 1047 3e3d 95b4 4dba
000000b0: ab5b 08bb f31b 163d eb69 133d aad1 393d
000000c0: 60ef 1b3d ed39 c23c adcb f03c 13ea a73d
000000d0: 55bb 393d f995 123d 964b 7f3d 6264 6c3d
000000e0: 8af7 903d de83 d63c 8dd3 183d c55f 743d
000000f0: 9f51 d03c d2d1 163d e68d 9a3d 1395 243d
00000100: 50e2 6d3d ba92 d83d 5b1b 28bc 2e65 ba3c
00000110: cd56 ab3d d914 2e3c 1ce8 153d 0340 c83d
00000120: 76ff 643d 1d50 8a3d 75af bc3d 89d9 7dbc
00000130: 3e11 9f3b ad1c 5b3d 5e76 8ebc 12ec 843c
00000140: b7f3 973d d1d9 013d 4dbb bfba bd09 56bc
00000150: b2f2 e13c b2ca c4bc 1724 1ebd 483f f9bb
00000160: 3098 3ebd 68d5 88bd 7d42 ed3c ebb1 a5bc
00000170: 4a86 e8bc 7fb1 713c 9d99 43bd 3f49 78bd
00000180: c7cd d7bc 66f5 94bd 9b34 ccbd 766b 6d3d
00000190: c9c8 103d 553c c03c 8336 083d 8d1b e43a
000001a0: c777 86bc 00a8 60bb df38 53bd 2468 96bd
000001b0: cdd6 0bbc 9e79 9bbc a5f3 f5bc 0a49 a23b
000001c0: e6a1 26bb 14eb d3bc 2da2 99bc 4b18 d7bc
000001d0: d6c7 5fbd e03c c4bc 4d09 3dbd e8b0 42bd
000001e0: a14f 8cbc 4adc f7bc da17 2abd f6de f2bc
000001f0: b971 4abd 3c81 97bd c5f7 71bc d78b 6bbc
00000200: d2e2 15bc 6fa6 47bc 5f0a 2bbc 97e4 92bc
00000210: 66bb b4bc 69da 0dbd e6a9 77bd 1f20 1fbc
00000220: b0f2 c4bc 6c1b 28bd 12d7 453c d893 813c
00000230: 97cf c63a a6f1 803c 2ea3 4d3c 277f 5abb
00000240: e583 bbbb f082 85bc 1d5f b0bc 19a1 ba3b
00000250: 97af b73a ff99 a13b 8e3d 823c 210f 973b
00000260: 46a1 e3b8 7afe e1bc bce4 d1bc 184a 8abc
00000270: 0ae2 a3bc fb40 b4bc ad40 d8bb 442b a7bc
00000280: 8f3c cfbc 21ea 77bc 3f5b f73c 312e 183d
00000290: c6f5 013d ce36 043d 7f25 df3c e870 e83c
000002a0: 664a 793c 9873 513c cd86 643c a4b0 823c
000002b0: e3cd c63c 1a78 4e3c 0617 a13b 794c 043c
000002c0: 6f47 363c a7f5 b5bc 9e5f b138 2893 a13b
000002d0: 2762 9ebb 1ade b5bb 34a3 42bc 40ac 91bc
000002e0: fc8c 82bc 3874 72bc f92b d4bc 8656 b9bc
000002f0: 4327 4dbc e649 2c3d 65d2 323d 1cc8 083d
00000300: 147e 293d 0020 f03c 5212 c33c 7392 fd3c
00000310: aa2e 993c 2b5e 823c 9ad7 273c 948e 7b3b
00000320: 511c 4d3c fa5c b53c 8057 283c 08aa 9e3c
00000330: 6efa 283d 1564 e63c 23f9 143d 6615 25bc
00000340: 985c 08bc a245 e53b 062f 5b3b ad4d 8eba
00000350: e3f8 293c 03af 703c 82a6 923c 1d84 f73c
00000360: 8f84 4e3d ecea 5a3c 828e 84bb 632f ed3c
00000370: 26a6 9a39 4fec 06bc ee5c 533b 60a8 a2bb
00000380: f8da a6bb abd3 7c3d 4e0a 513c d8c2 1b3c
00000390: 3a87 6b3c fa67 aebc a164 82bc 53fe 53bd
000003a0: fe01 76bd fd69 23bd 1003 783d ab74 c53c
000003b0: 569a 083d 88fc 0ebc b0fe c7bc 3cf5 3cbb
000003c0: 1e95 a6bd 4f76 91bd 2aeb 18bd f597 f83c
000003d0: 839b da3c c6b3 a53c f42c 123d e01d f43b
000003e0: dc24 29bb 5df1 363c 5421 223a f487 24bc
000003f0: ee94 7e3a bd35 983a f7b8 4cb9 0207 38bb
-0.0035092703 0.01285271 0.012602085 0.009848307 -0.0066102133 -0.015151838 0.0043557007 -0.015096985
-0.031467546 -0.026219191 0.0031305559 0.0084182825 -0.004461052 -0.0075203297 -0.007703913 -0.013653328
-0.011745057 -0.02243822 -0.02488647 -0.00836497 -0.00085767254 -0.03262232 -0.02824232 -0.01983988
-0.024167027 -0.025014454 -0.020281205 0.010165672 -0.006562695 -0.0025257883 -0.0057781977 -0.035937775
-0.028500723 0.001030379 -0.041712143 -0.029807497 0.020621186 0.017905744 0.034582537 0.016150944
0.00020770784 0.012751842 0.04645449 -0.0007847038 -0.0020806591 0.03664775 0.035989683 0.045365967
0.038070083 0.023709262 0.029393995 0.08198943 0.04534467 0.035787556 0.062327944 0.05771292
0.07078464 0.026185926 0.037311126 0.059661645 0.025429545 0.036821194 0.07546596 0.04018123
0.058077157 0.10574861 -0.010260428 0.022753324 0.08366165 0.010625088 0.03659831 0.09777834
0.05590769 0.06753562 0.09213153 -0.015493759 0.0048543504 0.053494144 -0.017390426 0.016225848
0.07419532 0.031701867 -0.0014627964 -0.013063845 0.027581546 -0.024022434 -0.038608637 -0.0076064207
-0.046531856 -0.06681329 0.028962368 -0.02022644 -0.028384347 0.014751791 -0.04775392 -0.060616728
-0.02634324 -0.072733685 -0.09970971 0.05796381 0.035347734 0.023466269 0.03325511 0.001740323
-0.016414536 -0.0034279823 -0.05156791 -0.07344082 -0.008535099 -0.01897889 -0.030023405 0.0049525546
-0.0025426089 -0.02586893 -0.01875409 -0.026256701 -0.054633938 -0.023954809 -0.046151448 -0.047531992
-0.017127814 -0.03025641 -0.041526653 -0.029647332 -0.04942486 -0.073976964 -0.0147685455 -0.014376602
-0.009148316 -0.012185677 -0.010439484 -0.017931266 -0.022062015 -0.03463212 -0.060464762 -0.009712248
-0.024041504 -0.041041777 0.012075203 0.015817568 0.0015168068 0.015740227 0.012551112 -0.003333995
-0.00572251 -0.016297787 -0.021529729 0.005695474 0.0014014122 0.004931688 0.015898492 0.004609958
-0.00010854243 -0.027587164 -0.025621764 -0.016881034 -0.020005245 -0.022003641 -0.006599507 -0.020406373
-0.025297431 -0.015131504 0.030194877 0.037153427 0.03172853 0.03227883 0.02723956 0.02837415
0.015215492 0.012783907 0.013948155 0.01595337 0.024268096 0.012601877 0.0049160747 0.008074873
0.0111254295 -0.022211863 8.457828e-05 0.0049308725 -0.004833478 -0.005550158 -0.011879731 -0.01778233
-0.015936367 -0.0147982165 -0.025899874 -0.022624265 -0.012521568 0.042062663 0.04365768 0.033393964
0.041380003 0.029312134 0.023812447 0.030953621 0.018699009 0.015914043 0.0102442745 0.0038384544
0.012518958 0.022139061 0.010274768 0.019368187 0.041254453 0.028123895 0.036370408 -0.010075903
-0.008322857 0.0069968263 0.0033444776 -0.001085689 0.010374281 0.014690164 0.017901663 0.030214364
0.050419386 0.013361674 -0.0040453086 0.02895326 0.0002949696 -0.008235051 0.0032251435 -0.0049639195
-0.005092021 0.0617253 0.0127588045 0.009506904 0.014375502 -0.021289814 -0.015917124 -0.051756214
-0.060060494 -0.039896 0.060549796 0.024103483 0.03335031 -0.0087272 -0.024413437 -0.0028832695
-0.081339106 -0.07102644 -0.037333645 0.030345896 0.026685482 0.020227324 0.035687402 0.0074498504
-0.0025809323 0.011165944 0.0006184776 -0.010042179 0.00097115233 0.0011612695 -0.00019523861 -0.002808035
