simple_3dunet/checkpoints/96-128_3-8/try/save/20.pth (torch, 377059 bytes, 49 tensors)

input.double_conv3d.0.weight f4 [4, 2, 3, 3, 3]
00000000: 5811 bcbd dd88 f7bb 87fe fe3c e141 f1bc
00000010: 3552 8f3c 7080 59bc 13b6 2cbb 7bdd bbbd
00000020: ef83 7d3d 5a69 b43c d396 8e3d a1a8 6a3d
00000030: 2d82 0d3d d9ac 5f3d 8d8f 2fbd 64e5 28bd
00000040: 04e3 c33d 53a9 45bd 4892 06bd 2580 7d3d
00000050: c677 6a3d 8f40 f23c 09ad c83d 1594 603d
00000060: 3ab7 27bd aabc a6bd a1f7 9f3d 0958 873d
00000070: 4556 02bd ba49 093d fce9 dc3d a3c2 e23a
00000080: 40bd ac3c fcff bdbd 45db 113c 98c5 7d3b
00000090: e9ef 7c3c d679 9d3c c9db 93bc ea2d c53d
000000a0: 607e 90bc 7f79 973d 70df 09bd d26c 70bc
000000b0: 1c70 783d f7d1 2b3c 58cb 023b 4be8 98bc
000000c0: a42f da3d f33d a7bc 8d61 4d3d 0e2d 96bd
000000d0: afe3 aabd 7427 d53c 78d6 83bd 52f8 f0bc
000000e0: f468 263c 5e16 9d3d d2f8 95bd d75d 253d
000000f0: bebe 85bd 5c83 4abc e5a3 213d 8c73 af3c
00000100: 94a1 8139 a16a be3c f725 52bd 6610 583d
00000110: 0f45 2d39 f181 3dbc 6f7e 933d 7805 8b3c
00000120: 518d 223d cb82 a23b e797 8d3c e9eb 58bd
00000130: 224e d2bc bc9a ff3c 0475 853b 9907 32bd
00000140: 1281 213c 782e 96bd 5223 dc3c 6101 5d3d
00000150: 42b8 533d 90fd 62bc ade9 153d b600 40bc
00000160: 4031 e8b9 3636 38bd 3ac0 f53c dbdb 713c
00000170: 582d ed3b 1fe6 1dbc bec9 bd3c 47ef 713c
00000180: 544f bd3c f1ed 18bc 488f 0b3d 8a7e f9bc
00000190: 008b 093d 646b 7f3c 6f45 da3c 1283 b8bc
000001a0: ae64 f53c 4fcd 9a3d 473a 073d f526 f53c
000001b0: a71d c53c ef81 bfbc a5b2 d6ba 313c d5bb
000001c0: ff7d 873b 75f6 09bd 968e 02bb 1a79 4dbb
000001d0: 325d b0bb a9b9 bcbc d653 af3b 778b 543c
000001e0: 705b 25bc 3ada 213b 6f90 4e3c 07aa b5bb
000001f0: f673 9bbc d32e 19bb e7fe cdbc b5c2 4cbc
00000200: f335 523b 7019 233d 4bf4 b2b8 c209 3bbb
00000210: ab3a f73c e474 ed3b 34d1 d23b 3a2d cf3c
00000220: 1565 973c 656d 69bc f749 44bb 4dd5 d8bc
00000230: 5cff ccbc 4e02 0d3b 77d3 153c ca06 e0bc
00000240: f198 7e3c 47ea c23c d4d1 81bc c660 73bc
00000250: 371a 153b a178 b3bc e333 a4bb 2d85 b4bc
00000260: 68b7 a0bc 16d7 6cbc 6605 c1bc 2c11 25bb
00000270: 80e0 25bd b6e2 04ba 0aad e23a 71d9 7abc
00000280: f986 d33b d6af ea3b 9925 86bc 7134 8fbb
00000290: 8e04 0cbb ce92 003c b0fb a13a 44bd 34bb
000002a0: 5569 393c 17ec 983b 664d 143b 6b52 1abc
000002b0: cf2a a6bb 0ba9 febb 423e 67bb 0021 03bc
000002c0: 75a9 3bbc 1a8e 31bc f717 c2bb 267a b4bc
000002d0: 58f7 c53c 219b 3dbd 228d c33c 216a d0bc
000002e0: 52fc 6cbb 17a6 b4bc 5d53 1bbd 7ffd 43bc
000002f0: bcc3 2dbd 799d c9bb d75f 983b 1fde 03ba
00000300: e504 6a3b a70e 593b e28c 16bb 9773 ddbc
00000310: 5528 153b a160 46bb ffac 08bc 4568 bbbb
00000320: a8a6 55bc a991 f7b9 0ff7 05bc bd23 cd3b
00000330: 33e7 773c 6d23 1fbc 8522 bbb9 5052 493d
00000340: d118 db3c 70e2 fabb ebd7 a73b 084c ce3b
00000350: 4f96 6cbc 101c 993c 97a4 d93c 6f15 90bc
-0.091829956 -0.007554157 0.031127227 -0.029450359 0.017495254 -0.013275251 -0.0026353642 -0.091731034
0.0618934 0.022022892 0.06962361 0.057289723 0.034547973 0.0546082 -0.04286151 -0.04123439
0.09564784 -0.048257183 -0.03285435 0.061889786 0.05724313 0.0295718 0.09798629 0.054828722
-0.040946223 -0.081414536 0.07810903 0.06608588 -0.031820554 0.033517577 0.107868165 0.0017300438
0.021086335 -0.09277341 0.008902376 0.0038722511 0.015438058 0.019223135 -0.018049138 0.09627898
-0.017638385 0.073962204 -0.033660352 -0.014674382 0.06065379 0.010487071 0.0019957628 -0.018665453
0.10653618 -0.020415282 0.05014186 -0.07332812 -0.083442084 0.02601979 -0.06437391 -0.029415283
0.010156859 0.07670282 -0.07322849 0.040372696 -0.06530522 -0.01236042 0.039462943 0.021417402
0.00024725182 0.023244204 -0.051305737 0.052750014 0.00016524292 -0.011566625 0.0720185 0.016970381
0.03968555 0.0049594394 0.017284347 -0.052959356 -0.025672022 0.031201713 0.0040727872 -0.043464277
0.009857433 -0.07333082 0.02687231 0.053956393 0.051689394 -0.013854399 0.036599804 -0.0117189195
-0.00044287182 -0.044973575 0.029998887 0.01476189 0.0072380714 -0.009637385 0.023167487 0.014766521
0.023109116 -0.009334073 0.03407219 -0.030455846 0.033579826 0.015589569 0.026644437 -0.022523437
0.029955234 0.07558691 0.033014562 0.029925803 0.02406199 -0.023377387 -0.0016380145 -0.0065074195
0.004134893 -0.033682305 -0.0019921414 -0.00313527 -0.0053822035 -0.023037748 0.00535057 0.012972704
-0.010092601 0.0024696724 0.012607678 -0.0055439505 -0.018976193 -0.0023373857 -0.025145961 -0.012497594
0.0032075613 0.03981918 -8.5332045e-05 -0.0028539752 0.030179342 0.0072466005 0.0064336304 0.02529012
0.018480817 -0.014247273 -0.0029951313 -0.026468897 -0.025024109 0.0021516266 0.009144655 -0.027346987
0.015539394 0.023793353 -0.015847124 -0.014854616 0.002275122 -0.021908106 -0.005011068 -0.02203616
-0.019618705 -0.014455577 -0.023562144 -0.0025187237 -0.040497303 -0.0005069183 0.0017294001 -0.015310631
0.006455299 0.0071620746 -0.01637535 -0.004370265 -0.002136502 0.007847501 0.0012358334 -0.0027578631
0.011316617 0.004666816 0.002262914 -0.009419064 -0.005071021 -0.0077716163 -0.0035284911 -0.008003473
-0.011453976 -0.010837102 -0.005923267 -0.022030901 0.024165794 -0.04629052 0.023871008 -0.025441231
-0.0036161137 -0.022051854 -0.0379213 -0.011962294 -0.042422995 -0.0061528054 0.004650097 -0.0005030352
0.0035708484 0.0033120306 -0.0022972156 -0.027032657 0.0022759635 -0.0030269998 -0.008342027 -0.005719217
-0.013040222 -0.00047220037 -0.008176579 0.006260364 0.015130806 -0.009713036 -0.00035693138 0.049150765
0.026745232 -0.007656388 0.005122175 0.0062956847 -0.014440133 0.018690139 0.02656774 -0.017588345

input.double_conv3d.0.bias f4 [4]
00000000: 8815 e3ba c874 82bb 5cda 8238 dbc6 56b8
-0.0017325142 -0.0039812066 6.239556e-05 -5.1206775e-05

input.double_conv3d.3.weight f4 [4, 4, 3, 3, 3]
00000000: b726 cc3b 10a7 2f3d 1f02 31bd d6d0 4f3d
00000010: 2879 1bbc d840 2c3d a048 aebb 062c fb3c
00000020: 7d32 753c d2e2 923c 9e58 543d fcfe 6b3b
00000030: 23e2 763d 4da3 0dbb 5d4d 073d 41b0 283d
00000040: 3df3 baba 0042 c4bc ab7a 00bd 7f79 dcbc
00000050: 70ed 723c 4723 7d3c bed7 10bd 72ff 33bd
00000060: 17f6 833d 5b2d 04bd 9362 3e3d 9275 9d3d
00000070: 3c12 623d ac03 f43b d6eb 543d 5c1c bd3c
00000080: 4de2 d4bc 3d1e b53c 9b1c 24bd 9011 03bd
00000090: b92e 053d eeae ebbc 920d c3bb 59d8 273d
000000a0: 6400 28bd 6db3 9dbc 0470 623d 6f0f 0e3c
000000b0: 79ee 77bd af13 19bc d052 6bbd af66 7bbc
000000c0: b495 cabc 1217 143c e2c4 4d3c 90eb 7ebc
000000d0: 8dc2 a3bc d243 a5ba 361b 0cbd 4e87 fabb
000000e0: 9127 0c3d b5cc f53c ef2c db3c b8d8 6c39
000000f0: 3f8b 2a3d a16a a1bc abe1 ee3b cbb5 f9bc
00000100: b23e d6ba ecb5 3fbd 5e8a f53c 5f3a 4b3c
00000110: f181 44bc bf96 69bd 578a 63bd e402 03bc
00000120: 1865 843c 11c1 283d 9773 28bd 8efd 96bc
00000130: c9d8 89bb 2e20 17bc 07c5 943c c682 033d
00000140: bf8b 123d 4cfd 87bc 156d 3cbd 14fb e93c
00000150: ce28 133d f91f c63c b526 bb3c ea9b a13c
00000160: 3fd8 5dbd 974e 42bd c784 32bc 28e7 08bc
00000170: 042b e5bc faaf 54bd 93e1 193b 0b27 21bd
00000180: e913 173d 22c2 adbc 0e97 2f3c ecf9 c23b
00000190: 4a93 0a3b 4101 443d 9ba0 213d 5e84 133d
000001a0: add0 3bbd 3cea 443c 970a 8dbb 72a8 a5bb
000001b0: d792 913b 19f1 b63b b92f 103c 70c1 523a
000001c0: 3cd6 37bb 1049 31bb 5f8d 06bb 298d f5ba
000001d0: 0b41 6dbb 4e09 013b 1508 343b 6dd9 1f3c
000001e0: 9b46 1d3a 7ac1 e8ba 3218 45bb a746 7e3a
000001f0: 1aa4 8abb 3ec6 9439 e71e a83b 8102 323b
00000200: 3da1 103c 5ffb 21ba c245 c1ba d9d7 4bbb
00000210: 86f1 0d3b 07bb 89bb e08f 79bb f990 163b
00000220: d7d4 f0ba bfc5 1d3b 69dd 23bb e244 b3bb
00000230: 2f96 03ba 0ea8 83bb 699b 9bbb 0bf8 84b9
00000240: 8046 2bba a98c 6aba b299 9a3a 848b 98ba
00000250: 869e 8cbb 62f7 4dbb 0520 e33a 2800 25bb
00000260: 276c 36bb 7f22 5d3a ad84 703a 18bb 4a3b
00000270: a259 b13a 5bb2 83b9 ce4a 0839 ff80 62bb
00000280: 355c d9ba ce64 63bb 4a23 873c 56b2 2d3c
00000290: 79f9 023c 2950 213b 70e6 823c 148d 0f3c
000002a0: cc84 91bb 8288 ab3b 4973 473c 6ce7 ea3b
000002b0: 791d 663c 5c86 0e3c cf8e 843c c393 8b3c
000002c0: ec43 543c 115b 9f3c f0d0 633c 557f 4c3c
000002d0: 7408 ab3c d181 ab3c 27a9 3c3c dc44 e23b
000002e0: 6d48 a23c d6af 823c 3913 263c f631 823c
000002f0: bae2 6f3c cf73 b73c 8081 b63c 6a10 563c
00000300: 04f3 963c d24b 7d3c ddf7 7b3c b61d bb3b
00000310: 3bd4 4a3c 9b0e 893c a169 a63c 43a0 f33c
00000320: 11b4 bf3c 52b0 933c e0d3 9e3c 8b01 cd3c
00000330: 76b0 563c 71ae a23c 2c98 893c b0cf 103c
00000340: ac71 8e3c 245e 1c3c 7522 423b 5e04 c03b
00000350: 579e 1e3c f41e c93b 2f92 d83b dc0b 213c
00000360: caa0 643d 5897 0ebc 1012 f2bc f30e 8a3d
00000370: c47d 4f3c ef8f 5c3c 5c98 ab3d 5da9 943d
00000380: 2715 983c f7ea a03d 36c5 c8bc 4b90 0c3d
00000390: 85a1 62bd 4905 2cbd 2431 7f3d df06 de3d
000003a0: 6767 1b3d 297c 4f3d 14c9 983d 7e01 0bbd
000003b0: 891d 993c f5ae 763d 825e 963c a042 8bbc
000003c0: fe43 d9bb 6e54 4ebc ef44 05bd 9d70 2fbc
000003d0: f207 8b3d 44f3 ddbc 3636 a43c dc1b 533d
000003e0: eb71 b8bb ca82 a63d abf1 923d ac96 c2bc
000003f0: 3108 e63c 7756 823d f7ae 80bd 65e3 c93d
0.006230201 0.042883933 -0.043214913 0.05073627 -0.009489335 0.042054027 -0.005318716 0.03066064
0.014965651 0.017930422 0.051842324 0.0036010137 0.060274255 -0.0021612227 0.033032764 0.041183714
-0.0014263164 -0.023957253 -0.031366985 -0.026913403 0.014827117 0.015450305 -0.035361998 -0.043944784
0.06443422 -0.032269817 0.046480726 0.076884404 0.05519317 0.007446727 0.051982723 0.023084812
-0.025986815 0.022109145 -0.040066343 -0.03199917 0.03251526 -0.028769936 -0.0059525454 0.04097781
-0.041015998 -0.019250596 0.055282608 0.008670672 -0.06053016 -0.009343072 -0.057452023 -0.015344306
-0.024729587 0.0090387035 0.012559148 -0.015559092 -0.01999023 -0.0012608713 -0.034205638 -0.007645524
0.03421742 0.030004838 0.026754824 0.00022587448 0.0416367 -0.019704165 0.0072900853 -0.030482193
-0.0016345589 -0.046804354 0.029973205 0.0124040535 -0.011993871 -0.05702853 -0.055551853 -0.007996295
0.016161487 0.041199747 -0.04112586 -0.018431451 -0.004206751 -0.009223981 0.018160356 0.032107137
0.035777804 -0.016600274 -0.046002466 0.028562106 0.035927586 0.024185168 0.022845605 0.019727666
-0.054161306 -0.04743823 -0.010895914 -0.008355893 -0.027974613 -0.051925637 0.00234804 -0.039343875
0.036884222 -0.021210734 0.010717167 0.005950203 0.002114492 0.04785276 0.039459806 0.036014907
-0.045853306 0.012018736 -0.004304241 -0.0050554806 0.0044425535 0.0055829403 0.0088004405 0.00080396887
-0.0028051278 -0.0027051605 -0.002053104 -0.0018734086 -0.0036202099 0.0019689384 0.0027470638 0.009756428
0.0005999596 -0.0017757856 -0.0030074236 0.0009699859 -0.004230988 0.00028376462 0.005130637 0.0027162137
0.008827505 -0.000617912 -0.0014745521 -0.0031103997 0.0021658852 -0.0042032036 -0.003808014 0.0022974594
-0.0018373978 0.0024074165 -0.0025003797 -0.005470858 -0.00050196325 -0.0040178364 -0.004748751 -0.00025361808
-0.00065336376 -0.00089473516 0.0011795072 -0.0011638259 -0.0042913584 -0.003142797 0.0017328268 -0.0025177095
-0.002783546 0.0008435621 0.00091750437 0.003093427 0.0013530741 -0.00025119152 0.00012997838 -0.003456175
-0.0016583266 -0.0034697535 0.01649632 0.010601601 0.007994049 0.002461443 0.015979022 0.008761663
-0.0044408794 0.005234779 0.012173482 0.007168701 0.014045113 0.008699026 0.016181378 0.017038232
0.012955647 0.019452604 0.013904795 0.01248153 0.020878054 0.020935925 0.011514938 0.0069051813
0.019809926 0.015952986 0.010136419 0.015892964 0.014641458 0.022394089 0.022278547 0.013065437
0.018426426 0.0154599715 0.015378919 0.005710329 0.012379701 0.016730597 0.02031404 0.029739505
0.023401292 0.018028412 0.01938814 0.02502515 0.013103595 0.01985857 0.016796194 0.008838579
0.017388187 0.009543929 0.0029622589 0.0058598956 0.009681306 0.006137723 0.0066092233 0.009829488
0.055817403 -0.008703075 -0.029549628 0.067411326 0.012664262 0.013462051 0.083786696 0.07258866
0.018564774 0.07857316 -0.0245081 0.034317296 -0.05532982 -0.041997228 0.062302724 0.10841154
0.03794041 0.050655518 0.074602276 -0.03393697 0.018690841 0.060225446 0.018355612 -0.016999543
-0.0066304198 -0.012593372 -0.032536443 -0.010708001 0.06788625 -0.027093537 0.020045381 0.05154024
-0.0056288145 0.08130415 0.07175001 -0.023753487 0.028080078 0.06364148 -0.06283372 0.09857825

input.double_conv3d.3.bias f4 [4]
00000000: 547b 12ba 3423 9ab7 26c6 8339 e0bf 07ba
-0.00055878353 -1.8374623e-05 0.000251339 -0.0005178433

input.shortcut.weight f4 [4, 2, 1, 1, 1]
00000000: 6c26 833e 9e3b 95be 3943 8abe 29ce b33e
00000010: c943 2f3e be6b f0be f20a a13d 11f9 c5be
0.2561525 -0.29147047 -0.27004412 0.35118225 0.17115702 -0.469572 0.07863416 -0.38666585

input.shortcut.bias f4 [4]
00000000: 93c7 3bbd 8729 dabe d3a9 85bc 8f16 e9be
-0.045844626 -0.42609808 -0.01631633 -0.45525023

down1.down_block3d.1.double_conv3d.0.weight f4 [8, 4, 3, 3, 3]
00000000: 02cd ff3c 35f9 213d 7a3d 48bb d994 813c
00000010: 53c8 1abc 9208 f5ba b5aa c13c b7d1 113d
00000020: ee9c bd3c 2328 a5bc c65d 0bbd 2880 643c
00000030: 9c5c 22bd 1194 103d 6c55 16bc f36f 143d
00000040: 647c febc 467e bcbc 51df 883b 4a78 893b
00000050: 7897 203d bd15 c83c b3aa b03c 0c3b e63c
00000060: f421 0ebd 0abe 0aba 1a7f 05bd 1615 9c3c
00000070: 65f2 39bd 6694 c23c 9887 36bd 79de bdba
00000080: 8b09 313d b439 1c3a 2b01 7f3c 3055 aabb
00000090: 7c29 e7bc b0a6 27bd 1a70 493b 6998 20bd
000000a0: 6a98 4abd 7c72 8fbc 1e33 1fbd 5815 16bc
000000b0: 4f5e 5bbb fedb 78bc 9691 eb3a e397 7c39
000000c0: 5118 0a3d 4f3a 28bd c509 85bb 2dee 0d3d
000000d0: 7edf 52bd 5d94 bfbc 7597 0a3c 0847 b6bb
000000e0: 9949 2a3c b461 e5bc 25d3 e2bc ab7a e3ba
000000f0: 124a a23b 74c2 c3bb 70a1 18bc 50ab 323c
00000100: d9a9 ae3b fc94 3b3c 8af0 13bd 37fa 903b
00000110: a47c 703c e1f9 a2bc c5cf 8a3c 2082 f93b
00000120: afec d7ba cb4f 1e3c 57af 043a ea28 f4bc
00000130: 6d33 9f3b 9480 353c aa78 b6bc a92a 09bc
00000140: 36a9 8c3b 572c deba a5ff 2bbc 1a64 0f3d
00000150: a078 7f3c c750 8d3c 32b0 913b 4f0f 0f3c
00000160: 2d4a 843c 9459 e63b c9ea 4fbd 41be 133c
00000170: 69ae ad3b da08 2cbd d0f1 a3bc 76a8 fbbb
00000180: ccb1 08bc a860 50bd ca54 023d 6181 713c
00000190: 9a81 f63c e18f 2fba 970b 45bc df09 bebb
000001a0: d512 193d 93fd 483b 279a 9dbb def7 b6bc
000001b0: 956d 163c f3f3 193c 61da 8f3c 39d7 fb3c
000001c0: 2951 6dbc 277b 373b 3ab6 883c eae9 4cbc
000001d0: 6e3a b4bb 2838 babc b9e8 2ebb def7 9f3c
000001e0: ec8e 4b38 7476 18bc 1491 bcbc f8e7 f7bb
000001f0: 1155 13bd 69bc a0bc 98cb 833b 3fb3 143b
00000200: 5131 cf3b 2292 02bc d38a 62bc 2a55 60bb
00000210: c610 bebc 4e83 93bc 98f2 b2bc 314c 8ebc
00000220: ac43 aebc b11d dfbc 60ef 8cbc 9810 cbbc
00000230: 6e1f c5bc dad0 20bc f3b5 82bc c240 cdbc
00000240: 03e0 90bc c8a0 a8bc 188c dabc 4dc7 72bc
00000250: db3e b5bc 361c 8ebc 9a83 8abc 96bc 4bbc
00000260: 22e7 babc 71d5 98bc b292 a7bc e404 b5bc
00000270: 762b 4bbc 6982 58bc 13ad 9ebc 1b7e 70bc
00000280: 1456 9dbc a80a 83bc 788c dabb b18a d63a
00000290: e0b8 e63b d6ee 253c c653 8b3a 4a83 9939
000002a0: 68d8 8db7 df9f 8e3c b3af 803a c4db 88bb
000002b0: 2284 44bb 4781 4f3c 6e7c 9bbb 6879 5abc
000002c0: 0f02 0f3b cb50 373b 74e2 bfbb 0d35 55bc
000002d0: e17c 69bb 8f08 493c ec14 543c ef98 783b
000002e0: c53a 82ba b55f c53b 3ad1 a0bc 7bf6 7abb
000002f0: af16 75bb 9343 d73b 9038 913a 37d2 74bb
00000300: 3877 34bb 996f 19bb d96e 3bba 4141 f33b
00000310: 9fbb 8ebb ba7f afb9 0c28 afbb 484e c23b
00000320: ee88 d3ba a6e6 3e3c d2de 133b e150 10ba
00000330: 7788 b03a 3604 ab3a 22eb 2e3a ccf5 9e3a
00000340: c95e ad3b a91a 6c3a db6f f5b9 64ed c53a
00000350: 93f0 2fb9 5159 543b a848 cc3a 32a8 333b
00000360: b754 adbc 3081 08b7 95e6 2abd a676 acbc
00000370: eb27 19bb 8de3 b63a 06ae 39bb 0517 bd3c
00000380: 25ae 81b8 06ba 8cbb e035 553b 3e73 5c39
00000390: dc75 233d 73c4 9d3c 9fad 9b3c ac14 913d
000003a0: fbf4 4e3d 8c69 8a3b cc70 3b3b dbd2 0ebd
000003b0: 146d e23b daf8 12bd e1e4 90bb caff f1bb
000003c0: bb58 343c ce11 033d 6e0b 973c d93e bd3c
000003d0: 2052 a8bb 2a4d a63b 744e 6eb8 75c0 fcbc
000003e0: 8fc1 0abd 8419 4cba 8a23 66bc 281e c4b9
000003f0: b25f 39bb 2d6c b1bc c069 e23b be64 d8bc
0.031225685 0.039544303 -0.003055422 0.015818046 -0.009447175 -0.0018694571 0.02364097 0.03560039
0.023146119 -0.02016074 -0.034024976 0.01394657 -0.0396391 0.035297457 -0.00917564 0.036239576
-0.031065173 -0.02300943 0.004177012 0.004195248 0.03920695 0.024424428 0.02156577 0.028104328
-0.03470035 -0.00052926 -0.032591917 0.019053023 -0.04539718 0.023752403 -0.044562906 -0.0014485858
0.04322199 0.0005959526 0.015564243 -0.0051981434 -0.028218023 -0.04093045 0.0030736984 -0.03920785
-0.04946176 -0.017510645 -0.03886711 -0.009160362 -0.003347296 -0.015189169 0.0017972465 0.00024089175
0.033714596 -0.041071232 -0.0040600025 0.03465097 -0.05148267 -0.023386175 0.008458962 -0.005562667
0.010393524 -0.02800069 -0.027688572 -0.0017355283 0.0049526775 -0.0059741084 -0.009315833 0.010905102
0.005330306 0.011449095 -0.036118068 0.004424359 0.014678154 -0.019894542 0.016944775 0.007614389
-0.0016473735 0.009662579 0.0005061528 -0.029804666 0.0048584254 0.011078019 -0.022274334 -0.008371987
0.0042926325 -0.001695047 -0.010497962 0.035007574 0.015592724 0.017250432 0.004446053 0.008731677
0.016148651 0.0070297215 -0.050761018 0.009017528 0.0053003323 -0.04200063 -0.020012766 -0.007679994
-0.008343171 -0.05087343 0.031819142 0.014740319 0.030091096 -0.000669716 -0.012026689 -0.0057995166
0.037371475 0.003066872 -0.004809636 -0.02233499 0.0091814 0.009396541 0.017560186 0.030742275
-0.014484682 0.0027996989 0.016688455 -0.012506941 -0.0055001294 -0.022731856 -0.0026689006 0.019527372
4.8532078e-05 -0.009305585 -0.023018397 -0.0075654946 -0.035969798 -0.019621091 0.004022073 0.0022689847
0.0063230176 -0.007969411 -0.013827044 -0.003423045 -0.023201358 -0.018006947 -0.021844193 -0.017370315
-0.021272503 -0.027235838 -0.017203987 -0.024788186 -0.024062838 -0.009815419 -0.0159559 -0.025055293
-0.017684942 -0.020584479 -0.02667813 -0.014818025 -0.022124698 -0.017347436 -0.016908456 -0.012435099
-0.02281529 -0.018656464 -0.020455692 -0.022097059 -0.012400499 -0.013214686 -0.019369638 -0.014678503
-0.019206084 -0.015996292 -0.006669577 0.0016368238 0.007041082 0.010127744 0.0010629825 0.00029280252
-1.6909282e-05 0.017410217 0.0009817987 -0.0041765887 -0.0029985984 0.012665099 -0.004745058 -0.01333461
0.0021821295 0.002797174 -0.0058558527 -0.013013137 -0.0035627412 0.012270107 0.012944441 0.0037932952
-0.0009935728 0.006023372 -0.019631017 -0.0038293886 -0.0037397554 0.006569335 0.0011079479 -0.0037356743
-0.002753688 -0.0023412465 -0.00071500015 0.0074235504 -0.0043558623 -0.00033473765 -0.00534535 0.005929742
-0.0016138831 0.011651671 0.0022563231 -0.0005505216 0.0013468404 0.001304752 0.0006672611 0.0012127697
0.0052908403 0.0009006658 -0.0004681338 0.0015100655 -0.00016778921 0.003240187 0.0015585618 0.0027413485
-0.02115856 -8.1363105e-06 -0.041723806 -0.02105267 -0.002336974 0.0013953313 -0.0028332486 0.023082266
-6.183636e-05 -0.0042946367 0.0032533333 0.00021023766 0.03990732 0.019258713 0.019003687 0.07084021
0.0505266 0.004224008 0.0028601168 -0.034869056 0.006909976 -0.035881855 -0.0044218157 -0.0073852288
0.011007483 0.0319994 0.018438067 0.023101257 -0.005136743 0.0050751166 -5.6816687e-05 -0.03085349
-0.033875998 -0.00077857845 -0.014046559 -0.000374065 -0.0028285799 -0.021658028 0.006909579 -0.026415225

down1.down_block3d.1.double_conv3d.0.bias f4 [8]
00000000: ad8c 6bb9 6b1f a63a cd58 3939 57b0 72b9
00000010: 0f55 feb9 6c95 8bba 583b 833a 8714 4139
-0.00022463752 0.0012674158 0.00017676056 -0.0002314461 -0.0004851003 -0.001064939 0.0010012193 0.00018413561

down1.down_block3d.1.double_conv3d.3.weight f4 [8, 8, 3, 3, 3]
00000000: db08 3ebc 68ba bcbc fd97 acbc d61d 343c
00000010: 46fb 1dbb 53c4 b4bc 4b39 acbb d34a c3bc
00000020: d4ef 10bc def6 8abb ad3c 333c b2b1 403c
00000030: fc9d 83bc 340a dbbb f4c0 f73b af55 99bc
00000040: 5470 59bc cd8f 243c d0cc 60bc dc47 44bc
00000050: e3ee b639 9245 213b fb30 5a3c 311b 093c
00000060: 8f72 043a 952d 55bc d84b e43b 2709 293c
00000070: aa93 543c 7bc9 2c3c 0b2a d03c 71f3 7f3c
00000080: d4fd 063c f615 353c 5241 6d3c 7ad7 f73c
00000090: f980 a1bc d80e adba 48dc 2bbc 3ca9 f4ba
000000a0: deeb c53c b37a ca3c 4385 71bc 375a 2fbb
000000b0: 8711 11bb 9489 6ebc 2e1b 79bc 14c3 eaba
000000c0: 2855 aabb a68e 83ba ca32 d7bb dace 2e3b
000000d0: 20a6 8ebc 24ab 0bbc 0992 783b e0f2 0a3d
000000e0: 1715 4c3c 3f79 d43a c257 053c 58ae 9b3c
000000f0: 8552 08bb ba67 babc 01a4 6b3c 42e5 703c
00000100: f7b6 243c 5933 193d e6d2 bf3b 33c4 50ba
00000110: 6206 3b39 5043 fa3a a819 01bb 717a 1d3c
00000120: 7153 ae3b 0b13 73bc b450 5e3b ddb5 3e3b
00000130: 3dd4 123b 4f27 9ebc 4490 f2bb 065a 3d3b
00000140: 7c60 17bb bcb6 353c f64f 863c d4c1 283c
00000150: 4049 d13c 421d e33c a5ce 923c 7a09 903c
00000160: c659 913c 66da cd3b f22a 493c 5a7f eabb
00000170: 4089 8bbc ae2e e2bb 5834 483c 7870 03bb
00000180: f1df de3b cbae 263b 31b1 473b 8b63 993c
00000190: b35f 7bbb f9be 00bb 5a24 81bc 0c74 c53b
000001a0: 4851 5dbb 6f6a b13c 0769 88bb 590c 5c3c
000001b0: 8e73 a53b a864 c5bb 5206 44bc c54c 8e3c
000001c0: 277d 323c 9e4a a739 58a4 35bc 4709 0abc
000001d0: 7914 0c3c 847e d83b b7df 543b 642e 263a
000001e0: 7019 ecbb bf0f 1d3c 2c62 fcba 0686 a4bb
000001f0: f3a7 a4bb ac2b 2dbb de17 ca3b 005e 303c
00000200: 5e83 4b3c c8ac e239 df38 c9ba 8996 3fbc
00000210: d0d0 cd3b 8638 263b 6aab d13b 429b bf3b
00000220: 0634 f33c dd2f f33c 2992 cc3c 7159 b53c
00000230: 74ac a03c f4f0 e13c 97fa c23c 4d50 0f3c
00000240: 349d 663c 8836 993c c577 aa3c 7040 f13c
00000250: a26a 22bc 851d 36bb ca5e e83c c8c7 ae3b
00000260: 369e e439 c42b 0439 964e c73c 7ffe f93c
00000270: 508e 6f3c 6474 2f3c 7220 ad3b ec4b c33b
00000280: 148f c23c dc6c bd3b 1c71 c13c c8be debc
00000290: 3420 613b 12fe e43b 0601 15bc 0938 643c
000002a0: 0ff4 983c b689 ae3c c9d1 93bb e770 fabb
000002b0: 9a86 163a ec34 7b3c 79f3 aeba 595b 753c
000002c0: 798c c4bc f980 44bb ac5c 4cbb bf16 923c
000002d0: c00a 89bc db50 fbbb ff62 5f3c 078e 94bc
000002e0: 73ed 50bc 9075 02bc e6f5 20bc abf5 aebc
000002f0: ea9b 59ba 67b6 73bc 0c5d c7bc 6925 90bc
00000300: 49e1 40bc 0133 a0bc 168c 85bc 98a4 8e3a
00000310: 1f05 593b 4edc 5bba a8d6 c93b 858a d9bb
00000320: 47d2 543b 5666 c33b 3f54 a93c 2b4e 313c
00000330: 3941 ac3b 5497 033c 0303 643b d022 2fb9
00000340: a301 703c 33e7 053d 8a2c 093d 6a65 4f3c
00000350: c785 943c 70bd 533c 819d 983c c451 003c
00000360: ac0e 8f3b a7c1 01ba 74f7 8a3b 1dcf 4e3b
00000370: 212f 3cbb ca8a 4eb9 db96 0c3c a062 823c
00000380: 401d 933b 339a d4b9 6f68 493a 3561 ba3b
00000390: 8898 153b 2415 0d38 0b1d 743a 44bc 5c3b
000003a0: 66d7 b33b 5ecc d53b ada5 03bb d406 643a
000003b0: 7aaa 1b39 27e9 0a3c ef30 babb 3659 9bbb
000003c0: a0bd 87bb d9f5 cc3a e500 a23b 8147 72bb
000003d0: 2576 9cbb 5e16 a83b 3f92 cebb e2d3 93bc
000003e0: 2dab 01bc 8880 34bc 2dd9 2ebc 7309 24bb
000003f0: aaa9 6038 9bc5 92b9 f6b2 8dba 35ed 09bc
-0.011598791 -0.023038104 -0.021068567 0.010993442 -0.002410607 -0.022066271 -0.0052558533 -0.02383939
-0.008846242 -0.0042408546 0.010939759 0.011761116 -0.016066544 -0.006684566 0.0075608436 -0.018717615
-0.01327141 0.01004405 -0.013720706 -0.011980023 0.0003489173 0.0024608118 0.013317342 0.008368299
0.0005052471 -0.013011356 0.006967049 0.0103171235 0.012974659 0.010546084 0.025410673 0.015622006
0.008239228 0.011052599 0.014480906 0.030254114 -0.01971482 -0.0013203276 -0.010489531 -0.0018666158
0.024160322 0.02471671 -0.014741245 -0.0026756653 -0.0022135691 -0.014559168 -0.015204234 -0.0017910921
-0.0051981397 -0.0010037019 -0.006567334 0.0026673586 -0.017413199 -0.00852469 0.003792884 0.03392303
0.0124562 0.001621045 0.008138599 0.019004032 -0.0020801139 -0.022754539 0.014382363 0.014703097
0.010053388 0.037402485 0.0058539985 -0.0007963806 0.00017836087 0.0019093547 -0.001969913 0.009611712
0.0053200056 -0.014836083 0.0033922615 0.0029100098 0.0022404336 -0.019305853 -0.0074024517 0.002889277
-0.002309828 0.011090931 0.01639555 0.0103001185 0.025547624 0.027723912 0.017920801 0.017582644
0.017743003 0.0062821386 0.012278305 -0.007156295 -0.01703322 -0.0069025373 0.012219511 -0.002005605
0.0068015982 0.0025433775 0.0030470605 0.018724224 -0.0038356602 -0.0019645079 -0.015764404 0.0060257968
-0.0033770371 0.021657197 -0.004162911 0.013430678 0.0050491756 -0.006023962 -0.0119643975 0.017370591
0.010894096 0.00031908316 -0.011086546 -0.008425063 0.008549803 0.0066068787 0.0032481977 0.000633931
-0.007205181 0.009586274 -0.0019255332 -0.0050208597 -0.005024904 -0.0026423736 0.006167396 0.010764599
0.012421457 0.0004323481 -0.0015352032 -0.011693605 0.006280996 0.002536328 0.006398608 0.0058473656
0.029687893 0.029685909 0.024972038 0.022137376 0.019613482 0.027580716 0.023801131 0.008747173
0.014075566 0.01870276 0.020809064 0.029449672 -0.009913119 -0.002778859 0.028365511 0.0053338744
0.00043605425 0.00012604805 0.024329465 0.030516861 0.014621332 0.010708902 0.005283409 0.0059599783
0.023749866 0.0057807993 0.023613505 -0.027190581 0.003435147 0.0069882954 -0.009094482 0.013929375
0.018671064 0.0213059 -0.0045110923 -0.0076428535 0.0005742103 0.015332442 -0.0013347707 0.014975392
-0.023992764 -0.00299841 -0.0031183166 0.017833112 -0.016728759 -0.007669551 0.013634442 -0.01813413
-0.012751925 -0.007962599 -0.009824252 -0.021357378 -0.0008301126 -0.014875031 -0.02433636 -0.017595964
-0.011772462 -0.01955557 -0.01630215 0.0010882793 0.0033114625 -0.0008387015 0.006159622 -0.0066388273
0.0032473968 0.005963127 0.020670054 0.010821859 0.0052567986 0.008031685 0.0034791834 -0.00016702269
0.014648828 0.032691192 0.03348974 0.012658456 0.018130196 0.012923583 0.018629791 0.007831994
0.0043657627 -0.0004949816 0.0042409245 0.0031556555 -0.0028714614 -0.00019697394 0.008580889 0.015916169
0.004489571 -0.00040550678 0.00076831033 0.0056878575 0.0022826511 3.363671e-05 0.0009312189 0.003368155
0.005488324 0.0065246066 -0.0020087764 0.0008698527 0.0001484546 0.008478439 -0.005682103 -0.0047408594
-0.004142478 0.0015637233 0.0049439543 -0.003696889 -0.004774826 0.0051296195 -0.006304055 -0.01804537
-0.007914347 -0.011016972 -0.010671896 -0.0025030046 5.3563774e-05 -0.00027994518 -0.0010810781 -0.008418371

down1.down_block3d.1.double_conv3d.3.bias f4 [8]
00000000: 502b 133a 6170 8538 9a73 31b8 c082 b5b9
00000010: f37e b639 9c0c 0539 dafe a038 29d8 2ab9
0.0005614059 6.3628664e-05 -4.230775e-05 -0.00034620427 0.0003480833 0.00012688566 7.676864e-05 -0.0001629299

down1.down_block3d.1.shortcut.weight f4 [8, 4, 1, 1, 1]
00000000: 12b2 0b3e 6a33 3dbd db82 0332 d24c 56bd
00000010: d299 d33c 628a 9db1 6ee1 c9bb e3e7 cb3a
00000020: 48a2 c3b7 9128 9fbd 1a9c e93b 25be 66bb
00000030: 901c 0a31 a10f 0e32 42a8 19b6 832b 4fbd
00000040: 093a cfbd 9286 68bd 5337 d1bd 61c9 24ae
00000050: df6b 39b4 e8d8 d13d 7122 5335 5658 2abd
00000060: 9a56 97bd cbfa 3132 ab46 b336 b65c 7830
00000070: 03ce 9eb1 7752 df32 9824 e13d 712a 8c3c
0.13642147 -0.04619161 7.654957e-09 -0.052319355 0.025830183 -4.5850337e-09 -0.0061609065 0.0015556779
-2.332138e-05 -0.07771409 0.0071292045 -0.003520855 2.009788e-09 8.2690415e-09 -2.2896716e-06 -0.050578605
-0.10118491 -0.05676896 -0.102156304 -3.7468143e-11 -1.7268711e-07 0.1024645 7.8653744e-07 -0.04158815
-0.07389565 1.035978e-08 5.3428425e-06 9.0353625e-10 -4.621826e-09 2.5998117e-08 0.10993308 0.017110081

down1.down_block3d.1.shortcut.bias f4 [8]
00000000: a100 f1bb a1b5 ef3d 90d3 75ba 1a3b 9f3d
00000010: d38b 083e 9184 10be bab7 9f3d 5da4 dabd
-0.0073548113 0.11704565 -0.00093775336 0.077749446 0.13334589 -0.1411307 0.07798715 -0.10675881

down2.down_block3d.1.double_conv3d.0.weight f4 [16, 8, 3, 3, 3]
00000000: ef13 7ebb a301 82bb c526 8ebb 418a 9abb
00000010: 5e6d a8bb 51b9 b1bb 1c0e 04bc 83fd c1bb
00000020: 4c75 babb ebc7 60bc 5eb7 93bb 40cf 8ebb
00000030: eeca 943a ff1a 50bc 0a0d aabb 0e5c 85bc
00000040: a75e 473b 858f 07bc 04f5 53bc 6795 2abc
00000050: d3a3 efbb 844d f0bb 7308 45bc 661d febb
00000060: e57b 8dbc d87b 17bc 7257 e8bb 7d62 103c
00000070: ded6 873c 297b 23bb ba7b 043c 3aa0 263c
00000080: 16f9 f93b 1071 cbbb 421a f33b 638f b6bb
00000090: ea28 d53b c48a 603c 776d 003c c5f0 c53b
000000a0: a676 a33b c1ba a33b 9504 2e3c 339e d23b
000000b0: f590 813b af09 313b 525d b9bb cfda 9e3a
000000c0: eb99 c2ba 087f 3b3b 8023 083b f567 183b
000000d0: 73a3 d83b 24c5 8f3a 3fdb a93b 4875 f43a
000000e0: 8841 af3a b0f4 b739 2a0e 8f3b e18c ee3a
000000f0: 3f30 f1ba 1660 e7b9 2a73 a9bb 387e 373b
00000100: 2bdc b03b 040d 34ba 2667 ad3b 29b1 643b
00000110: 4a46 dd3a 842c a43a 3e9d 333c c08e 5bbc
00000120: 8050 bcbb 15fd 9a3b fe00 8bbb ed8a 32bc
00000130: af53 0d3c 6dec 97bb cd55 76b9 ea21 00bc
00000140: 8330 05bc 40b3 79bb e398 faba f488 08bb
00000150: e3d2 9ebc 4d78 34b7 765e 13bb 5c89 8fbc
00000160: 1794 92bc b85e 33bc 1e90 a8bb 521a 8bbb
00000170: 18cf b8bb 66ea 03bc 20bd 65bb 229c d03b
00000180: 9c5d a1bc 086e 58bc 5080 1cbc dd1f a23a
00000190: 23d1 9abc da67 07bc 90ce 4dbc b8ed e1bb
000001a0: 12dd 59bc 8f3c 3ebc 6d2a 1ebc b6c2 daba
000001b0: 0709 633b 5080 223b eef9 603b b256 2c3b
000001c0: eaa9 7b3b d3a0 073b 20e8 913a a615 783b
000001d0: 1bc4 fb39 a28d 823b 59db d63b 1c68 093b
000001e0: 15f4 783b 7407 0b3b 28a7 3eb9 26ac 2e3b
000001f0: 39ca 3f3b 4fe7 233b f2b6 3fba d53b 383a
00000200: d1d4 933a b2c4 083b f71a 083b a321 7d3a
00000210: 532e 1e3b 2516 b83a dae9 70ba c027 fd37
00000220: 5d4d 7f38 64d4 c436 e7d8 0139 dea9 7dba
00000230: 8993 d5b9 cc8b 9aba da96 56ba 5063 08ba
00000240: c331 30ba 4aab 60b9 e135 a8b9 d146 dfb9
00000250: 1c1a 41ba 59e7 19ba 40a9 7439 7907 3aba
00000260: 6dfe 1eba 32aa ba39 87a9 8439 a627 4a38
00000270: 18b0 233a 2717 6239 65ac d9b8 558b 473a
00000280: 2f6f c638 2ee5 d5b7 f2c1 8f3a f556 a5b9
00000290: d12e 9c3b c65d 2b3a 26cc c5b9 f986 5d3b
000002a0: b519 6aba fb22 02ba b82d 75b9 cbb0 2dba
000002b0: 73bd 253a 5c0b 433b ffd7 833a bc12 4c39
000002c0: 8390 b039 e581 ffb9 91fb f63a d928 fd3a
000002d0: 63f9 0ab9 3dbc 3fbb b04d b73b cef0 12bb
000002e0: 725c 9cbb 8914 4c39 6a88 cbbb 890d a03a
000002f0: 8662 a0ba eaae 063c 96c8 f3ba ed1a 07bc
00000300: 8982 83bb 04c1 aaba 30f0 6bba 15cd 8ebc
00000310: d4d4 1dbb 1857 afba 7a38 91bb 76e8 f4bb
00000320: afef 9abb 089b 7bbb d896 be3b 7551 f9ba
00000330: 59da 89bb 2ee0 dcba f3a3 9e3b 7e34 2a3b
00000340: 8d39 b2bb b04e c6bb af94 7fbb 564a 79ba
00000350: 1537 b8bb 7fe8 b5bb 3e7d cfbb d7d2 c1bb
00000360: cfc6 6b3b e1ad 133b de0c 9b39 b2ca 063b
00000370: c823 6b3b e44a 883a 3377 ed3a 1352 9cba
00000380: 5082 103b 60c2 9a3b 9a5c b43a 678f 843b
00000390: d5b8 c93b 0c2f c43b 80e8 743a 5a4f ee3b
000003a0: 7fae 923b 1355 183b 9806 ca39 b079 9bba
000003b0: 9b96 37bb b393 193b 4c1e 813a 2385 fcba
000003c0: 98c8 4d3b ffa2 003b 55ac 7db9 0cdf faba
000003d0: 9907 9038 d5ee ebbb 41df a4b9 2a34 75bb
000003e0: 7cc9 b9bb db81 9e3a b468 6d3b 13f2 92bb
000003f0: 08d1 a1bb 151d 2ebb be96 c2bb b826 3f3b
-0.0038769206 -0.0039674803 -0.004338118 -0.004716188 -0.0051399907 -0.0054237028 -0.008060005 -0.0059201135
-0.0056902524 -0.013719539 -0.004507943 -0.004358202 0.0011351982 -0.012701749 -0.0051895427 -0.016279247
0.0030421407 -0.008273964 -0.012936834 -0.010411597 -0.0073132305 -0.0073334593 -0.01202594 -0.0077549694
-0.017270992 -0.009245835 -0.0070905024 0.008812544 0.016581949 -0.0024945235 0.008086139 0.010170037
0.0076285703 -0.0062085465 0.0074189017 -0.0055712922 0.0065051215 0.013704959 0.007838598 0.006040665
0.004988509 0.004996628 0.01062121 0.00642755 0.003954048 0.0027013829 -0.0056568766 0.0012119653
-0.0014846897 0.0028609652 0.0020773113 0.0023255323 0.0066112815 0.0010968787 0.005183607 0.0018650675
0.001337097 0.00035086786 0.004365702 0.0018199944 -0.0018401219 -0.00044131343 -0.0051711993 0.0027998816
0.00539734 -0.00068683946 0.0052918373 0.0034895635 0.001688191 0.0012525474 0.010962782 -0.0134007335
-0.005746901 0.0047298768 -0.0042420616 -0.01089738 0.008625909 -0.0046363384 -0.00023492351 -0.007820586
-0.008129242 -0.0038101226 -0.001911905 -0.0020833584 -0.019387668 -1.0756846e-05 -0.0022486723 -0.017521553
-0.01789288 -0.010947876 -0.005144133 -0.004245081 -0.005639922 -0.00805149 -0.0035055354 0.0063662687
-0.019697957 -0.013209827 -0.009552076 0.0012369115 -0.018898552 -0.008264506 -0.012561455 -0.0068947934
-0.013297336 -0.011611118 -0.00965367 -0.0016690108 0.0034642832 0.0024795718 0.0034328657 0.0026296792
0.0038400837 0.0020695224 0.0011131801 0.00378547 0.0004802056 0.003984169 0.00655691 0.0020966595
0.003798728 0.002121416 -0.00018182083 0.0026652901 0.0029264821 0.0025009697 -0.0007313333 0.00070279586
0.0011278634 0.0020869193 0.0020768025 0.00096561963 0.0024136498 0.0014044686 -0.000919012 3.017846e-05
6.0868788e-05 5.8659807e-06 0.00012383201 -0.0009676496 -0.00040736448 -0.001179093 -0.0008185931 -0.0005202787
-0.0006721282 -0.00021426115 -0.000320836 -0.00042586637 -0.00073662563 -0.00058709603 0.00023332704 -0.00070964504
-0.0006065134 0.0003560349 0.0002530331 4.819748e-05 0.00062441966 0.00021561664 -0.00010379477 0.00076120096
9.462085e-05 -2.5498299e-05 0.0010967834 -0.0003153604 0.004766323 0.00065371057 -0.0003772687 0.0033802374
-0.0008930222 -0.0004964319 -0.00023382052 -0.00066257705 0.00063224806 0.002976141 0.0010058879 0.00019461935
0.00033677006 -0.0004873417 0.0018843283 0.0019314542 -0.0001325361 -0.0029256486 0.005593978 -0.0022421363
-0.0047717625 0.00019462606 -0.00621133 0.0012211065 -0.0012236394 0.008220414 -0.0018599208 -0.008246166
-0.0040133637 -0.0013027494 -0.00090003293 -0.017431775 -0.0024083154 -0.0013377396 -0.0044317814 -0.0074740006
-0.0047282795 -0.0038391966 0.005816322 -0.0019021468 -0.0042069373 -0.0016851479 0.0048413216 0.002597123
-0.0054389895 -0.0060518607 -0.0038998534 -0.0009509673 -0.0056218007 -0.0055513973 -0.0063320687 -0.0059150266
0.0035976653 0.002253406 0.0002957349 0.0020567593 0.0035879482 0.0010398296 0.0018117189 -0.0011926315
0.0022050329 0.0047228783 0.0013760508 0.004045415 0.006156067 0.0059870537 0.00093425065 0.007272643
0.004476368 0.0023244068 0.00038533355 -0.0011861827 -0.0028013352 0.0023433983 0.0009850948 -0.0019265752
0.003140008 0.0019628403 -0.00024192159 -0.001913996 6.86787e-05 -0.007200102 -0.00031446855 -0.0037415125
-0.0056697708 0.0012093143 0.0036225738 -0.004484424 -0.0049382485 -0.0026567627 -0.00593838 0.0029167365

down2.down_block3d.1.double_conv3d.0.bias f4 [16]
00000000: 2483 9fb1 8081 6eb6 6a5b 24b4 2619 b1b3
00000010: 6758 12b2 205a 0935 c66c b3b4 1524 acb2
00000020: 2419 7fb5 bbde 8634 d205 86b5 6ea2 9932
00000030: a431 f533 ad8b 52b6 c71f 2934 31e4 8235
-4.642418e-09 -3.5540143e-06 -1.5306946e-07 -8.246779e-08 -8.518419e-09 5.1167626e-07 -3.342049e-07 -2.0039844e-08
-9.5031487e-07 2.5121503e-07 -9.985472e-07 1.7885409e-08 1.1417731e-07 -3.137374e-06 1.5750912e-07 9.752167e-07

down2.down_block3d.1.double_conv3d.3.weight f4 [16, 16, 3, 3, 3]
00000000: 96f7 003a bdad 223a 05f1 b0b7 2a74 4d39
00000010: 17dc 8e39 4c57 f039 c4b0 9eba bb4b 85ba
00000020: 48f9 f4b9 980d 36ba bef6 3eba df73 4aba
00000030: df5b 99ba 84e2 76ba 2116 27ba 6f13 ceba
00000040: a8ee ceba 64f8 aeba 1c4f 8aba a72d 07ba
00000050: ae75 8db9 789b ffba 8d59 78ba d087 b4b9
00000060: 7dfd 3bbb 8cc3 0dbb 65b3 a4ba 3d3f 013a
00000070: 9628 9eb9 7566 63b8 8765 843b 0b82 363b
00000080: e9f1 023b 1fa5 c63b 7cc2 b53b be8f 903b
00000090: 2716 5e3a 70d6 9cb8 0aa1 cfb8 ba5e a73b
000000a0: 7ca6 3d3b 84d7 ec3a ae1b 0b3c dfe4 c73b
000000b0: a13f 843b 0367 40bb d2ac 68bb 48bb 95bb
000000c0: 3acf 19ba bd23 e4ba e6e5 2fbb 4a29 093b
000000d0: 172f 0e3a 3877 07ba c068 b2bb 2955 a3bb
000000e0: 97fe 7dbb 83f9 d4bb b38e ccbb 5ad2 a0bb
000000f0: 4bf0 d8bb 64db d9bb e697 b1bb 3b9f a7bb
00000100: 1a47 92bb 2130 4abb fa28 cdbb 6045 c0bb
00000110: 4a91 8bbb ceaa d8bb 4486 d0bb 7863 a2bb
00000120: ab67 a0bb dc05 88bb 42e0 29bb 6f94 bcbb
00000130: 9292 a6bb 04a4 63bb 4886 bfbb 949b b4bb
00000140: 99d9 83bb 2a8d 70ba cedb b839 18c2 4d39
00000150: 29bb 043a 27c3 cb39 4ab7 c8b9 84b8 e53a
00000160: 1129 94bb f21a 173b e73f 1fbb e19a 13bb
00000170: 040b 5eba a2d2 37ba 0289 0eba 8684 10ba
00000180: 9ee7 0ab9 539f bbba 37f2 4fba 7f4e 43bb
00000190: 7fff 72bb 6365 55bb 862c 4dbb 4bd7 68bb
000001a0: 45c3 53bb 248f 7cbb 3032 87bb 23a0 50bb
000001b0: 93fd 86bb 3961 87bb c090 60bb 213f 9ebb
000001c0: 36e1 9bbb 1e57 7fbb 8df2 a1bb b80e a6bb
000001d0: 5d29 8abb 170a adbb fcf9 a8bb 2be2 84bb
000001e0: 9294 cabb 33f5 c2bb fa77 9abb 7f36 c7bb
000001f0: 06c2 cbbb 5dea a2bb a80f aebb 7f75 a6bb
00000200: ecbb 78bb 7134 d5bb 4b6a cbbb 057c 9ebb
00000210: 480d d0bb 26c4 d3bb dd46 b0bb 1a2f 4f3b
00000220: 8540 f53a ada6 fab9 50e1 cd3a dde0 0f3b
00000230: 796a 2a3a 065e a23a bfd5 ca3a b8c9 1b3a
00000240: b24c a63b bd5c 333b 71cc 6d3a 5eea 1e3b
00000250: b42f 553b 1921 913a 9f6d ea3a 84e3 623b
00000260: 5c8a 663a fdec 873a 716f bb3a 0e18 5c3a
00000270: 207a a3b9 3cec ba3a f4d0 ec3a ffd7 33ba
00000280: 3526 f939 1bac 2d3a 2676 cebb 6944 cbbb
00000290: 1d24 a5bb eb6e e7bb 9a91 e9bb add6 c7bb
000002a0: 24c0 e2bb 91f8 eabb c6e0 d0bb f476 e6bb
000002b0: ee22 d8bb 7126 a6bb cebe 03bc eb87 ffbb
000002c0: 7edd cebb 2106 01bc 2052 02bc 42dd dfbb
000002d0: 6140 c4bb 45fb aebb f8ff 83bb 7452 e3bb
000002e0: 9ace d4bb 6105 a2bb a3ef e6bb 18a2 e1bb
000002f0: f92a bbbb 4a7d 673b 8ead c63b 9ac1 423b
00000300: 6f2c 5f3b c4e8 6a3b c425 2f3b cfbb cf3a
00000310: b29d b13a 38e5 193a 6f1f ad3b 8e3a 953b
00000320: f53b 23b9 ada8 b43a 2e1d 923a 0954 313b
00000330: 1b9d 0c3b 8ebc 213b 7a9a 683b 6fa5 913a
00000340: 7d45 7f3a cb8e b83a 118b 393b 4521 4d3a
00000350: 2472 af39 84da acb7 eed4 97b8 ea53 363a
00000360: 2f6c 8739 a6bd be3a b84c 183b 309a 063b
00000370: 697f 723a c1f3 fa3a 4eb7 423b c216 2e3b
00000380: 7dd5 0e3b bbe7 7db9 9865 1e3a 37f0 d43a
00000390: 5963 db3a 5f24 c53a 081a 0a3b 71c5 273b
000003a0: 7020 1b3b eff6 fa3a fa2c 09bb 3cb1 caba
000003b0: 6676 afba c634 84ba 222f 32ba ec1e 2aba
000003c0: f577 91b8 c645 4f39 90cf fcb8 4da3 53bb
000003d0: 81ed 5dbb 2817 38bb 56ac 6fbb 6c9e 7dbb
000003e0: fec3 5bbb c322 6dbb 18f9 7ebb 61be 66bb
000003f0: 0090 98bb 4f70 8fbb 97c2 57bb 6586 b2bb
0.00049197057 0.00062056986 -2.1093068e-05 0.00019593598 0.0002724833 0.00045841408 -0.0012107124 -0.0010169664
-0.00046725036 -0.00069447747 -0.0007284692 -0.00077229546 -0.0011700353 -0.0009417909 -0.0006373842 -0.0015722344
-0.0015787678 -0.0013349173 -0.0010552141 -0.0005156644 -0.00026981294 -0.0019501289 -0.00094737933 -0.00034433464
-0.0028685026 -0.0021631448 -0.0012565671 0.0004930383 -0.00030166347 -5.4216438e-05 0.0040404233 0.0027848508
0.0019980615 0.0060621644 0.005546866 0.0044116667 0.0008471929 -7.478602e-05 -9.900525e-05 0.005107728
0.0028938344 0.00180696 0.008490486 0.0061002816 0.0040359055 -0.0029358275 -0.00355034 -0.004569445
-0.0005867366 -0.001740567 -0.002683991 0.0020929151 0.0005423887 -0.0005167606 -0.005444616 -0.004984517
-0.0038756484 -0.0064994707 -0.006242597 -0.0049078884 -0.006620442 -0.006648468 -0.005419719 -0.0051154173
-0.0044640424 -0.003085144 -0.0062609883 -0.005867645 -0.004259263 -0.0066121584 -0.006363662 -0.0049557053
-0.0048951707 -0.004151089 -0.0025921022 -0.0057549994 -0.0050833905 -0.0034735212 -0.005844865 -0.0055117104
-0.0040237424 -0.00091763085 0.00035258982 0.00019622629 0.00050632894 0.00038864577 -0.00038283534 0.0017526303
-0.004521497 0.0023056832 -0.0024299563 -0.0022522735 -0.00084702694 -0.0007012283 -0.0005437286 -0.00055129116
-0.0001324699 -0.001431445 -0.0007932516 -0.0029801426 -0.0037078557 -0.0032561652 -0.0031307056 -0.0035528715
-0.0032312435 -0.0038537467 -0.004125856 -0.003183373 -0.004119584 -0.004131463 -0.0034265965 -0.004829303
-0.004757072 -0.0038961838 -0.0049422444 -0.0050676726 -0.0042163567 -0.005280744 -0.0051567536 -0.0040552816
-0.0061822617 -0.00594964 -0.0047140094 -0.0060794945 -0.0062181978 -0.004971786 -0.005311925 -0.0050799246
-0.0037953807 -0.0065064956 -0.0062077395 -0.0048365616 -0.0063492395 -0.0064625917 -0.0053795413 0.0031613768
0.0018711245 -0.000478079 0.0015707407 0.0021954097 0.0006500851 0.001238764 0.0015475078 0.0005942839
0.0050750608 0.0027368509 0.00090712967 0.002424858 0.0032529654 0.0011072486 0.0017885453 0.0034620473
0.0008794421 0.0010370311 0.001430018 0.00083959184 -0.00031180773 0.0014261077 0.0018067644 -0.0006860494
0.00047521447 0.0006625072 -0.0063007055 -0.0062032235 -0.0050397054 -0.007062783 -0.0071279528 -0.0060985894
-0.0069198776 -0.0071707447 -0.0063744513 -0.0070332233 -0.006595961 -0.0050705005 -0.008041097 -0.007798185
-0.006313025 -0.007874996 -0.00795415 -0.006831796 -0.00598912 -0.0053400123 -0.0040283166 -0.0069373194
-0.0064943554 -0.004944489 -0.00704761 -0.006885778 -0.00571191 0.003532248 0.00606317 0.0029717446
0.0034053584 0.0035844306 0.002672539 0.0015848818 0.0013551025 0.0005870643 0.005283288 0.0045540994
-0.00015567227 0.001378318 0.0011147612 0.0027058145 0.0021455947 0.0024679038 0.0035492466 0.0011111925
0.00097378326 0.0014080642 0.002831165 0.0007825087 0.00033463642 -2.0605752e-05 -7.239902e-05 0.0006955253
0.0002582981 0.0014552369 0.0023239087 0.002053868 0.0009250553 0.0019146131 0.002971131 0.0026563858
0.002179473 -0.00024214287 0.00060423603 0.0016245906 0.0016737982 0.0015040747 0.0021072645 0.0025599862
0.0023670457 0.0019147078 -0.002093135 -0.0015464197 -0.0013386726 -0.0010086528 -0.00067971845 -0.0006489593
-6.9364825e-05 0.00019767051 -0.00012054958 -0.003229338 -0.0033863487 -0.0028089974 -0.0036571226 -0.0038699163
-0.0033533568 -0.003618405 -0.0038905796 -0.003520869 -0.004655838 -0.004377402 -0.003292238 -0.00544815

down2.down_block3d.1.double_conv3d.3.bias f4 [16]
00000000: 1dcc 0935 8ba6 0236 2d62 6e36 4c72 95b3
00000010: 5db1 3f33 f37a 4834 040f 4034 7bcb b932
00000020: 66a0 b4b4 65f3 3535 2c15 c9b3 10b1 c2b5
00000030: 2a49 8fb6 a41f ff34 e2f3 3335 4a17 5035
5.13335e-07 1.946845e-06 3.552191e-06 -6.959144e-08 4.4631964e-08 1.867118e-07 1.7886856e-07 2.1629367e-08
-3.3644318e-07 6.778194e-07 -9.363643e-08 -1.4505658e-06 -4.2702495e-06 4.7520473e-07 6.703759e-07 7.751993e-07

down2.down_block3d.1.shortcut.weight f4 [16, 8, 1, 1, 1]
00000000: f19d cd3b dbf8 09bd ee09 e9a9 3c77 d5bc
00000010: fe5c 82b9 6052 65b8 984a 4d3c 33ac afbc
00000020: 44b1 1bbc 81e7 172b c4b0 60bc ad7c 873b
00000030: d44e 9a29 e041 d331 ac57 44bb 3d73 6d3b
00000040: 5e20 4b3c 53d4 1ebd 10db 413b c851 50ba
00000050: 1b8e 26ab c681 df32 525f 2b3d 7892 94bc
00000060: 24c7 132d a3c7 99bc 8337 9c3c 7ccb 652d
00000070: aad6 bdb8 0be1 412b 0a21 3b2b a6af 1e3a
00000080: b8c0 beb6 7ae0 4d3a 2888 013d 5e2d 813c
00000090: 17aa 013c 183f d529 7477 193d d82f 0ebd
000000a0: 89f6 1535 fff3 a53b deb4 10bc 39b7 5b3c
000000b0: 6c45 28bc 10ab 3abb ae73 6037 09e1 8cbc
000000c0: 787b 68b2 fe37 74b0 63aa 6a3b ddc7 f3b7
000000d0: baf2 bf3c a3b7 5736 2a57 153b 994a 0034
000000e0: 378c ae39 f537 3a38 4f88 4cba ba48 ba3b
000000f0: 6928 9eb5 ee0c 5fab 3ff8 45b6 8189 943c
00000100: 2f2e 0dbc c066 e2a8 e50b f232 dc93 a33c
00000110: 3742 a23c 4455 bc2a 31d3 113c 870b 49a9
00000120: 74cb b1bc fa1d 4bb2 909b 8336 b3a3 84b9
00000130: dca1 063b 9f05 b62a 80fe b52a 0915 3fbc
00000140: 1f10 8daa 67e7 30b1 8d66 953c f6ca be3c
00000150: d9fc 2fbd 44cf aab5 91a0 512a f61f ca3b
00000160: 2d30 363b 28d8 5b3c 1dc6 653c 3597 102d
00000170: 2141 f33b cc80 b4b8 8c75 87b8 2f57 8636
00000180: f51f 2abd 4e61 0e37 49d6 5eac f589 1eb2
00000190: 508f 453c b6bf 8f29 ea05 b8aa 1978 a23a
000001a0: a9be 7f32 0eee 56b0 d025 58bc 9ca0 b0aa
000001b0: b159 29ab 18cd 19ab aab8 13ad 82e6 34ba
000001c0: 3187 94ab 10d1 972e 4f35 eaa9 8241 e22b
000001d0: 29c5 d3bc 5264 00bd a158 1930 01fa 243d
000001e0: b64c 103a 9e04 dfaa 1c89 10bd 639c 32bb
000001f0: d62c b0bc 404a 53aa 353b 35af 0333 44ab
0.0062749316 -0.033684593 -1.0349001e-13 -0.026057832 -0.00024864817 -5.4674572e-05 0.012529992 -0.021444416
-0.009502713 5.3967253e-13 -0.013714019 0.0041347356 6.852648e-14 6.1483973e-09 -0.0029959483 0.0036232017
0.012397854 -0.038776707 0.0029580034 -0.00079467567 -5.917226e-13 2.6019631e-08 0.04183895 -0.018136248
8.400201e-12 -0.018771952 0.019069439 1.30623255e-11 -9.0522066e-05 6.8879684e-13 6.6481597e-13 0.00060533953
-5.6848767e-06 0.0007853579 0.03162399 0.015768703 0.007914088 9.470045e-14 0.037467435 -0.034713596
5.586558e-07 0.005064487 -0.008832185 0.013410383 -0.010270458 -0.002848331 1.3378374e-05 -0.017197149
-1.3532251e-08 -8.884625e-10 0.0035807125 -2.9060926e-05 0.02343117 3.2144387e-06 0.002278755 1.1948067e-07
0.00033292334 4.439797e-05 -0.0007802294 0.005684939 -1.1783678e-06 -7.924346e-13 -2.9499786e-06 0.018131973
-0.008616968 -2.5135601e-14 2.8177917e-08 0.019967966 0.019806964 3.3454673e-13 0.00890045 -4.4640964e-14
-0.02170346 -1.1822971e-08 3.922214e-06 -0.00025298967 0.0020543253 3.2333595e-13 3.2328654e-13 -0.01166273
-2.5057818e-13 -2.5742908e-09 0.018237377 0.023290139 -0.042965744 -1.2726309e-06 1.8618637e-13 0.006168361
0.002779971 0.013418235 0.014024285 8.219027e-12 0.0074235355 -8.607059e-05 -6.4591964e-05 4.0036607e-06
-0.041534383 8.486515e-06 -3.166705e-12 -9.228178e-09 0.012058094 6.383732e-14 -3.268907e-13 0.0012395411
1.4886305e-08 -7.819104e-10 -0.013192609 -3.1375326e-13 -6.0165333e-13 -5.4641144e-13 -8.396986e-12 -0.00069008034
-1.0553556e-12 6.903822e-11 -1.0400935e-13 1.6076448e-12 -0.02585085 -0.031345673 5.5787025e-10 0.040277485
0.0005504595 -3.961596e-13 -0.035287008 -0.0027253858 -0.021505754 -1.8766325e-13 -1.6482889e-10 -6.970398e-13

down2.down_block3d.1.shortcut.bias f4 [16]
00000000: 53cb 643c dbcf 3cba f0c2 d838 d010 363d
00000010: 437d 7b3b fcf5 363d e9f3 4f39 46eb ed3c
00000020: 4726 4abd 86e0 ab3a d635 883c fc32 893b
00000030: 63bb 67bb c721 223d b9e7 6a3c d955 1bba
0.013964492 -0.0007202604 0.000103359926 0.044449627 0.0038374222 0.044668183 0.00019831922 0.029042851
-0.04935291 0.0013113178 0.016627233 0.004186986 -0.0035359494 0.039582994 0.014337474 -0.0005925573
