simple_3dunet/checkpoints/test/backup/0.003-300/300.pth (torch, 377059 bytes, 49 tensors)

input.double_conv3d.0.weight f4 [4, 2, 3, 3, 3]
0	0x3c9b7f84	0.018981703
1	0xbd177430	-0.03697604
2	0xbd202a1f	-0.03910267
3	0x3ca1b266	0.019738387
4	0xbd312fe6	-0.04325857
5	0xbd65905b	-0.05604587
6	0x3cb26575	0.021776894
7	0xbc7a1dca	-0.015265891
8	0xbd8caef0	-0.06869304
9	0x3cf29c6c	0.029615603
10	0xbd6011dd	-0.054704536
11	0xbd802051	-0.06256164
12	0xbb9698ef	-0.004595868
13	0xbd8ad268	-0.06778413
14	0xbd9df93b	-0.077135526
15	0x3c850b6e	0.016240802
16	0xbd01468d	-0.031561423
17	0xbd82b179	-0.063815065
18	0x3d7858ec	0.060631678
19	0xbc81ba13	-0.015835797
20	0xbc810911	-0.015751394
21	0x3cf09bd6	0.029371183
22	0xbbdc200b	-0.006717687
23	0xbd1649b6	-0.03669139
24	0x3d2afd4c	0.04174547
25	0x3c7fd264	0.015614126
26	0xbcdf4020	-0.027252257
27	0x3cd96b89	0.026540535
28	0xbd3cfd91	-0.046140257
29	0xbd3af54b	-0.045644086
30	0x3cb0284d	0.021503592
31	0xbd2cdb0a	-0.04220108
32	0xbd8144e5	-0.06311969
33	0x3c2f11f5	0.010685434
34	0xbce4faeb	-0.027951678
35	0xbd6a7bbe	-0.057246916
36	0x3d13f2ac	0.0361201
37	0xbd83d8f4	-0.06437865
38	0xbd8e6272	-0.06952371
39	0x3ba533df	0.005041584
40	0xbd850e5e	-0.06496881
41	0xbdb0d799	-0.08634872
42	0x3cbc3132	0.022972677
43	0xbd0b2ea4	-0.033980027
44	0xbd8149bd	-0.063128926
45	0x3d77537b	0.060382348
46	0xbae71126	-0.0017629012
47	0xbc8a79b7	-0.016903741
48	0x3ce0a09b	0.027420333
49	0xbc758a46	-0.01498658
50	0xbd0e0864	-0.03467597
51	0x3d0c7125	0.03428759
52	0x3c5b7f56	0.0133970585
53	0xbcacd45e	-0.021097358
54	0xbe05fa38	-0.13083732
55	0x3dac6742	0.08418132
56	0xbd04420c	-0.03228955
57	0x3d091a36	0.033472262
58	0x3e69470d	0.2278101
59	0x3df20a6d	0.11818395
60	0xbe3a0e6a	-0.18169561
61	0xbb8fea17	-0.0043919194
62	0xbde08a5f	-0.10963892
63	0xbcc29a4a	-0.023755211
64	0x3e671b23	0.22568946
65	0x3d87aac9	0.066243716
66	0x3e3a6059	0.18200816
67	0x3ed3b5fd	0.41349784
68	0x3e90444e	0.28177112
69	0xbdaf69a6	-0.08565073
70	0x3e089a6a	0.13340154
71	0x3c913f34	0.017730333
72	0xbe1efd12	-0.15526226
73	0xbd112675	-0.035437066
74	0xbde79d8a	-0.11309345
75	0xbd68e46e	-0.056858473
76	0x3d784c17	0.06061944
77	0x3b70bac2	0.003673241
78	0xbe3a05eb	-0.1816632
79	0xbd51b500	-0.051198006
80	0xbdd35262	-0.10318448
81	0xbe060628	-0.13088286
82	0x3db122c2	0.08649208
83	0xbcfa35fb	-0.030543318
84	0x3d0c19c1	0.03420425
85	0x3e66bb64	0.22532421
86	0x3df132d4	0.11777273
87	0xbe3b1e6b	-0.18273322
88	0xbc35c4ed	-0.011094314
89	0xbde008e1	-0.109391935
90	0xbcb1e5ab	-0.02171596
91	0x3e674c7f	0.22587775
92	0x3d8ac425	0.06775693
93	0x3e37706d	0.17913981
94	0x3ed3c1fc	0.41358936
95	0x3e906e74	0.2820927
96	0xbdaf80e9	-0.085695095
97	0x3e0649fe	0.13114163
98	0x3c8fe086	0.017563116
99	0xbe263542	-0.16231254
100	0xbd11683c	-0.035499796
101	0xbde95133	-0.11392441
102	0xbd69c682	-0.057074077
103	0x3d813a58	0.06309956
104	0x3b4779df	0.003043763
105	0xbe391c70	-0.18077254
106	0xbd5136e3	-0.051077735
107	0xbdd63e9b	-0.1046116
108	0x3c969144	0.018379815
109	0xbd78c347	-0.060733106
110	0xbda5f259	-0.08102865
111	0x3c28fd18	0.0103142485
112	0xbd4b9001	-0.04969788
113	0xbdb1fd45	-0.086908855
114	0xbc9cf3be	-0.019159194
115	0xbd0f31ac	-0.03495948
116	0xbd8e0df8	-0.06936258
117	0x3ca07e42	0.019591454
118	0xbd8459b4	-0.06462422
119	0xbcfa9257	-0.030587358
120	0xbd44588f	-0.04793602
121	0xbd9a3289	-0.0752917
122	0xbd40e44c	-0.04709272
123	0x3c552afa	0.013010735
124	0xbd13f46e	-0.03612178
125	0xbd03c87f	-0.03217363
126	0x3cda75cf	0.026667504
127	0x3d0e6fd3	0.034774613
128	0xbc1b4156	-0.0094760265
129	0x3d55a21d	0.052156556
130	0x3d1ac162	0.03778208
131	0xbd116dee	-0.035505228
132	0x3d0bbc39	0.03411505
133	0xbbba44a1	-0.0056844507
134	0x3c157f71	0.009124623
135	0x3c83677e	0.01604056
136	0xbda30c35	-0.07961313
137	0xbd480744	-0.048835054
138	0x3bc4e3ae	0.006008587
139	0xbd6934a5	-0.05693497
140	0xbd45fef4	-0.048338845
141	0xbc04133b	-0.0080612255
142	0xbd70cf74	-0.058791593
143	0xbd287894	-0.041130617
144	0xbc9d1e1e	-0.0191794
145	0xbdafe726	-0.0858901
146	0xbd52b72c	-0.051444218
147	0xbd08efd8	-0.033431858
148	0xbd947c35	-0.07250253
149	0xbda5bdc5	-0.08092836
150	0xbbf38144	-0.007431181
151	0xbd4408cc	-0.04785995
152	0xbd16d9af	-0.036828693
153	0x3d4cef4b	0.050032895
154	0x3c9007bc	0.017581813
155	0x3a5a2633	0.0008321732
156	0x3d65fba2	0.05614818
157	0xbac4e6e8	-0.0015022429
158	0xbd13281d	-0.035926927
159	0x3bbcaf22	0.005758182
160	0xbb42465f	-0.0029643995
161	0xbba25d7b	-0.0049549914
162	0xbdebde1d	-0.11516974
163	0x3c334a6a	0.010943035
164	0xbd60eb6c	-0.054912016
165	0xbd17586e	-0.036949567
166	0x3d6b0aa2	0.057383187
167	0xbac2137b	-0.0014806831
168	0xbdf0eab1	-0.11763514
169	0xbd160c0d	-0.036632586
170	0xbdd75db1	-0.10515917
171	0x3d04982c	0.032371685
172	0x3e504221	0.20337726
173	0x3d9e2fa3	0.0772393
174	0x3e1a095c	0.15042633
175	0x3e96a8b5	0.29425588
176	0x3e5c4e75	0.21514304
177	0xbdf80a7a	-0.12111373
178	0x3d36ed1c	0.04465972
179	0xbd83f513	-0.064432286
180	0xbd6a0006	-0.05712893
181	0x3defc580	0.11707592
182	0xbcf716d6	-0.030162256
183	0xbbd3a985	-0.0064594173
184	0x3e4b2276	0.19837365
185	0x3d9bff20	0.076170206
186	0xbe58d06a	-0.21173254
187	0xbd5dcbdd	-0.054149497
188	0xbe01982b	-0.12655704
189	0xbdc6346c	-0.096779674
190	0xbc0b9e11	-0.008521573
191	0xbcde6752	-0.027148876
192	0xbd2bce25	-0.04194464
193	0x3d61477c	0.054999813
194	0x3d3d6248	0.046236306
195	0xbe184ac5	-0.14872272
196	0xbcd38754	-0.025821365
197	0xbde33de9	-0.11095793
198	0x3cf2a6d7	0.029620571
199	0x3e4a3fc3	0.19750886
200	0x3dc1ca2d	0.0946239
201	0x3e0e5ef5	0.1390341
202	0x3ea26e6e	0.31724876
203	0x3e4d0dd0	0.200248
204	0xbdbe1b99	-0.092826076
205	0x3cf48a72	0.029851172
206	0xbd78827a	-0.060671307
207	0xbd8347cd	-0.06410179
208	0x3dfb8ce0	0.12282729
209	0x3c379ba4	0.011206541
210	0x3ba9071e	0.005158319
211	0x3e5ee199	0.21765746
212	0x3de081ff	0.10962295
213	0xbe53b06d	-0.2067277
214	0xbcae4e41	-0.021277549
215	0xbe042e92	-0.1290839

input.double_conv3d.0.bias f4 [4]
0	0x3ac2c789	0.0014860492
1	0xbe336431	-0.17518689
2	0x3b22f9a9	0.0024868047
3	0xbe125a95	-0.14292367

input.double_conv3d.3.weight f4 [4, 4, 3, 3, 3]
0	0x3d262f62	0.04057253
1	0x3d725680	0.059164524
2	0x3d5be9ec	0.053689882
3	0x3d5d00e8	0.053955942
4	0x3da2ee3e	0.07955597
5	0x3d7b7167	0.061387446
6	0x3d89d593	0.06730189
7	0x3da1801a	0.078857616
8	0x3d753792	0.05986745
9	0x3d47f2f6	0.04881569
10	0x3d8b522f	0.06802785
11	0x3d7e6398	0.0621067
12	0x3d6ac5e2	0.057317622
13	0x3daa6933	0.083208464
14	0x3d8ae3e5	0.06781749
15	0x3d8aa571	0.06769837
16	0x3db91d7f	0.09038829
17	0x3d91d5b1	0.071208365
18	0x3ca92f79	0.02065252
19	0x3d34b745	0.044120092
20	0x3d1ed8ab	0.03878085
21	0x3d1942d7	0.03741726
22	0x3d8f101a	0.06985493
23	0x3d50a753	0.050940823
24	0x3d32a869	0.04361764
25	0x3d8e4a13	0.06947722
26	0x3d4621d1	0.048372094
27	0x3b55bad0	0.003261257
28	0xb90c9a67	-0.0001340896
29	0xbc8d3e22	-0.017241541
30	0x3c06348a	0.008191237
31	0x3bbe16b5	0.0058010467
32	0xbc8c019c	-0.017090611
33	0xbc107e6c	-0.008819204
34	0xbbc3b72a	-0.0059727626
35	0xbcf2a4b2	-0.029619548
36	0x3b687b20	0.003547378
37	0x3ac5a7d4	0.0015079924
38	0xbc86e0d0	-0.01646462
39	0x3c178fc7	0.009250588
40	0x3bdb4f47	0.0066928
41	0xbc85b500	-0.01632166
42	0xbc1d8cfa	-0.009616131
43	0xbbaf4fd2	-0.0053500915
44	0xbcef7a06	-0.02923299
45	0x3a5e8d4e	0.0008489684
46	0xba5a6bb0	-0.0008332087
47	0xbc8b964c	-0.01703944
48	0x3bf8d108	0.007593278
49	0x3bc5d02a	0.006036778
50	0xbc8cea81	-0.017201664
51	0xbc2a9129	-0.010410585
52	0xbbe2819e	-0.006912424
53	0xbcfab44d	-0.030603552
54	0x3d51efbe	0.051254027
55	0x3d730ddc	0.05933939
56	0x3d681adb	0.056666236
57	0x3d7aa2e3	0.061190497
58	0x3da6fc46	0.08153586
59	0x3d89e514	0.06733146
60	0x3d81d739	0.063398786
61	0x3d9ba3da	0.075996116
62	0x3d65647d	0.056004036
63	0x3d3d6ae6	0.046244524
64	0x3d5f6468	0.054539114
65	0x3d606b16	0.054789625
66	0x3d6d24cf	0.05789643
67	0x3da443a9	0.08020718
68	0x3d89642c	0.067085594
69	0x3d83f187	0.06442552
70	0x3da6f631	0.08152426
71	0x3d86d873	0.06584253
72	0x3ce3b5b7	0.02779661
73	0x3d0b0200	0.033937454
74	0x3d1a6017	0.037689295
75	0x3d19a742	0.037513025
76	0x3d76f488	0.060291797
77	0x3d4bed3c	0.04978679
78	0x3d4020b6	0.046906196
79	0x3d8279d0	0.0637089
80	0x3d3e4de9	0.04646102
81	0xba8171cb	-0.0009875832
82	0xbb7f0eb4	-0.0038918676
83	0xbca6cadc	-0.020360403
84	0x3c192163	0.009346339
85	0x3babe8da	0.005246264
86	0xbc8bb342	-0.01705325
87	0xbb9b3f4d	-0.0047377707
88	0xbba5f5e4	-0.005064713
89	0xbcbf3787	-0.023341907
90	0x3c510b83	0.012759092
91	0x3c186ea4	0.0093037225
92	0xbc0eaa8c	-0.008707654
93	0x3cbd3118	0.023094699
94	0x3ca0af9b	0.019614985
95	0xbb924727	-0.0044640484
96	0x3c0921d8	0.008369885
97	0x3c04d644	0.0081077255
98	0xbc2a76c1	-0.01040429
99	0xbcbdd0fb	-0.023170939
100	0xbcdd5bd6	-0.02702133
101	0xbd351f98	-0.044219583
102	0xbc54c677	-0.012986771
103	0xbc95bef1	-0.018279525
104	0xbd25bb04	-0.040461555
105	0xbcd7d96d	-0.026348794
106	0xbcdd7ba7	-0.027036501
107	0xbd3af29e	-0.045641534
108	0xbd0c79f6	-0.034296
109	0x3d78480d	0.060615588
110	0x3cfef235	0.031121353
111	0xbcbed1e7	-0.023293449
112	0x3dc0d496	0.094155475
113	0x3ceac064	0.028656192
114	0x3c3add38	0.011405282
115	0x3da24c52	0.07924713
116	0x3caa79f0	0.020810097
117	0xbc62b7dd	-0.013837782
118	0x3db35d50	0.08758032
119	0x3d188364	0.03723468
120	0x3cbca735	0.02302895
121	0x3dde0aeb	0.10841926
122	0x3ced43d9	0.028963016
123	0x3cedb538	0.029017076
124	0x3dcb8dea	0.09939177
125	0xbabda6dd	-0.0014469285
126	0xbd84d05a	-0.064850524
127	0x3c94481d	0.018100793
128	0xbc004de3	-0.00783107
129	0xbd61c93b	-0.05512355
130	0x3d44ebae	0.048076324
131	0xbaafc168	-0.001340908
132	0xbc9b7c0e	-0.018980052
133	0x3d40d4c0	0.047077894
134	0xbbc7bd46	-0.006095561
135	0x38db9510	0.00010470499
136	0x3c046027	0.008079565
137	0xbd297667	-0.041372683
138	0x3b731581	0.0037091675
139	0x3bc1fcde	0.0059200367
140	0xbd1d99c2	-0.038476713
141	0xbb81d5b3	-0.0039622425
142	0xbcb2d46d	-0.021829808
143	0xbd7220d7	-0.05911335
144	0x3cb54f4b	0.022132536
145	0x3ce0724c	0.027398251
146	0xbced9c19	-0.029005097
147	0x3ce14b6c	0.027501784
148	0x3cdc50f0	0.026894063
149	0xbcd15612	-0.025553737
150	0x3c93d08e	0.018043783
151	0xbb06de63	-0.002057933
152	0xbd403c2b	-0.04693238
153	0x3c874f5d	0.016517336
154	0x3c9503a2	0.018190209
155	0xbd16a272	-0.036776014
156	0x3ca97287	0.020684494
157	0x3c958aa8	0.018254593
158	0xbd078282	-0.033083446
159	0x3c2d1f79	0.010566586
160	0xbc141f43	-0.0090406565
161	0xbd5acc66	-0.053417586
162	0xbc4d3656	-0.012525162
163	0x3d1661a0	0.036714196
164	0x3d3339c7	0.043756273
165	0xbc34320f	-0.010998263
166	0x3d8c58f9	0.06852908
167	0x3d3cba1d	0.04607593
168	0x3ca8cb09	0.020604627
169	0x3d842822	0.06452967
170	0x3d06b695	0.032888968
171	0xbcec7c17	-0.028867764
172	0x3d4713d2	0.048602886
173	0x3d2c1f36	0.042021953
174	0xbb8da5e6	-0.004322755
175	0x3dae2888	0.085038245
176	0x3d388580	0.04504919
177	0xbc4e6ff1	-0.012599931
178	0x3d90cbfe	0.070701584
179	0x3c6e41e7	0.0145420795
180	0xbdaaf8ca	-0.08348234
181	0xbceb8d42	-0.02875388
182	0xbc5aa4c7	-0.01334495
183	0xbd9a0b19	-0.07521648
184	0x3c27b3c0	0.010235727
185	0xbc0aa5d9	-0.008462393
186	0xbd367396	-0.044543825
187	0x3c10fd4e	0.008849455
188	0xbcae7d60	-0.021300018
189	0x3c0777a8	0.008268274
190	0x3cb96d54	0.02263514
191	0xbcbb4309	-0.022859113
192	0x3d10a78d	0.03531604
193	0x3cd8112e	0.02637538
194	0xbc9dd98a	-0.01926877
195	0x3cdbff32	0.026855085
196	0xbc0086d8	-0.007844649
197	0xbd06471c	-0.03278266
198	0x3d4eb31d	0.050463784
199	0x3d8225aa	0.0635484
200	0x3c80799c	0.015682988
201	0x3da0e908	0.07856947
202	0x3d8c7765	0.0685871
203	0x3ca18565	0.019716928
204	0x3d8d5ad9	0.069020934
205	0x3d0ed6bf	0.034872767
206	0x3bd06ff5	0.0063610026
207	0xbd19f4d6	-0.03758701
208	0xbce2c1bb	-0.027680269
209	0xbd9f9fa6	-0.077941224
210	0xbc9c973d	-0.019115085
211	0xbcfc8115	-0.03082327
212	0xbda48e7a	-0.08034988
213	0xbd0091d9	-0.03138909
214	0xbd77e0e3	-0.060517203
215	0xbdb35920	-0.087572336
216	0xbdcd09ae	-0.10011612
217	0xbdf1ab9f	-0.11800312
218	0xbdfb6fc6	-0.122771785
219	0xbdea3c16	-0.11437242
220	0xbdcea5e1	-0.10090233
221	0xbe004f38	-0.1253022
222	0xbdd5f5b3	-0.10447254
223	0xbdd684fa	-0.10474582
224	0xbdece7a1	-0.11567617
225	0xbddf0152	-0.10888924
226	0xbdde2647	-0.108471446
227	0xbdfd04ee	-0.12354456
228	0xbdbf16f9	-0.093305536
229	0xbdc753a7	-0.09732752
230	0xbe15dd6f	-0.14635251
231	0xbdb6c69d	-0.08924601
232	0xbe020db4	-0.1270054
233	0xbde79f34	-0.113096625
234	0xbdb9df49	-0.090757914
235	0xbdd37b90	-0.10326302
236	0xbdf54e00	-0.11977768
237	0xbde8fb8f	-0.11376106
238	0xbde519e4	-0.11186579
239	0xbdf2df50	-0.11859
240	0xbdb13f08	-0.086546004
241	0xbddba5c7	-0.10724979
242	0xbdf2deb0	-0.118588805
243	0x3d8d7410	0.06906903
244	0x3deb0fd7	0.114776306
245	0x3e1896e6	0.14901313
246	0x3d1ffd08	0.03905967
247	0x3d611c64	0.054958716
248	0x3e045e82	0.12926677
249	0x3bd197a0	0.006396249
250	0x3d601d2c	0.05471532
251	0x3db67eb6	0.08910887
252	0xbe3dd5d4	-0.185386
253	0xbe279064	-0.16363674
254	0xbdcdbabd	-0.10045383
255	0xbe809d81	-0.25120166

input.double_conv3d.3.bias f4 [4]
0	0x3b05db33	0.0020424842
1	0xbb4860fc	-0.0030575385
2	0x3dffe8ae	0.12495552
3	0xbd2d21a8	-0.042268425

input.shortcut.weight f4 [4, 2, 1, 1, 1]
0	0xbe7fa35a	-0.24964657
1	0x3dad6126	0.08465795
2	0xbef92509	-0.48661068
3	0xbefcb406	-0.49356097
4	0xbdee1ed9	-0.116269775
5	0xbe658203	-0.22412877
6	0x3e8f0ea6	0.27940863
7	0x3e8f8049	0.2802756

input.shortcut.bias f4 [4]
0	0xbe39a8f9	-0.18130864
1	0x3daeff4c	0.08544788
2	0x3f4815cd	0.78158265
3	0xbf05054b	-0.519612

down1.down_block3d.1.double_conv3d.0.weight f4 [8, 4, 3, 3, 3]
0	0x3b4d7cc1	0.0031354877
1	0x39c20a4a	0.0003701023
2	0xbc446687	-0.011987335
3	0x3c326aa5	0.010889684
4	0xbb1d52fc	-0.0024005761
5	0xbc6585ff	-0.014008998
6	0xbae898d2	-0.0017745739
7	0xbc8feaba	-0.017567981
8	0xbd1f3693	-0.038870405
9	0x3d23270a	0.039832152
10	0x3d4a1488	0.049335986
11	0x3cdd299c	0.02699738
12	0x3d5dd33d	0.05415653
13	0x3d456ecc	0.048201367
14	0x3c7362ed	0.014855129
15	0x3d282b57	0.041056957
16	0x3ccdae87	0.025107635
17	0xbcd1abae	-0.025594559
18	0x3d54d9fa	0.05196569
19	0x3d472b7c	0.048625454
20	0x3d12dec5	0.03585698
21	0x3d7c3adc	0.06157957
22	0x3d4ae23c	0.04953216
23	0x3d146a10	0.03623396
24	0x3d491e27	0.04910102
25	0x3d0ead0c	0.034833
26	0x3c5fce76	0.013660064
27	0x3c68c4cb	0.014207075
28	0x3c7c7a0e	0.0154099595
29	0x3bb16208	0.0054132976
30	0x3d0b1b23	0.033961426
31	0x3c0bd851	0.008535461
32	0xbc372bb2	-0.011179851
33	0x3c42217e	0.0118488055
34	0xbc91417c	-0.01773142
35	0xbd4169cc	-0.047220036
36	0x3d87c984	0.06630233
37	0x3da7cbb4	0.0819315
38	0x3d689751	0.05678493
39	0x3db4a32c	0.08820185
40	0x3d973e10	0.07384884
41	0x3d0d6a4f	0.034525212
42	0x3d83ede6	0.0644186
43	0x3d134c13	0.035961222
44	0xbcc87fd7	-0.024475021
45	0x3d79f7b4	0.061027244
46	0x3d7cb6bd	0.06169771
47	0x3d46922f	0.048479255
48	0x3da2e656	0.07954089
49	0x3d72ba30	0.059259593
50	0x3d306360	0.04306352
51	0x3d806bf1	0.06270588
52	0x3d12287f	0.03568315
53	0x3b3aff10	0.0028533377
54	0x3ca5ad78	0.020224318
55	0x3d1540e8	0.036438853
56	0x3d24ccb2	0.040234275
57	0x3d13305e	0.0359348
58	0x3d5a06e1	0.053229216
59	0x3d78e438	0.06076452
60	0x3d027448	0.031849176
61	0x3d41178d	0.0471416
62	0x3d56360d	0.05229764
63	0x3c1b0298	0.009461068
64	0x3ce97cda	0.028501917
65	0x3d0d81f2	0.034547754
66	0x3ce6bb4a	0.028165478
67	0x3d46f434	0.048572734
68	0x3d72682a	0.05918137
69	0x3ce1b5fc	0.027552597
70	0x3d3ca9f9	0.046060536
71	0x3d646674	0.05576177
72	0xbdcf4637	-0.10120814
73	0xbdb18956	-0.08668773
74	0xbdaea76e	-0.085280284
75	0xbdb2e832	-0.08735694
76	0xbd927d64	-0.071528226
77	0xbd870cec	-0.065942615
78	0xbdb5d246	-0.08877997
79	0xbd96a39c	-0.07355425
80	0xbd8ca8ec	-0.06868157
81	0xbd0b8fa1	-0.034072522
82	0xbd3096a7	-0.043112423
83	0xbca25031	-0.019813629
84	0xbd3277a8	-0.043571144
85	0xbd6275c7	-0.055288102
86	0xbd2dde97	-0.042448606
87	0xbd03805b	-0.03210483
88	0xbd0d923e	-0.034563296
89	0xbcd655af	-0.026163904
90	0xbd37c841	-0.04486871
91	0xbd557078	-0.05210921
92	0xbccea3c8	-0.025224581
93	0xbd6d0afd	-0.057871807
94	0xbd8c56b5	-0.068524756
95	0xbd568793	-0.052375387
96	0xbd40a4f1	-0.0470323
97	0xbd4672f9	-0.04844949
98	0xbd19ba57	-0.037531223
99	0xbd21b2cc	-0.039477155
100	0xbd335323	-0.043780457
101	0xbc96375b	-0.018336942
102	0xbd3c203a	-0.04592917
103	0xbd5c2b9f	-0.053752538
104	0xbd224f76	-0.03962656
105	0xbd11fedd	-0.035643447
106	0xbd112134	-0.035432056
107	0xbcdd7a8e	-0.027035978
108	0xbd77720a	-0.06041149
109	0xbd69c86c	-0.057075903
110	0xbd06fc95	-0.032955725
111	0xbd673a20	-0.056451917
112	0xbd56b02d	-0.052414108
113	0xbcd76e24	-0.026297636
114	0xbd8d02df	-0.06885313
115	0xbd6c60c9	-0.05770949
116	0xbd081e56	-0.033232056
117	0xbd45d798	-0.04830131
118	0xbd2f3272	-0.042772718
119	0xbcd71fbf	-0.026260255
120	0xbd40d682	-0.04707957
121	0xbd36bf29	-0.0446159
122	0xbc8fcd92	-0.017554078
123	0xbd76d1e2	-0.060258754
124	0xbd54c223	-0.051942956
125	0xbcb4a9b1	-0.022053571
126	0xbd5b107a	-0.05348251
127	0xbd4d021b	-0.050050836
128	0xbce22487	-0.027605308
129	0xbd50c450	-0.05096847
130	0xbd3fb161	-0.04680002
131	0xbca2c91b	-0.019871285
132	0xbd7591c5	-0.05995347
133	0xbd61434e	-0.054995827
134	0xbcbad077	-0.022804482
135	0xbd6afc58	-0.05736956
136	0xbd0fa4f2	-0.035069413
137	0xbcafe0bc	-0.021469466
138	0xbd753134	-0.059861377
139	0xbd8901a4	-0.06689766
140	0xbc915d05	-0.01774455
141	0xbda95a98	-0.082692325
142	0xbda058da	-0.07829447
143	0xbcf672b4	-0.030083992
144	0xbd60114b	-0.05470399
145	0xbd13c64d	-0.036077786
146	0x3c39ca49	0.011339732
147	0xbd38ff72	-0.045165487
148	0xbd088ab3	-0.0333354
149	0xbcc239d2	-0.023709211
150	0xbd9aff6f	-0.07568251
151	0xbd4b07fc	-0.04956816
152	0xbc9fb5aa	-0.019495804
153	0xbd3427a6	-0.043983124
154	0xbd3cd68e	-0.046103053
155	0xbc94682d	-0.018116081
156	0xbd64d9ca	-0.055871762
157	0xbd841ed8	-0.064511955
158	0xbc584292	-0.013199465
159	0xbd7f8401	-0.062381748
160	0xbd8629b2	-0.065509215
161	0xbc65d21a	-0.014027143
162	0xbd61d554	-0.055135086
163	0xbd3bfe28	-0.04589668
164	0xbce56538	-0.028002366
165	0xbd528f30	-0.051406085
166	0xbcf3aba3	-0.029744929
167	0x3b53e91b	0.0032334987
168	0xbe12cb79	-0.14335431
169	0xbdbe0de8	-0.09279996
170	0xbd6ccdb1	-0.05781335
171	0xbe6de9be	-0.23233697
172	0xbe5012d1	-0.20319678
173	0xbe2d5125	-0.16925485
174	0xbea9e8c8	-0.3318541
175	0xbe894d43	-0.2681676
176	0xbe537346	-0.20649442
177	0xbef4a07f	-0.477787
178	0xbec00bee	-0.37509102
179	0xbe8e9514	-0.27848113
180	0xbe2ca631	-0.16860272
181	0xbd7c8016	-0.06164559
182	0x3bc8d103	0.0061284318
183	0xbe9537ae	-0.29144043
184	0xbe030a9a	-0.12797013
185	0xbbf4104d	-0.0074482323
186	0xbed7bbdf	-0.42135522
187	0xbe66e522	-0.22548345
188	0xbd9ab5e1	-0.07554222
189	0x3d3e860a	0.04651455
190	0xbd46aebd	-0.048506487
191	0x3c490b1e	0.012270717
192	0xbde283b9	-0.1106028
193	0xbe45cf82	-0.19317439
194	0xbe0d5ea0	-0.13805628
195	0xbc76b877	-0.015058628
196	0xbd60436d	-0.054751802
197	0xbb7b82e6	-0.0038377582
198	0xbdb75bc5	-0.089530505
199	0xbe2c35af	-0.16817354
200	0xbd06d8a6	-0.032921456
201	0xbe461fcc	-0.19348067
202	0xbe8733c9	-0.26406696
203	0xbe235c06	-0.15953073
204	0xbd3a420e	-0.04547315
205	0xbda902a6	-0.08252458
206	0x3bab9b98	0.005237054
207	0xbbeab0a0	-0.0071621686
208	0xbd529f1c	-0.05142127
209	0x3d57985b	0.052635532
210	0xbd860b46	-0.06545119
211	0xbe002a6a	-0.1251618
212	0xbd5fb84d	-0.054619122
213	0x3d3768f4	0.044777825
214	0xbc528c8a	-0.01285089
215	0x3c73bf00	0.014877081
216	0xbcb817d9	-0.022472309
217	0xbd16a5e0	-0.036779284
218	0xbd81b718	-0.063337505
219	0xbd191e22	-0.037382253
220	0xbd51d7a2	-0.051231034
221	0xbd751313	-0.059832644
222	0xbd70d404	-0.058795944
223	0xbd86909e	-0.06570552
224	0xbdcf6ec2	-0.10128547
225	0x3cd8194a	0.026379246
226	0x3cecaa23	0.028889721
227	0x3b77cc81	0.0037811103
228	0x3d095c28	0.033535153
229	0x3bf8c673	0.0075920164
230	0x3be5e321	0.0070156013
231	0xbbafa7b4	-0.005360568
232	0xbc64c3e1	-0.013962717
233	0xbce767c4	-0.028247721
234	0x3bfc7c17	0.0077052223
235	0x3a51e23e	0.000800643
236	0xbc811f5f	-0.01576203
237	0x3ccb378e	0.024806764
238	0x3b5e65ce	0.0033935192
239	0xbc2aebb2	-0.010432171
240	0xbc808a93	-0.015691077
241	0xbd02692c	-0.03183858
242	0xbd593736	-0.05303117
243	0xbd14b7e1	-0.036308173
244	0xbd6f7ff7	-0.058471646
245	0xbd55d9bb	-0.052209597
246	0xbd069cf4	-0.032864526
247	0xbcddf17e	-0.027092692
248	0xbd8e5ee8	-0.06951696
249	0xbcdcdddb	-0.026961258
250	0xbdba220f	-0.090885274
251	0xbdacd496	-0.08438985
252	0xbb285025	-0.0025682535
253	0x3c2336ec	0.009961825
254	0x3ca56a04	0.020192154
255	0x3c35f0f7	0.011104814

down1.down_block3d.1.double_conv3d.0.bias f4 [8]
0	0x394b4a93	0.0001938737
1	0x3b29615c	0.0025845384
2	0x382726cb	3.985203e-05
3	0xbb667c18	-0.003516918
4	0x3b05e6f9	0.002043186
5	0xba7abed7	-0.00095651805
6	0x39683559	0.00022145118
7	0xbb2e73ac	-0.0026619239

down1.down_block3d.1.double_conv3d.3.weight f4 [8, 8, 3, 3, 3]
0	0xbdb8061d	-0.08985541
1	0xbdb455bb	-0.08805414
2	0xbdb5a50e	-0.08869372
3	0xbdb86055	-0.09002749
4	0xbdbe5d7a	-0.09295173
5	0xbdb848e0	-0.08998275
6	0xbdafd886	-0.085862204
7	0xbdb5c132	-0.0887474
8	0xbdb42db7	-0.08797782
9	0xbdb9538c	-0.090491384
10	0xbdb3501b	-0.08755513
11	0xbdb37aeb	-0.08763679
12	0xbdba7bbe	-0.09105633
13	0xbdbfb7a4	-0.093611985
14	0xbdb87e7f	-0.09008502
15	0xbdb08e34	-0.08620873
16	0xbdb79c28	-0.08965331
17	0xbdb55ceb	-0.08855613
18	0xbda827b3	-0.08210697
19	0xbd9ff5c2	-0.078105465
20	0xbd9dccee	-0.07705103
21	0xbdaacd28	-0.08339912
22	0xbdb09a9b	-0.08623239
23	0xbda88878	-0.08229154
24	0xbda16748	-0.078810275
25	0xbdaa920e	-0.08328639
26	0xbda71661	-0.08158565
27	0xbd398e6a	-0.045301832
28	0xbda0e83b	-0.078567944
29	0xbdb286c4	-0.08717111
30	0xbd14ef52	-0.036361046
31	0xbd8b4d12	-0.06801809
32	0xbd965e1d	-0.073421694
33	0x3d6d8d7e	0.057996266
34	0x3ce27787	0.027644886
35	0x3c711700	0.014714956
36	0xbb7648bf	-0.003757998
37	0xbd46d6e5	-0.048544783
38	0xbda19f6f	-0.07891738
39	0x3d2b5b0c	0.041834876
40	0xbbe28c30	-0.0069136843
41	0xbd399a50	-0.04531318
42	0x3debab45	0.115072764
43	0x3d7e1022	0.062027104
44	0x3ca7c73a	0.02048074
45	0x3d2beeca	0.041975774
46	0xbc947559	-0.018122362
47	0xbd82ad5a	-0.063807204
48	0x3dad5943	0.08464291
49	0x3c0ffbbf	0.008788048
50	0xbd431317	-0.047625627
51	0x3e0abcc6	0.13548574
52	0x3d47a44f	0.04874068
53	0xbc0b138d	-0.008488548
54	0xbdaaebe4	-0.08345774
55	0xbddf5861	-0.10905529
56	0xbe16a7c0	-0.14712429
57	0xbdbc62b2	-0.09198512
58	0xbdf9a0d3	-0.12188878
59	0xbe1f682a	-0.15567079
60	0xbdcc39aa	-0.09971936
61	0xbdea84ca	-0.11451109
62	0xbe18d7db	-0.14926092
63	0xbda54ca5	-0.080712594
64	0xbe00046d	-0.12501688
65	0xbe319bb8	-0.17344558
66	0xbdb4cf02	-0.08828546
67	0xbe08096e	-0.13284847
68	0xbe34763c	-0.17623228
69	0xbdea3314	-0.11435524
70	0xbe111763	-0.14169078
71	0xbe378f1c	-0.17925686
72	0xbd1638cb	-0.036675256
73	0xbd83aea3	-0.06429794
74	0xbdbf0f1d	-0.093290545
75	0xbd3db6ed	-0.04631703
76	0xbda7c046	-0.0819097
77	0xbddb5e5d	-0.10711358
78	0xbd953811	-0.072860844
79	0xbdc5d909	-0.09660537
80	0xbdfa7e01	-0.122310646
81	0x3c908bde	0.017644819
82	0x3cd31fdc	0.025772028
83	0x3d8b8143	0.06811764
84	0xbbce6f71	-0.006299906
85	0x3cd3513a	0.025795568
86	0x3daf060c	0.08546075
87	0x3d61e3be	0.055148832
88	0x3de80bd1	0.11330379
89	0x3e1e956b	0.15486686
90	0xbdb6084e	-0.08888303
91	0xbd6ea271	-0.058260385
92	0xbb6fb1f9	-0.0036574586
93	0xbdac0cea	-0.08400901
94	0xbbca1fd0	-0.006168343
95	0x3d9289f3	0.07155218
96	0xbd610122	-0.05493272
97	0x3d69f8fd	0.05712222
98	0x3df2a6be	0.1184821
99	0x3b3b6999	0.0028596877
100	0x3c961f8a	0.018325586
101	0x3d08d8f7	0.03341004
102	0x3d164438	0.036686152
103	0x3dca95ce	0.09891854
104	0x3e05e53d	0.13075729
105	0x3c82602a	0.015914995
106	0x3dcb2d38	0.09920734
107	0x3e042b0c	0.12907046
108	0x3d50276d	0.05081885
109	0xbc218a62	-0.009859653
110	0xbc6cdb37	-0.014456562
111	0x3d9344b9	0.07190842
112	0x3b886b31	0.004163169
113	0xbb5b5fea	-0.0033473917
114	0x3dccd978	0.10002416
115	0x3d5645d2	0.05231268
116	0x3d1fb217	0.0389882
117	0xbd2a2a10	-0.04154402
118	0xbd6e5e63	-0.058195483
119	0xbda3c94e	-0.0799738
120	0x3c25a8b4	0.010111023
121	0x3b4c9d5b	0.003122172
122	0xbc56409d	-0.013076928
123	0x3ad55c72	0.0016278161
124	0x3b94d793	0.0045423
125	0xbc28f129	-0.010311403
126	0x3c8856ca	0.016642947
127	0xbb592cd3	-0.003313829
128	0xbd802565	-0.062571324
129	0x3d95227b	0.07281967
130	0x3d63b750	0.055594742
131	0x3c161f43	0.009162727
132	0x3d22478a	0.039619006
133	0x3d0343cc	0.032047078
134	0xbcadb0eb	-0.021202525
135	0xbd1e2cd0	-0.038616955
136	0xbdf5bdf4	-0.11999121
137	0xbdb2dc9d	-0.08733485
138	0xbdf46bbb	-0.119346105
139	0xbe276a8d	-0.1634924
140	0xbd9aa0f2	-0.07550229
141	0xbc9cfc7c	-0.019163363
142	0xbd24da73	-0.040247392
143	0x3d43d697	0.04781207
144	0xbdedeebc	-0.116178006
145	0xbe229428	-0.1587683
146	0xbd4d8520	-0.050175786
147	0xbe1d879f	-0.15383767
148	0xbe1c69ee	-0.15274784
149	0xbc3cb39e	-0.011517433
150	0xbd5ee536	-0.05441781
151	0xbd1869c7	-0.037210252
152	0x3dbf12a8	0.0932973
153	0xbcd96d37	-0.026541336
154	0xbd50c3b7	-0.0509679
155	0x3c38842d	0.011261982
156	0x3cbe4685	0.023226986
157	0x3cb19589	0.02167775
158	0x3db61401	0.08890534
159	0x3d43f72c	0.047843143
160	0x3d6fe1a5	0.0585648
161	0x3e03ef3a	0.12884226
162	0x3c4b65e6	0.012414431
163	0xbb1dbc72	-0.002406862
164	0x3c5cabaa	0.013468662
165	0x3c261444	0.010136668
166	0x3b3bf6ca	0.0028681033
167	0x3ca8ee5f	0.020621477
168	0x3cc41217	0.023934407
169	0x3d097469	0.033558283
170	0x3d3720da	0.044709064
171	0xbd02b08a	-0.031906642
172	0xbcb8c621	-0.022555413
173	0xb9402857	-0.00018325575
174	0xbce74887	-0.028232826
175	0x3b307c76	0.0026929653
176	0x3d078d1b	0.033093553
177	0xbceb1f77	-0.028701527
178	0x3ca92b66	0.020650577
179	0x3d45c751	0.048285786
180	0x3c9853c5	0.018594632
181	0x3d00def1	0.031462613
182	0x3d28b65f	0.041189548
183	0x3ca249f9	0.019810664
184	0x3d7b3971	0.061334077
185	0x3dae7249	0.08517892
186	0xbbed2d23	-0.0072380467
187	0x3d5fcefe	0.054640763
188	0x3da12b95	0.07869641
189	0x3cbf510b	0.023354074
190	0xbdc09370	-0.094031215
191	0xbdd67d01	-0.10473061
192	0xbd4ad9c5	-0.049524087
193	0xbe1145f4	-0.14186841
194	0xbdb13bd2	-0.08653988
195	0xbda65592	-0.0812179
196	0xbdef134b	-0.11673602
197	0xbc999766	-0.01874895
198	0xbdbfbe0e	-0.09362422
199	0xbe3737e6	-0.17892417
200	0xbe0ab1da	-0.13544407
201	0xbe3ed963	-0.18637614
202	0xbe864c28	-0.26229978
203	0xbe1c1f64	-0.1524635
204	0xbe468880	-0.19388008
205	0xbe3fe874	-0.18741018
206	0xbd3b5543	-0.04573561
207	0xbdc86f8b	-0.097869
208	0xbdfae2b1	-0.12250269
209	0xbd9f2720	-0.077711344
210	0xbe0ae411	-0.13563563
211	0xbe10ae61	-0.1412902
212	0xbd5844de	-0.052800052
213	0xbe354a89	-0.17704214
214	0xbe0e1e5d	-0.1387877
215	0xbc899422	-0.016794268
216	0xbcb31f6d	-0.02186557
217	0xbcd38e7b	-0.025824776
218	0x3bd25d6c	0.006419828
219	0xbd225a9c	-0.039637193
220	0xbd249aca	-0.04018668
221	0xbbd53835	-0.0065069445
222	0xbcaa7d79	-0.020811783
223	0xbcb3996f	-0.021923749
224	0x3b2e3ec8	0.0026587714
225	0xbc98b6f8	-0.018641934
226	0xbcc5ced7	-0.02414648
227	0x3c0318da	0.008001531
228	0xbd16da46	-0.036829256
229	0xbd170cbf	-0.03687739
230	0xbb223e63	-0.0024756424
231	0xbc8692ab	-0.016427359
232	0xbc93a845	-0.018024573
233	0x3bf4189c	0.0074492227
234	0xbcc23204	-0.02370549
235	0xbcf4ca88	-0.02988173
236	0x3b25ec79	0.002531795
237	0xbd3093b0	-0.043109596
238	0xbd34d8ce	-0.044152074
239	0xbc1f6ccf	-0.009730532
240	0xbcb9496a	-0.022618014
241	0xbcd0d832	-0.025493715
242	0x3aa99721	0.0012938717
243	0x3daa92a2	0.08328749
244	0x3dc55739	0.09635777
245	0x3dcdd086	0.10049538
246	0x3dc84741	0.097792156
247	0x3e0c56f6	0.13705048
248	0x3e221aee	0.15830585
249	0x3db3adde	0.08773397
250	0x3e11bd42	0.14232352
251	0x3e332190	0.17493272
252	0x3e01bcb0	0.12669635
253	0x3e187dae	0.14891693
254	0x3df4016a	0.11914332
255	0x3e23e3cf	0.16004871

down1.down_block3d.1.double_conv3d.3.bias f4 [8]
0	0x3aa2f54a	0.0012432721
1	0x3b2b6744	0.002615408
2	0x395f5270	0.00021297648
3	0xba2de764	-0.0006633906
4	0x39d3f285	0.00040425747
5	0xbb91d215	-0.0044500926
6	0xbb39550d	-0.0028279454
7	0x3a360979	0.00069441606

down1.down_block3d.1.shortcut.weight f4 [8, 4, 1, 1, 1]
0	0xb966b2b6	-0.00022001084
1	0x38c7eb45	9.532882e-05
2	0xba6b8d18	-0.0008985563
3	0x3982d95e	0.00024957483
4	0x385f0749	5.3174128e-05
5	0x39848faa	0.0002528404
6	0x3a184e1e	0.000580998
7	0xb998ae4c	-0.0002912156
8	0xba7ed03b	-0.000972036
9	0xb9b902ef	-0.00035288135
10	0xba88ee5f	-0.0010447017
11	0xb97c972e	-0.00024088912
12	0x38ef1b9c	0.00011401551
13	0x387c70d4	6.018656e-05
14	0x389b8967	7.416569e-05
15	0x388d0573	6.724419e-05
16	0x39acd9ab	0.00032968572
17	0x35592210	8.0888367e-07
18	0x3a366bd8	0.0006958819
19	0x3a242589	0.00062616967
20	0xba44fe3e	-0.00075146917
21	0xb8cafeb0	-9.67955e-05
22	0xba90d3de	-0.001104947
23	0xba2cc42d	-0.0006590512
24	0x39d603ab	0.00040819994
25	0x3a808cf4	0.0009807632
26	0x3aefa70f	0.001828404
27	0x3adf973a	0.0017058619
28	0xba1d6525	-0.00060041464
29	0xb8862d8f	-6.398104e-05
30	0xba8e0cc7	-0.0010837548
31	0xbad3ccfe	-0.0016159115

down1.down_block3d.1.shortcut.bias f4 [8]
0	0x3ea8364d	0.32853928
1	0xbca0af93	-0.01961497
2	0x3e9b190c	0.30292547
3	0x3d909c29	0.07061035
4	0x3f125ee6	0.57176054
5	0x3e0804c3	0.13283066
6	0x3ddfca32	0.109272376
7	0x3ecbd576	0.39811295

down2.down_block3d.1.double_conv3d.0.weight f4 [16, 8, 3, 3, 3]
0	0xbd434f52	-0.047683068
1	0xbd748c85	-0.059704322
2	0xbce97f10	-0.028502971
3	0xbd689be4	-0.056789294
4	0xbd9827a9	-0.074294396
5	0xbd42d7da	-0.047569133
6	0xbcf1590e	-0.02946141
7	0xbd0b347d	-0.033985604
8	0xbb91f0f3	-0.004453772
9	0x3d4262ea	0.047457613
10	0xbb1dd3c3	-0.0024082519
11	0x3d414499	0.04718456
12	0xbc5e9b55	-0.013586839
13	0xbd4b5650	-0.04964286
14	0x3c3e4059	0.011612021
15	0x3cbc4e68	0.022986606
16	0x3cb4ed10	0.022085696
17	0x3da138e8	0.07872182
18	0xbd0f125e	-0.034929626
19	0xbd624031	-0.055237
20	0xbc8c08fe	-0.017094132
21	0xbd580c66	-0.0527462
22	0xbd87281d	-0.06599448
23	0xbcf99f00	-0.030471325
24	0xb98df2be	-0.00027074473
25	0xbbb88a7a	-0.005631742
26	0x3aa6c648	0.0012723887
27	0xbdcb6baa	-0.09932645
28	0xbd46ac4e	-0.048504166
29	0x3c0b48a4	0.008501206
30	0xbe01c0f6	-0.12671265
31	0xbdb66de3	-0.08907678
32	0xbd24a511	-0.040196482
33	0xbdbc2a0e	-0.09187709
34	0xbd8380f5	-0.06421081
35	0xbc1e511d	-0.009662894
36	0xbd16f32b	-0.036852997
37	0x3cc8a803	0.024494177
38	0x3daad42c	0.0834125
39	0xbd9de333	-0.077093504
40	0xbd1ef70b	-0.038809817
41	0xb7d45536	-2.5312049e-05
42	0xbd00a769	-0.031409655
43	0xbc3e12a2	-0.011601122
44	0x3cbb1e31	0.022841545
45	0x3bf9d3b2	0.007624113
46	0x3d7d71c4	0.061876073
47	0x3ddce92b	0.10786661
48	0xbcdb8a9b	-0.02679949
49	0xbb2be07e	-0.0026226337
50	0x3c27ce3b	0.01024204
51	0x3c9a271e	0.01881748
52	0x3c50288e	0.0127049815
53	0x3bf80fd1	0.007570245
54	0xbd36b670	-0.04460758
55	0xbc86d1ee	-0.016457524
56	0xbd90ba5f	-0.070667975
57	0x38f053d9	0.0001145971
58	0x3d027572	0.031850286
59	0xbc85fb75	-0.016355256
60	0xbc8ddddb	-0.017317703
61	0x3c449640	0.011998713
62	0xbcf17126	-0.029472899
63	0xbd005a47	-0.031336095
64	0xbb9e50b6	-0.004831399
65	0xbda59f26	-0.08086996
66	0x3d1e3a38	0.03862974
67	0x3d9782fc	0.0739803
68	0x3c13e0a4	0.0090257265
69	0x3cd71b1f	0.02625805
70	0x3d84025a	0.06445761
71	0x3c687a54	0.014189322
72	0xbe0200c7	-0.12695609
73	0xbdf1a104	-0.117982894
74	0xbe3001f3	-0.17188244
75	0xbdb817a7	-0.08988886
76	0xbd49645b	-0.049167972
77	0xbd9671df	-0.07345938
78	0xbdaf59cd	-0.0856205
79	0xbccd327d	-0.025048489
80	0xbd0ab5f9	-0.03386495
81	0xbdbe2a84	-0.09285453
82	0xbbd9db57	-0.006648462
83	0xbcd7828c	-0.026307367
84	0x3b9a7df9	0.004714724
85	0x3d955124	0.07290867
86	0x3ceb7a38	0.028744802
87	0xbbf45da8	-0.0074574538
88	0x3cce822a	0.025208551
89	0xbd04142e	-0.032245807
90	0xbdc4e33f	-0.09613656
91	0xbc4b6f3c	-0.012416657
92	0xbd64c00d	-0.055847216
93	0x3d000559	0.0312551
94	0x3dc2f28c	0.095189184
95	0x3cc9cf3c	0.02463495
96	0x3cd44068	0.025909618
97	0x3d46188d	0.048363257
98	0xbd123223	-0.035692345
99	0xbe31eb53	-0.17374925
100	0xbdfcbd1e	-0.12340759
101	0xbe3140a9	-0.17309822
102	0xbdbabf2e	-0.09118496
103	0xbd546985	-0.051858444
104	0xbdddd940	-0.10832453
105	0xbdc409c7	-0.095721774
106	0xbda555ad	-0.08072982
107	0xbe0adcb7	-0.13560759
108	0xbc90cdbc	-0.017676227
109	0x3b2cd214	0.0026370334
110	0x3d559f08	0.052153617
111	0xb8b614c7	-8.682306e-05
112	0xbb351818	-0.002763277
113	0x3d1f8ea1	0.03895438
114	0x3d04d9e0	0.032434344
115	0x3cdea74d	0.027179385
116	0x3d8e7771	0.069563754
117	0x3dc1ec76	0.094689295
118	0x3d868296	0.06567876
119	0x3de755e2	0.11295678
120	0x3d94e626	0.0727046
121	0x3ce673a2	0.02813131
122	0x3dae8022	0.08520533
123	0x3df37cc7	0.11889034
124	0x3dc0ce42	0.094143406
125	0x3e1eb610	0.15499139
126	0xbcc101db	-0.023560455
127	0xbd39098c	-0.04517512
128	0xbca523d3	-0.020158684
129	0xbcac9c6f	-0.021070687
130	0xbd5eff97	-0.05444297
131	0xbd136d73	-0.03599305
132	0x3d131449	0.035908017
133	0x3b90878d	0.00441069
134	0xbb18af2b	-0.0023297768
135	0xbe098214	-0.13428527
136	0xbd9deae8	-0.077108204
137	0xbcfdb2cb	-0.030969044
138	0xbe0bf079	-0.13665952
139	0xbdbca29b	-0.09210702
140	0xbd6d284a	-0.05789975
141	0xbe06ff79	-0.13183393
142	0xbdc1e2d3	-0.094670914
143	0xbd6a8421	-0.057254914
144	0xbd98aea6	-0.074551865
145	0xbc963642	-0.018336419
146	0x3ce92e37	0.02846442
147	0xbdd7d49c	-0.10538599
148	0xbd985bd6	-0.07439391
149	0xbd46ab44	-0.048503175
150	0xbdec183f	-0.11528062
151	0xbdc330c7	-0.09530788
152	0xbd94f486	-0.07273202
153	0xbd2e3b71	-0.042537156
154	0x3aa5496b	0.0012610381
155	0x3cc23810	0.023708373
156	0xbd8bbc5c	-0.06823036
157	0xbd760ae0	-0.060068965
158	0xbd8b49a9	-0.06801159
159	0xbdb64502	-0.08899881
160	0xbdcb69de	-0.09932302
161	0xbde490d6	-0.11160438
162	0x3d0dbf91	0.03460652
163	0x3c854765	0.016269395
164	0xbc44e720	-0.012017995
165	0xbcf97540	-0.030451417
166	0xbc877d07	-0.01653911
167	0xbcfcc5b9	-0.030856
168	0xbdd661f4	-0.10467902
169	0xbd77e6f9	-0.060523007
170	0xbd87d2f8	-0.06632036
171	0x3d758df1	0.05994982
172	0x3d6ccfc6	0.057815336
173	0x3d6fe492	0.05856759
174	0xbc9d24b2	-0.019182537
175	0x3b330b46	0.0027319952
176	0x3c96d053	0.018409884
177	0xbde46361	-0.111517675
178	0xbd8c81c3	-0.068606876
179	0xbd63bd70	-0.055600584
180	0xbd3dbde7	-0.046323683
181	0xbca06199	-0.019577788
182	0x3cac697a	0.021046389
183	0xbda6ac67	-0.08138352
184	0xbd0ef38f	-0.034900244
185	0x3c4cab23	0.012491974
186	0xbe2357c8	-0.15951455
187	0xbdceead9	-0.101033874
188	0xbd82ca82	-0.063862815
189	0x3c99f818	0.018795058
190	0x3da34dfa	0.07973857
191	0x3e479b91	0.19492938
192	0x3c99e0f2	0.01878402
193	0x3d136d79	0.035993073
194	0x3dfb0bfa	0.12258144
195	0x3da279f9	0.07933421
196	0x3da2ee8c	0.079556555
197	0x3e228c1e	0.15873763
198	0x3e32c134	0.17456514
199	0x3e5f9932	0.21835783
200	0x3eac9941	0.33710673
201	0x3df1c8df	0.11805891
202	0x3dd4f3ed	0.10398088
203	0x3e340821	0.17581226
204	0x3e1d3735	0.15353091
205	0x3dfb70e8	0.122773945
206	0x3e4435db	0.19161169
207	0x3dfbc7b0	0.12293947
208	0x3df49897	0.11943167
209	0x3e279ff3	0.1636961
210	0x3da4a03b	0.08038374
211	0x3cd4587c	0.025921099
212	0x3cd5d732	0.02610359
213	0x3e07b854	0.1325391
214	0x3d37722d	0.04478662
215	0x3bf75491	0.007547923
216	0xbd8581b8	-0.065188825
217	0xbd8fb960	-0.07017779
218	0xbdea218e	-0.11432181
219	0xbd0f50b4	-0.034989074
220	0xbd5c88d9	-0.053841446
221	0xbde7f79b	-0.11326524
222	0xbd453db9	-0.048154566
223	0xbdc370d7	-0.09543007
224	0xbe1f81f3	-0.15576915
225	0xbca0e4f6	-0.019640427
226	0x3c1545ef	0.009110912
227	0xbd8e849d	-0.06958888
228	0x3c9c3434	0.019067861
229	0x3d1ce83b	0.03830741
230	0xbd8c0857	-0.06837528
231	0xbc954767	-0.018222524
232	0xbd8951cb	-0.06705054
233	0xbe252cfb	-0.1613044
234	0x3d003a59	0.031305645
235	0x3d650d54	0.055920914
236	0xbb4db52e	-0.003138851
237	0x3ccdde33	0.025130367
238	0x3cca5109	0.024696844
239	0xbd135454	-0.035969093
240	0xbcd381d7	-0.025818748
241	0xbd77ec34	-0.060527995
242	0xbdb1aee6	-0.08675937
243	0x3e9eea44	0.31038105
244	0x3e985f6f	0.2976031
245	0x3e914813	0.283753
246	0x3e7a4d2e	0.24443504
247	0x3e9910fe	0.29895777
248	0x3ec57159	0.3856304
249	0xbbebaa25	-0.0071919137
250	0x3de2d04a	0.11074884
251	0x3e72b37f	0.23701285
252	0x3e7bf1ea	0.24604002
253	0x3e82a03e	0.2551288
254	0x3e8cee85	0.27525726
255	0x3e7294f4	0.23689634

down2.down_block3d.1.double_conv3d.0.bias f4 [16]
0	0xb98de65c	-0.00027065247
1	0xb7a814e2	-2.0036885e-05
2	0xb7de307b	-2.6487038e-05
3	0x391b4359	0.00014807041
4	0xb743d4cd	-1.1672452e-05
5	0x3865d55a	5.4796554e-05
6	0xb88b656f	-6.64693e-05
7	0x377e5738	1.5159887e-05
8	0xb8e7d4d8	-0.000110545836
9	0xb6bf6ddc	-5.705033e-06
10	0xb39f1460	-7.407721e-08
11	0xb7a49f47	-1.9624493e-05
12	0x39824b02	0.00024851417
13	0xb71c57ec	-9.3187955e-06
14	0xb99fc4e3	-0.00030473535
15	0x3870ba8e	5.73942e-05

down2.down_block3d.1.double_conv3d.3.weight f4 [16, 16, 3, 3, 3]
0	0x3d2bf5aa	0.04198233
1	0x3d6e4ceb	0.058178823
2	0x3d25454e	0.040349297
3	0x3d882f8c	0.06649694
4	0x3d841635	0.06449548
5	0x3d05b7ef	0.032646116
6	0x3d55670e	0.052100234
7	0x3d1426b7	0.036169734
8	0x3b8dcda8	0.0043274947
9	0x3db4816d	0.088137485
10	0x3d6acd7b	0.057324868
11	0xbbdb3404	-0.0066895504
12	0x3d8858bf	0.06657552
13	0x3d05c6d4	0.03266032
14	0xbcc50790	-0.024051458
15	0x3c936c87	0.017996086
16	0xbc3cfddd	-0.011535135
17	0xbd629acb	-0.055323403
18	0x3d1979f3	0.037469815
19	0xbab25edb	-0.0013608591
20	0xbd534fbd	-0.051589716
21	0x3c7bc192	0.015365975
22	0xbc12faa4	-0.00897089
23	0xbd58a7d7	-0.05289444
24	0xbc8e9f3f	-0.017409919
25	0xbd0d4cb8	-0.034496993
26	0xbd9c9265	-0.0764511
27	0xbc08485c	-0.008318033
28	0xbc1e5454	-0.00966366
29	0xba836044	-0.0010023196
30	0xbb15183b	-0.0022750038
31	0xbb83a95c	-0.004017992
32	0x3aa7ef4e	0.0012812407
33	0x3c5c0612	0.013429182
34	0x3c1d4d2f	0.0096009215
35	0x3c3543c5	0.011063521
36	0xbcf0c024	-0.029388495
37	0xbd0ac5e2	-0.033880122
38	0xbc5ed944	-0.013601605
39	0xbc8fd060	-0.017555416
40	0xbc8eb0ae	-0.017418232
41	0x3a90577e	0.0011012403
42	0x3c27d642	0.010243954
43	0x3bdebd9b	0.006797505
44	0x3cb408e3	0.021976894
45	0xbd00ccf7	-0.03144547
46	0xbccc9b22	-0.024976317
47	0xbbf3da8f	-0.0074418257
48	0xbb7f41d6	-0.0038949153
49	0xbb99993b	-0.004687456
50	0x3b8f06b4	0.0043648127
51	0x3d13aa4a	0.036051072
52	0x3ccd033a	0.025025953
53	0x3cb207e5	0.02173228
54	0xbc5d8e05	-0.01352263
55	0xbcaab218	-0.020836875
56	0xbca4a8d4	-0.020100035
57	0xbcc9c5f7	-0.02463053
58	0xbcb8737d	-0.022516007
59	0xbba897f2	-0.0051450664
60	0xbcbdee8e	-0.02318504
61	0xbbf6525d	-0.0075171427
62	0x3c8b55bc	0.017008655
63	0xbcd3febe	-0.025878306
64	0xbbc878dd	-0.0061179237
65	0x3c1b9cf1	0.009497867
66	0xbcac0dcd	-0.021002674
67	0x3b948dc4	0.0045335013
68	0x3c977f20	0.018493235
69	0x3bf15625	0.0073650056
70	0x3cff37e2	0.031154577
71	0x3d11b3c8	0.035571843
72	0x3d8a1ac9	0.0674339
73	0x3dae870c	0.08521852
74	0x3d892e73	0.066983126
75	0x3dab0ff3	0.083526514
76	0x3db3d31c	0.087805
77	0x3d8763d9	0.06610841
78	0x3dd1abd1	0.102378495
79	0x3daee969	0.08540613
80	0x3d7e5c9a	0.06210003
81	0xbc14c7c4	-0.009080831
82	0xbd06ecc1	-0.03294063
83	0xbcfbb51b	-0.030726006
84	0xbbbe95c4	-0.0058161933
85	0xbc84c023	-0.0162049
86	0x3c37d9c3	0.011221352
87	0x3ce1ae0d	0.027548814
88	0x3cce5377	0.025186284
89	0x3d4a50d1	0.04939348
90	0xbd46b94c	-0.048516557
91	0xbd21281c	-0.039344892
92	0xbbb95dd7	-0.0056569385
93	0xbcb8439b	-0.022493174
94	0xbb920f28	-0.004457373
95	0x3cf5564c	0.029948376
96	0x3cfc7299	0.030816363
97	0x3d0716cd	0.03298073
98	0x3d39ec93	0.04539163
99	0x3d32e917	0.043679323
100	0x3d61d58a	0.055135287
101	0x3d83a442	0.06427814
102	0x3daf8074	0.08569422
103	0x3db01726	0.08598165
104	0x3dad9d8c	0.08477315
105	0x3e0e7def	0.13915227
106	0x3ded2899	0.11580009
107	0x3dd05bd4	0.10173765
108	0xbb9d8591	-0.004807182
109	0x3c8b5c7c	0.017011873
110	0x3c83354f	0.01601663
111	0xbc8a3501	-0.016870977
112	0x3c3b1bda	0.011420215
113	0x3b71c903	0.0036893494
114	0xbce4f399	-0.027948188
115	0xbc52638c	-0.012841117
116	0xbce60385	-0.02807785
117	0x3d918c1b	0.07106801
118	0x3da7b922	0.08189608
119	0x3d92259b	0.07136079
120	0x3d336185	0.043794174
121	0x3d83e4de	0.06440137
122	0x3d825b9f	0.063651316
123	0x3cf20213	0.029542005
124	0x3d09ea3c	0.03367065
125	0x3d01b202	0.031663902
126	0x3d4c364c	0.04985647
127	0x3dbf3f6f	0.09338271
128	0x3df16993	0.11787715
129	0x3d512f59	0.051070545
130	0x3db53359	0.088476844
131	0x3dcd0718	0.10011119
132	0x3cbe2913	0.023212945
133	0x3d111511	0.03542048
134	0x3d48c2b2	0.0490138
135	0x3d393be0	0.045223117
136	0x3cebc7ca	0.02878179
137	0x3b965276	0.004587467
138	0x3ce041c7	0.027375115
139	0x3ca56084	0.020187624
140	0x3c15c0c4	0.009140197
141	0xbacbca76	-0.0015548009
142	0xbb18074a	-0.0023197704
143	0xbc515477	-0.012776486
144	0x3d275b80	0.040858746
145	0x3c461e8a	0.012092242
146	0x3bdeeee9	0.0068033827
147	0x3cf9987f	0.030468224
148	0x3c3d9c1a	0.011572862
149	0x3c814c7c	0.01578354
150	0x3c6f16a1	0.0145927975
151	0x3aee7c9e	0.0018195098
152	0x3b8ea6f3	0.004353398
153	0x3cba49b7	0.022740228
154	0x3c6454e4	0.013936255
155	0x3d18b32b	0.037280243
156	0x3c0e8306	0.008698231
157	0x3ac33d6e	0.0014895627
158	0x3cf79959	0.030224489
159	0x3b3b4483	0.0028574772
160	0xbc20b2e0	-0.009808272
161	0x3c146ea6	0.009059584
162	0x3d3d5baf	0.046230014
163	0x3d4274ed	0.04747479
164	0x3d2c137f	0.04201078
165	0x3ccca64f	0.024981646
166	0x3cf81fa7	0.03028853
167	0x3d1247f6	0.03571316
168	0xbbb3db49	-0.0054887873
169	0x3b18f62c	0.002334009
170	0x3c60879d	0.013704208
171	0x3d5ed32e	0.054400615
172	0x3d3f5202	0.046709068
173	0x3d337d2c	0.043820545
174	0x3d2f2201	0.042757038
175	0x3d266d6b	0.040631693
176	0x3d3d06dc	0.04614912
177	0x3ccd32a7	0.025048567
178	0x3cdb6e3e	0.026785966
179	0x3d19bf14	0.037535742
180	0x3d83bfc8	0.06433064
181	0x3d7da660	0.061926246
182	0x3d90927d	0.070591904
183	0x3d67a0c7	0.056549814
184	0x3d5490c2	0.051895864
185	0x3d7e581f	0.062095758
186	0x3d67e6d9	0.056616638
187	0x3d401359	0.04689345
188	0x3d4cb765	0.049979586
189	0x3d8a1f52	0.06744255
190	0x3ce05946	0.027386319
191	0xbb01280f	-0.0019707715
192	0x3ba5c181	0.005058468
193	0xbc6511b7	-0.013981274
194	0xbd13140a	-0.035907783
195	0xbbeca2f1	-0.0072215726
196	0xbcaf3b3b	-0.021390548
197	0xbd37fa75	-0.04491659
198	0xbcba539a	-0.022744942
199	0xbc8b41dd	-0.01699918
200	0xbd003814	-0.03130348
201	0xbd26edf1	-0.040754262
202	0xbd142c48	-0.036175042
203	0xbd7398c4	-0.05947186
204	0xbd70c3e3	-0.058780562
205	0xbd5c721b	-0.053819757
206	0xbd872e88	-0.06600672
207	0x3bc78d94	0.0060898755
208	0x3b54ea38	0.0032488238
209	0xbcaa9575	-0.02082322
210	0xbb9a359c	-0.0047060978
211	0xbc24ee81	-0.010066629
212	0xbcfdfa62	-0.03100318
213	0xbd2519c0	-0.04030776
214	0xbccd8027	-0.025085522
215	0xbcb12bdb	-0.021627357
216	0xbcaaf084	-0.02086664
217	0xbcbebb55	-0.023282686
218	0xbce7b52c	-0.028284632
219	0xbd0ed3da	-0.034870006
220	0xbd15658f	-0.036473807
221	0xbcf97d6f	-0.03045532
222	0xbd02998e	-0.031884722
223	0xbccf567c	-0.025309794
224	0xbc0304c8	-0.007996745
225	0xbd0c5779	-0.034263108
226	0xbd0e83bb	-0.034793597
227	0xbc9adf37	-0.018905265
228	0xbd2f1d92	-0.04275281
229	0xbd0a8092	-0.03381402
230	0xbb6f7c61	-0.0036542641
231	0xbc840b4d	-0.01611867
232	0x3be04f72	0.006845408
233	0x3cf97c40	0.030454755
234	0x3c8280d8	0.015930578
235	0x3d12a29c	0.035799608
236	0x3d438597	0.047734823
237	0x3cffcded	0.031226123
238	0x3d1408de	0.03614127
239	0x3d1b48b0	0.037911117
240	0x3d7f53b9	0.062335704
241	0x3d5ed1b0	0.054399192
242	0x3d2c4f06	0.04206755
243	0x3d1fd11e	0.03901779
244	0x3ca231e3	0.019799178
245	0x3ab25b6d	0.0013607569
246	0xbce6faf5	-0.028195838
247	0xbd386cdd	-0.045025695
248	0xbd0ba329	-0.03409115
249	0xbcf44bde	-0.029821333
250	0xbcce7119	-0.025200414
251	0xbc16ec54	-0.009211618
252	0x3d3e5014	0.046463087
253	0x3cd41ec6	0.02589358
254	0x3bb1164a	0.0054042684
255	0xbd5499da	-0.051904537

down2.down_block3d.1.double_conv3d.3.bias f4 [16]
0	0x3891e993	6.9576454e-05
1	0xb8949510	-7.084955e-05
2	0xb87374dc	-5.804455e-05
3	0xb9450451	-0.00018788992
4	0xb95105ea	-0.00019933996
5	0x396a7d5b	0.00022362678
6	0x3980b712	0.0002455046
7	0xb8b1bd76	-8.4753075e-05
8	0x37224e40	9.674171e-06
9	0x378e26a8	1.694572e-05
10	0x36ff494c	7.608125e-06
11	0x39bf844d	0.0003652893
12	0x3994b712	0.00028365158
13	0x37a7692a	1.9956922e-05
14	0x3a474694	0.00076017645
15	0xb72e9956	-1.04069095e-05

down2.down_block3d.1.shortcut.weight f4 [16, 8, 1, 1, 1]
0	0x80018781	-1.40445e-40
1	0x8001eb33	-1.76209e-40
2	0x000963b4	8.62286e-40
3	0x0003918d	3.2772e-40
4	0x8001f86e	-1.80955e-40
5	0x800a1572	-9.26048e-40
6	0x0004cd08	4.40893e-40
7	0x0006f56f	6.39058e-40
8	0x80045b85	-4.00173e-40
9	0x00032789	2.89689e-40
10	0x00022caa	1.99693e-40
11	0x0003bb94	3.42797e-40
12	0x8007cf42	-7.17199e-40
13	0x8007d5e2	-7.19575e-40
14	0x00004736	2.5546e-41
15	0x800719ce	-6.52105e-40
16	0x00050781	4.6187e-40
17	0x80011d8d	-1.02436e-40
18	0x00092202	8.38719e-40
19	0x800579ad	-5.02827e-40
20	0x8004a4f1	-4.26512e-40
21	0x8002234b	-1.96332e-40
22	0x800758cf	-6.74707e-40
23	0x8002a34e	-2.42254e-40
24	0x00008600	4.807e-41
25	0x00032b0d	2.9095e-40
26	0x80020b9d	-1.87837e-40
27	0x0007bf6a	7.11515e-40
28	0x00078d29	6.93487e-40
29	0x0003c949	3.47714e-40
30	0x800183eb	-1.39159e-40
31	0x8002e9dd	-2.67565e-40
32	0x8000dd49	-7.9382e-41
33	0x80020dea	-1.88662e-40
34	0x000296da	2.37786e-40
35	0x8000c804	-7.1752e-41
36	0x80051653	-4.67186e-40
37	0x0000801a	4.5954e-41
38	0x00080ed0	7.39998e-40
39	0x80024a69	-2.10364e-40
40	0x80042bf2	-3.83107e-40
41	0x00050ebf	4.64467e-40
42	0x0006705e	5.91323e-40
43	0x80088a57	-7.84311e-40
44	0x00020ebe	1.8896e-40
45	0x80091707	-8.3478e-40
46	0x0008d84a	8.12274e-40
47	0x80010c75	-9.6304e-41
48	0x0002494c	2.09965e-40
49	0x80029787	-2.38029e-40
50	0x800437f7	-3.87418e-40
51	0x80015bb5	-1.24734e-40
52	0x00035c19	3.08545e-40
53	0x0006ec10	6.35696e-40
54	0x80035367	-3.05426e-40
55	0x800385ab	-3.23458e-40
56	0x800851b6	-7.63996e-40
57	0x0000938b	5.2928e-41
58	0x80027ccd	-2.28441e-40
59	0x80008869	-4.8935e-41
60	0x8000e0f1	-8.0694e-41
61	0x0002ec0a	2.68346e-40
62	0x80067d66	-5.95997e-40
63	0x800691d6	-6.03329e-40
64	0x0009891b	8.75704e-40
65	0x8000a76e	-6.0062e-41
66	0x80068565	-5.98866e-40
67	0x00dc1f4d	2.0215038e-38
68	0x80064609	-5.76137e-40
69	0x800226ae	-1.97547e-40
70	0x8003d749	-3.52736e-40
71	0x80030723	-2.78067e-40
72	0x000232a8	2.01843e-40
73	0x0004772e	4.10096e-40
74	0x0004f099	4.53652e-40
75	0x00007fd5	4.5857e-41
76	0x8003c919	-3.47647e-40
77	0x80022650	-1.97415e-40
78	0x8004fb5f	-4.57517e-40
79	0x00036dac	3.1485e-40
80	0x00054191	4.82698e-40
81	0x0006f256	6.37947e-40
82	0x800006e4	-2.472e-42
83	0x00002587	1.3462e-41
84	0x80057e0f	-5.04399e-40
85	0x80078e33	-6.9386e-40
86	0x80084926	-7.60925e-40
87	0x80057d74	-5.04182e-40
88	0x000e1819	1.294342e-39
89	0x00099aa5	8.81995e-40
90	0x0029ec4b	3.850021e-39
91	0x8008d0e7	-8.09624e-40
92	0x0005bd12	5.27003e-40
93	0x0002dc27	2.62647e-40
94	0x0001ae22	1.54303e-40
95	0x0000912e	5.208e-41
96	0x80013aee	-1.12975e-40
97	0x00067d68	5.96e-40
98	0x00072cea	6.5896e-40
99	0x800384b8	-3.23117e-40
100	0x0008e91b	8.18306e-40
101	0x8005e12b	-5.39953e-40
102	0x80052412	-4.72117e-40
103	0x0009931d	8.79294e-40
104	0x00085edd	7.68715e-40
105	0x00090a4e	8.30216e-40
106	0x806df214	-1.009691e-38
107	0x00085d8d	7.68244e-40
108	0x000372d6	3.16702e-40
109	0x8004fb89	-4.57576e-40
110	0x80061729	-5.59321e-40
111	0x80b2dc68	-1.6425785e-38
112	0x011e57e6	2.908308e-38
113	0x8008a234	-7.92871e-40
114	0x8001f53f	-1.79813e-40
115	0x8008bafa	-8.01759e-40
116	0x0001d9f0	1.70017e-40
117	0x80024fc0	-2.1228e-40
118	0x8005ba8c	-5.26098e-40
119	0x80074701	-6.6832e-40
120	0x0007b113	7.06371e-40
121	0x00098d33	8.77172e-40
122	0x0004917f	4.19536e-40
123	0x80017ad8	-1.35904e-40
124	0x800030f6	-1.7564e-41
125	0x8009908b	-8.78372e-40
126	0x0001677d	1.2896e-40
127	0x0005c94a	5.31386e-40

down2.down_block3d.1.shortcut.bias f4 [16]
0	0xbe246e2f	-0.16057657
1	0xbda8419f	-0.08215641
2	0xbd953b68	-0.072867215
3	0x3ca81f7d	0.020522827
4	0xbde40da8	-0.11135417
5	0xbe30b25f	-0.17255543
6	0xbe77e444	-0.2420817
7	0xbdde9db9	-0.10869927
8	0xbe685632	-0.22689131
9	0xbd345126	-0.0440227
10	0xbdb92b09	-0.090414114
11	0xbdf27a98	-0.11839789
12	0xbe307efd	-0.17235942
13	0xbd88a875	-0.06672756
14	0xbe1aaee6	-0.15105781
15	0xbe15fb0c	-0.14646548
