simple_3dunet/checkpoints/test/backup/0.003-300/best_model-0.6412.pth (torch, 377059 bytes, 49 tensors)

input.double_conv3d.0.weight f4 [4, 2, 3, 3, 3]
0	0x3c18731c	0.009304788
1	0xbd2ce0b0	-0.042206466
2	0xbd399459	-0.04530749
3	0x3c1fabbf	0.009745537
4	0xbd4c392a	-0.049859203
5	0xbd8fe95d	-0.070269324
6	0x3c90e701	0.017688276
7	0xbc609d85	-0.013709431
8	0xbd9a0324	-0.0752013
9	0x3c9860f6	0.018600922
10	0xbd680d2d	-0.05665319
11	0xbd8899a8	-0.066699326
12	0xbc7a8198	-0.015289687
13	0xbd8b5dcb	-0.06804999
14	0xbdaf06ff	-0.08546256
15	0x3c4b88c1	0.012422741
16	0xbcc956bf	-0.024577497
17	0xbd90e32e	-0.07074581
18	0x3d5dcb9b	0.05414925
19	0xbc99b104	-0.018761165
20	0xbc994820	-0.01871115
21	0x3cba4c41	0.022741439
22	0xbc0be550	-0.008538559
23	0xbd2c1d46	-0.042020105
24	0x3d1feb26	0.039042614
25	0x3c8dba9d	0.017300898
26	0xbcffd4ee	-0.031229462
27	0x3c8ba075	0.017044285
28	0xbd53f832	-0.05175037
29	0xbd5580ff	-0.052124973
30	0x3c3d7b15	0.01156499
31	0xbd479773	-0.048728418
32	0xbd9f6200	-0.07782364
33	0x3bd08c76	0.0063644005
34	0xbcdb739c	-0.026788525
35	0xbd8205a6	-0.063487336
36	0x3ccf8047	0.025329722
37	0xbd88bc19	-0.06676502
38	0xbd97b9ed	-0.074085094
39	0xbbac6648	-0.0052612163
40	0xbd855af3	-0.06511488
41	0xbdc33492	-0.09531511
42	0x3c9ed319	0.019387769
43	0xbcde3558	-0.027125046
44	0xbd8f6c31	-0.07003058
45	0x3d5cc1c1	0.053895716
46	0xbb8e4ae8	-0.0043424256
47	0xbca2f37f	-0.019891499
48	0x3ca9fde5	0.02075095
49	0xbc8bd836	-0.01707087
50	0xbd239eb5	-0.039946277
51	0x3d00e576	0.03146883
52	0x3c766634	0.015039016
53	0xbccc9298	-0.024972245
54	0xbe054238	-0.13013542
55	0x3dab9a9f	0.08379101
56	0xbd0669d5	-0.032815773
57	0x3d03db47	0.03219154
58	0x3e6849af	0.22684358
59	0x3df2c570	0.118540645
60	0xbe3c5406	-0.18391427
61	0xbba731a3	-0.0051023527
62	0xbddcf00f	-0.10787975
63	0xbcb3754c	-0.021906517
64	0x3e6619e3	0.22470812
65	0x3d83c38a	0.064337805
66	0x3e3a910d	0.18219395
67	0x3ed36857	0.41290542
68	0x3e90bc61	0.28268722
69	0xbdae6d7d	-0.08516977
70	0x3e0a92b2	0.13532522
71	0x3cbb2a62	0.022847358
72	0xbe20128a	-0.15632072
73	0xbd18a09d	-0.037262548
74	0xbdebc678	-0.11512464
75	0xbd6e0fa1	-0.058120374
76	0x3d747abf	0.059687372
77	0x3b620a80	0.0034491122
78	0xbe3b433a	-0.18287364
79	0xbd52c98f	-0.051461753
80	0xbdd0e66f	-0.10200202
81	0xbe054e30	-0.13018107
82	0x3db057e4	0.08610514
83	0xbcfe7ffe	-0.03106689
84	0x3d06dbdb	0.032924514
85	0x3e65bcf7	0.22435366
86	0x3df1ed7c	0.11812875
87	0xbe3d644d	-0.18495293
88	0xbc41921a	-0.0118146185
89	0xbddc6e61	-0.107632406
90	0xbca2b7a9	-0.019862967
91	0x3e664b58	0.22489679
92	0x3d86decf	0.06585466
93	0x3e379f97	0.17931972
94	0x3ed37459	0.41299704
95	0x3e90e6aa	0.28300983
96	0xbdae84c8	-0.0852142
97	0x3e084104	0.13306051
98	0x3cb9caeb	0.022679767
99	0xbe274d18	-0.16338003
100	0xbd18e27d	-0.03732537
101	0xbded7aae	-0.11595665
102	0xbd6ef1fd	-0.058336247
103	0x3d7ea6ef	0.06217092
104	0x3b38baf3	0.0028187602
105	0xbe3a5969	-0.1819817
106	0xbd524b4e	-0.051341347
107	0xbdd3d3a5	-0.10343102
108	0x3c53119d	0.012882617
109	0xbd803c7f	-0.06261539
110	0xbdb33771	-0.08750809
111	0x3beca62a	0.0072219567
112	0xbd4db7c1	-0.05022407
113	0xbdd46ccb	-0.10372313
114	0xbcabf0fe	-0.020988937
115	0xbd0c319a	-0.03422699
116	0xbd98114b	-0.07425173
117	0x3c90dfb2	0.017684791
118	0xbd795dc5	-0.06088044
119	0xbcf4403f	-0.029815791
120	0xbd48928f	-0.048967894
121	0xbd90d4c1	-0.070718296
122	0xbd57b148	-0.052659303
123	0x3c754542	0.014970126
124	0xbd01ed41	-0.031720404
125	0xbd09c7d6	-0.033637844
126	0x3cd2a35e	0.025712665
127	0x3d1c0ab3	0.03809614
128	0xbc149e99	-0.009071016
129	0x3d59b227	0.053148415
130	0x3d2be135	0.04196282
131	0xbd1b8112	-0.037964888
132	0x3d0f959d	0.03505479
133	0xbb6dd160	-0.0036288127
134	0x3c0ffccc	0.008788299
135	0x3c2b50cc	0.010456275
136	0xbda8cf39	-0.082426496
137	0xbd5c5d7e	-0.0538001
138	0x3b31f397	0.0027153248
139	0xbd6def56	-0.058089577
140	0xbd7f0743	-0.062262785
141	0xbc1cf9b8	-0.009581022
142	0xbd714519	-0.058903787
143	0xbd391c43	-0.045192968
144	0xbcba54e1	-0.022745552
145	0xbdaa8fcd	-0.08328209
146	0xbd552bb4	-0.05204363
147	0xbd0a8f08	-0.03382781
148	0xbd8ad0fd	-0.067781426
149	0xbdb6f686	-0.08933739
150	0xbbc95034	-0.006143594
151	0xbd33e662	-0.043920882
152	0xbd1d904a	-0.038467683
153	0x3d4acf2e	0.04951399
154	0x3ca7f3aa	0.02050193
155	0x3ac08a06	0.0014689572
156	0x3d6a5fc0	0.05722022
157	0x3adbe682	0.0016777071
158	0xbd1d45e1	-0.03839672
159	0x3bcd0b03	0.006257416
160	0xba61d4a6	-0.0008614756
161	0xbbb49b3a	-0.0055116685
162	0xbdeeee66	-0.11666565
163	0x3c161d92	0.009162324
164	0xbd68af6f	-0.05680793
165	0xbd23be1c	-0.039976224
166	0x3d61b55f	0.05510461
167	0xbb29acbf	-0.0025890318
168	0xbdf7ffd0	-0.12109339
169	0xbd1deb90	-0.038554728
170	0xbdd725e6	-0.105052754
171	0x3d0cdedb	0.03439222
172	0x3e4fe0ef	0.20300649
173	0x3d9bbb6e	0.07604109
174	0x3e1a57cc	0.15072554
175	0x3e9692e6	0.2940895
176	0x3e5dea9e	0.2167153
177	0xbdf598fa	-0.119920686
178	0x3d42358c	0.047414348
179	0xbd71aa56	-0.059000336
180	0xbd6884c1	-0.05676723
181	0x3dee0e5a	0.11623831
182	0xbd01e57b	-0.03171299
183	0xbbd7747e	-0.0065751662
184	0x3e4b60a5	0.19861086
185	0x3d9e9eca	0.0774513
186	0xbe57fd0c	-0.21092623
187	0xbd548d1f	-0.051892396
188	0xbdfa6531	-0.12226332
189	0xbdc93a56	-0.0982558
190	0xbc292530	-0.010323808
191	0xbcedae53	-0.029013788
192	0xbd38392a	-0.04497639
193	0x3d57ef90	0.0527187
194	0x3d390e64	0.04517974
195	0xbe1bdd3b	-0.15221111
196	0xbce32fa1	-0.027732672
197	0xbde3091a	-0.1108572
198	0x3d019503	0.03163625
199	0x3e49db67	0.19712602
200	0x3dbf6885	0.093461074
201	0x3e0ea869	0.13931431
202	0x3ea25e53	0.3171259
203	0x3e4ea29e	0.20179221
204	0xbdbb954f	-0.09159338
205	0x3d0575c6	0.03258302
206	0xbd623cae	-0.05523365
207	0xbd828fdf	-0.063750975
208	0x3df9dade	0.12199949
209	0x3c1f57e1	0.009725542
210	0x3ba5cef5	0.0050600716
211	0x3e5f2831	0.21792676
212	0x3de33f08	0.11096007
213	0xbe52db5f	-0.20591496
214	0xbc9b6b37	-0.018972022
215	0xbdff93ec	-0.12479386

input.double_conv3d.0.bias f4 [4]
0	0xba2feed1	-0.00067113066
1	0xbe337482	-0.17524913
2	0x3a4f98a5	0.0007919169
3	0xbe11253a	-0.14174357

input.double_conv3d.3.weight f4 [4, 4, 3, 3, 3]
0	0x3d317e34	0.043333247
1	0x3d759d62	0.059964545
2	0x3d660f99	0.05616722
3	0x3d68c8ee	0.056832246
4	0x3da51444	0.08060506
5	0x3d845dde	0.06463216
6	0x3d8fad98	0.07015532
7	0x3da59835	0.08085672
8	0x3d82270e	0.06355105
9	0x3d56073a	0.052252986
10	0x3d8e74ec	0.06955895
11	0x3d859d71	0.0652417
12	0x3d789413	0.06068809
13	0x3dada10c	0.08477983
14	0x3d92c5c8	0.0716663
15	0x3d912e62	0.07088925
16	0x3dbef095	0.09323231
17	0x3d9af97a	0.07567115
18	0x3cc5635a	0.024095226
19	0x3d3cf1cd	0.046129037
20	0x3d2cbf5a	0.042174675
21	0x3d28d854	0.04122193
22	0x3d944ed1	0.072415955
23	0x3d62eb1c	0.0554
24	0x3d40b91a	0.047051527
25	0x3d954068	0.07287675
26	0x3d595501	0.05305958
27	0x3b829e60	0.003986165
28	0x3b5a3c10	0.003329996
29	0xbc5e3ad7	-0.013563833
30	0x3c1087e6	0.008821463
31	0x3bfcf76e	0.0077199256
32	0xbc677e6e	-0.014129264
33	0xbc023bb2	-0.007948803
34	0xbba4e68f	-0.0050323675
35	0xbce10061	-0.027466001
36	0x3b866375	0.0041012117
37	0x3b9aa91f	0.004719868
38	0xbc55660c	-0.013024818
39	0x3c1fa8c5	0.009744828
40	0x3c08eb67	0.008356906
41	0xbc5f278a	-0.013620267
42	0xbc13c12b	-0.009018223
43	0xbb95d27a	-0.00457221
44	0xbcdf6330	-0.027268976
45	0x3aa0f80f	0.0012280958
46	0x3af34708	0.0018560598
47	0xbc667f9d	-0.014068511
48	0x3c033865	0.008009051
49	0x3bf4eb5a	0.007474345
50	0xbc75222e	-0.014961762
51	0xbc216b06	-0.0098521765
52	0xbbd0382d	-0.006354353
53	0xbcede087	-0.029037727
54	0x3d62d92a	0.055382885
55	0x3d7a76e6	0.061148547
56	0x3d715ff4	0.0589294
57	0x3d860398	0.06543654
58	0x3dab3972	0.08360566
59	0x3d8fbbb1	0.07018221
60	0x3d8951bd	0.067050435
61	0x3da04ee6	0.07827549
62	0x3d717988	0.05895379
63	0x3d4d1c56	0.05007585
64	0x3d65b668	0.05608216
65	0x3d68d8be	0.056847326
66	0x3d7dab7c	0.06193112
67	0x3da84a0c	0.08217248
68	0x3d8ef43b	0.06980177
69	0x3d8b5813	0.06803908
70	0x3dabf021	0.0839541
71	0x3d8d73cc	0.06906852
72	0x3d02f27a	0.031969525
73	0x3d1392f6	0.036028825
74	0x3d25454b	0.040349286
75	0x3d2b7e96	0.04186877
76	0x3d80d93d	0.06291435
77	0x3d59e4d2	0.053196736
78	0x3d509a42	0.05092836
79	0x3d88c2eb	0.06677803
80	0x3d4d8f9f	0.050185796
81	0xb93b14a2	-0.00017841396
82	0x39ef5c8a	0.0004565458
83	0xbc80a8a3	-0.015705412
84	0x3c1773c4	0.009243909
85	0x3c0f538c	0.0087479465
86	0xbc523d39	-0.012831979
87	0xbb9a5c25	-0.0047106915
88	0xbba73ecc	-0.0051039215
89	0xbcb48bc9	-0.022039311
90	0x3c67464b	0.01411588
91	0x3c681f9f	0.014167695
92	0xbb6fe203	-0.003660322
93	0x3cc03fb5	0.023467878
94	0x3cc1bf54	0.023650803
95	0x3918d847	0.00014576419
96	0x3c101cd4	0.008795936
97	0x3c0a7b35	0.008452226
98	0xbc0e4877	-0.008684269
99	0xbcc0801d	-0.02349859
100	0xbcc2e54e	-0.023790982
101	0xbd26717d	-0.040635575
102	0xbc6a9981	-0.014318825
103	0xbc830059	-0.015991377
104	0xbd1919c8	-0.037378103
105	0xbce1a5bc	-0.027544849
106	0xbce88f14	-0.028388537
107	0xbd3a8d27	-0.04554477
108	0xbccbdafa	-0.02488469
109	0x3d8715b3	0.06595936
110	0x3d189ac8	0.037256986
111	0xbc3b6306	-0.011437183
112	0x3dc89d2e	0.09795605
113	0x3d1aa6f4	0.037756875
114	0x3cc5e885	0.024158726
115	0x3db616f0	0.08891094
116	0x3cf9d85f	0.030498682
117	0xbc1afd1a	-0.009459758
118	0x3daa397b	0.08311745
119	0x3d2322a7	0.03982797
120	0x3cdb65cf	0.026781945
121	0x3dd1a07b	0.10235687
122	0x3d071324	0.03297724
123	0x3d191ab3	0.037378978
124	0x3dcad6d4	0.099042565
125	0x3bb01e27	0.005374688
126	0xbd750dd5	-0.059827644
127	0x3ca2f87c	0.019893877
128	0xbb906776	-0.0044068648
129	0xbd4c5ff1	-0.049896184
130	0x3d46deec	0.04855244
131	0x3b40eefa	0.0029439316
132	0xbc50c976	-0.0127433445
133	0x3d4f111b	0.050553422
134	0xba15fdba	-0.0005721707
135	0xbab549b5	-0.001383117
136	0x3baabb6e	0.0052103316
137	0xbd381828	-0.044944912
138	0x3b1bb355	0.0023758013
139	0x3b3bd61f	0.0028661562
140	0xbd2c82e0	-0.042117
141	0xbbc6089c	-0.006043507
142	0xbcd018b9	-0.025402414
143	0xbd839b84	-0.064261466
144	0x3cab0c06	0.020879757
145	0x3ccc8d0a	0.024969596
146	0xbd03b57f	-0.03215551
147	0x3cd816b9	0.026378023
148	0x3cc6323c	0.024193875
149	0xbcec9b99	-0.028882788
150	0x3c8640ce	0.016388323
151	0xbba8f8ea	-0.005156626
152	0xbd5371b0	-0.051622093
153	0x3c70a689	0.014688143
154	0x3c7a59ae	0.01528017
155	0xbd251332	-0.04030151
156	0x3c9b72f2	0.018975709
157	0x3c746435	0.014916469
158	0xbd16d577	-0.03682467
159	0x3c09702b	0.008388559
160	0xbc506921	-0.012720377
161	0xbd6f62ed	-0.058443952
162	0xba3be65b	-0.00071678095
163	0x3d3d9fdd	0.046295036
164	0x3d53fba5	0.05175366
165	0x3b720756	0.0036930642
166	0x3da6bc5d	0.08141396
167	0x3d6ada36	0.05733701
168	0x3d102c68	0.0351986
169	0x3d9ee896	0.07759206
170	0x3d33e90f	0.043923434
171	0xbcacea9b	-0.021107962
172	0x3d47c3e5	0.048770804
173	0x3d3cc676	0.046087705
174	0x3b589c6d	0.0033052221
175	0x3daacf32	0.083403006
176	0x3d4ae9ac	0.049539253
177	0xba093314	-0.00052337465
178	0x3d994fed	0.07485948
179	0x3cc5a640	0.024127126
180	0xbd9e267c	-0.07722184
181	0xbcd14008	-0.025543228
182	0xbc1d367c	-0.00959551
183	0xbd8bef4e	-0.06832753
184	0x3c4fffe0	0.012695283
185	0xbb887e85	-0.004165473
186	0xbd15bba5	-0.036555905
187	0x3c6079b0	0.013700888
188	0xbc7ec781	-0.015550495
189	0x3be6bbe6	0.007041442
190	0x3c9af045	0.018913398
191	0xbcd5ff2e	-0.026122656
192	0x3d0b8c7c	0.034069523
193	0x3cc64d9d	0.02420693
194	0xbcaf2804	-0.021381386
195	0x3cc67764	0.024226852
196	0xbc34cfa6	-0.011035835
197	0xbd18e793	-0.03733022
198	0x3d4da1ed	0.050203253
199	0x3d79eca5	0.061016697
200	0x3c60929b	0.0137068285
201	0x3da0593b	0.07829519
202	0x3d8a169a	0.06742592
203	0x3c999e5b	0.018752268
204	0x3d8a4ebb	0.06753298
205	0x3d06a60f	0.03287321
206	0x3b4cf7bc	0.003127559
207	0xbd2078d8	-0.039177746
208	0xbd02a212	-0.031892844
209	0xbda751b9	-0.08169884
210	0xbcacde6a	-0.021102149
211	0xbd0b7a56	-0.034052216
212	0xbdaa7a40	-0.083240986
213	0xbd0e8441	-0.034794096
214	0xbd8440f3	-0.064577006
215	0xbdbe23b5	-0.09284154
216	0xbdcb43a2	-0.09925009
217	0xbdf01c7c	-0.11724183
218	0xbdf9d6c3	-0.12199166
219	0xbde8eaa5	-0.1137288
220	0xbdcd1bc1	-0.10015059
221	0xbdfefea4	-0.124509126
222	0xbdd4b805	-0.103866614
223	0xbdd506d9	-0.10401697
224	0xbdeb1d7b	-0.11480232
225	0xbddda1d5	-0.10821883
226	0xbddcd591	-0.10782922
227	0xbdfbbd5f	-0.12291979
228	0xbdbdecff	-0.09273719
229	0xbdc61670	-0.09672248
230	0xbe154b5a	-0.14579526
231	0xbdb5bcc0	-0.08873892
232	0xbe018ed6	-0.12652144
233	0xbde627fa	-0.11238094
234	0xbdb7b761	-0.089705236
235	0xbdd188c5	-0.10231165
236	0xbdf36c6c	-0.11885914
237	0xbde76b4e	-0.112997636
238	0xbde37334	-0.111059576
239	0xbdf0fbaa	-0.11766751
240	0xbdafaa9e	-0.085774645
241	0xbdda0044	-0.10644582
242	0xbdf0f0c0	-0.117646694
243	0x3d8b166d	0.06791387
244	0x3de91371	0.11380661
245	0x3e1890b1	0.14898945
246	0x3d16cbb0	0.036815345
247	0x3d57399d	0.05254518
248	0x3e029962	0.12753823
249	0x3b275cbb	0.002553745
250	0x3d4faaa9	0.050699864
251	0x3daf5b72	0.08562364
252	0xbe3f3450	-0.186723
253	0xbe28709c	-0.16449207
254	0xbdcd9de0	-0.10039878
255	0xbe80f03d	-0.25183287

input.double_conv3d.3.bias f4 [4]
0	0x3a591af6	0.00082819106
1	0xbb87b90c	-0.0041419324
2	0x3df50b26	0.11965017
3	0xbd2448fc	-0.040108666

input.shortcut.weight f4 [4, 2, 1, 1, 1]
0	0xbe802a86	-0.25032443
1	0x3dad79ae	0.08470474
2	0xbef9752e	-0.48722214
3	0xbefd05cf	-0.49418494
4	0xbdf4263c	-0.11921355
5	0xbe689d48	-0.22716248
6	0x3e8f1d4a	0.27952033
7	0x3e8f8ef6	0.28038758

input.shortcut.bias f4 [4]
0	0xbe3a1b7f	-0.18174551
1	0x3dafc7b7	0.085830145
2	0x3f475b49	0.77873665
3	0xbf042928	-0.516253

down1.down_block3d.1.double_conv3d.0.weight f4 [8, 4, 3, 3, 3]
0	0x3b44e519	0.003004378
1	0x3af47da0	0.0018653162
2	0xbc1f9351	-0.009739713
3	0x3c16af29	0.009197035
4	0xbb239317	-0.0024959499
5	0xbc4e8ce2	-0.012606831
6	0xbbbc0be6	-0.005738723
7	0xbca8f2b5	-0.020623544
8	0xbd233b42	-0.039851435
9	0x3d247123	0.040146958
10	0x3d55d23e	0.052202456
11	0x3cf9f8ca	0.03051414
12	0x3d55532b	0.05208127
13	0x3d48a190	0.048982203
14	0x3c8ae836	0.01695643
15	0x3d0ecbcc	0.034862325
16	0x3ca7ab90	0.02046755
17	0xbce3346e	-0.027734961
18	0x3d5fd61b	0.054647546
19	0x3d6029fb	0.054727536
20	0x3d2ec24e	0.042665772
21	0x3d7f91c3	0.06239487
22	0x3d587801	0.05284882
23	0x3d2a5c40	0.041591883
24	0x3d3f961f	0.046774026
25	0x3d092d11	0.033490244
26	0x3c740d8f	0.014895811
27	0x3c696498	0.014245175
28	0x3c8fb6c9	0.017543213
29	0x3c06bd0b	0.008223782
30	0x3d061c89	0.032742057
31	0x3c14a38e	0.009072198
32	0xbc1995e4	-0.009374116
33	0x3c0b16bf	0.00848931
34	0xbca6325e	-0.020287689
35	0xbd43208a	-0.047638454
36	0x3d87f9c8	0.06639439
37	0x3dadac94	0.08480182
38	0x3d76befe	0.060240738
39	0x3db06325	0.0861266
40	0x3d989503	0.07450297
41	0x3d15d89c	0.036583528
42	0x3d701f8a	0.058623828
43	0x3d00dc0c	0.031459853
44	0xbcd500cc	-0.026001357
45	0x3d81621c	0.06317541
46	0x3d8b4eac	0.06802115
47	0x3d61ef1e	0.05515968
48	0x3da3bc5f	0.07994913
49	0x3d7f8b39	0.062388632
50	0x3d451c00	0.048122406
51	0x3d7502dc	0.05981718
52	0x3d091e94	0.033476427
53	0x3b69ace2	0.0035656025
54	0x3cb5b98b	0.0221832
55	0x3d1a3a11	0.037653033
56	0x3d28b873	0.04119153
57	0x3d1f0abe	0.038828604
58	0x3d62ffb0	0.055419624
59	0x3d7ff70a	0.062491454
60	0x3d13a908	0.036049873
61	0x3d4f0ede	0.050551288
62	0x3d60d12b	0.054886978
63	0x3c33c3e1	0.010971994
64	0x3cf0ae10	0.029379874
65	0x3d10dad4	0.03536494
66	0x3cf9d9d2	0.030499373
67	0x3d4ea75e	0.050452583
68	0x3d7926d0	0.06082803
69	0x3d001559	0.03127036
70	0x3d49c401	0.04925919
71	0x3d6f125e	0.058367126
72	0xbdce8f1f	-0.10085892
73	0xbdb26a32	-0.087116614
74	0xbdafd5d2	-0.08585705
75	0xbdb041b9	-0.086062856
76	0xbd90ce2e	-0.07070576
77	0xbd85eef1	-0.06539715
78	0xbdb048b6	-0.086076185
79	0xbd920759	-0.07130308
80	0xbd89516b	-0.06704982
81	0xbd16ee3b	-0.036848288
82	0xbd3c8e49	-0.04603413
83	0xbcbf81a9	-0.023377256
84	0xbd3fc541	-0.046818975
85	0xbd73c381	-0.05951262
86	0xbd41719b	-0.047227483
87	0xbd133eb6	-0.035948478
88	0xbd1d0218	-0.038332075
89	0xbcf20395	-0.029542724
90	0xbd44b980	-0.04802847
91	0xbd63f59c	-0.055654153
92	0xbcf2a43b	-0.029619327
93	0xbd7bbe0d	-0.061460543
94	0xbd95a45c	-0.0730674
95	0xbd6b8756	-0.057502113
96	0xbd5143c5	-0.05109002
97	0xbd56c1a0	-0.05243075
98	0xbd28a0bc	-0.041168913
99	0xbd2be3ed	-0.041965414
100	0xbd3f5fbe	-0.046722166
101	0xbcb5e42c	-0.022203527
102	0xbd485145	-0.04890563
103	0xbd6dff89	-0.058105025
104	0xbd3664eb	-0.044529837
105	0xbd204889	-0.039131675
106	0xbd200d55	-0.039075214
107	0xbcf7a895	-0.030231753
108	0xbd774747	-0.06037071
109	0xbd67f0f4	-0.056626275
110	0xbd03d225	-0.03218283
111	0xbd63e7b2	-0.055640884
112	0xbd52b8f1	-0.051445905
113	0xbccdd8dc	-0.02512782
114	0xbd8add22	-0.06780459
115	0xbd677c64	-0.056515113
116	0xbd047c7d	-0.032345284
117	0xbd452acb	-0.048136514
118	0xbd2cce96	-0.042189203
119	0xbccfb8bf	-0.025356648
120	0xbd3d33f7	-0.046192136
121	0xbd32802f	-0.043579277
122	0xbc854508	-0.016268268
123	0xbd72308c	-0.05912833
124	0xbd4f9923	-0.050683152
125	0xbcac1798	-0.021007344
126	0xbd5f7d59	-0.0545629
127	0xbd4f0fa4	-0.050552025
128	0xbce1b246	-0.027550828
129	0xbd51ba80	-0.05120325
130	0xbd3f7368	-0.04674092
131	0xbc9e9ef2	-0.0193629
132	0xbd7595e9	-0.05995742
133	0xbd602d40	-0.054730654
134	0xbcb8be75	-0.022551754
135	0xbd6a28df	-0.057167884
136	0xbd0c3e2b	-0.034238975
137	0xbca830d6	-0.0205311
138	0xbd70f70a	-0.058829345
139	0xbd868648	-0.06568581
140	0xbc8648c7	-0.016392125
141	0xbda6c88f	-0.08143722
142	0xbd9d6c9c	-0.07686731
143	0xbcee7038	-0.029106244
144	0xbd5e7b04	-0.054316536
145	0xbd0fc925	-0.035103936
146	0x3c4e4375	0.012589325
147	0xbd340214	-0.043947294
148	0xbd02942a	-0.03187958
149	0xbcb5fe1e	-0.0222159
150	0xbd9813d7	-0.07425659
151	0xbd442da2	-0.04789508
152	0xbc95b8cd	-0.018276596
153	0xbd37c915	-0.0448695
154	0xbd3d8ee8	-0.046278864
155	0xbc927569	-0.017878251
156	0xbd64e607	-0.055883434
157	0xbd837b38	-0.064199865
158	0xbc4c6bcf	-0.012476875
159	0xbd7e83d5	-0.062137444
160	0xbd84f94d	-0.06492863
161	0xbc5f4755	-0.013627847
162	0xbd5ed7e9	-0.054405127
163	0xbd35c11e	-0.044373624
164	0xbce2d85a	-0.027691055
165	0xbd53eff9	-0.051742528
166	0xbcea2256	-0.028580826
167	0x3b88503c	0.0041599553
168	0xbe14020c	-0.14453906
169	0xbdc0e6b3	-0.094190024
170	0xbd776992	-0.060403414
171	0xbe6f8c92	-0.23393467
172	0xbe519a8f	-0.20469116
173	0xbe31baeb	-0.1735646
174	0xbeac40ba	-0.33643132
175	0xbe8af79e	-0.27142042
176	0xbe57cf17	-0.21075092
177	0xbef78ae3	-0.4834815
178	0xbec330e0	-0.38123226
179	0xbe92aea4	-0.28648865
180	0xbe2b6d01	-0.167408
181	0xbd796545	-0.060887594
182	0x3b98a31d	0.0046581165
183	0xbe95ab6d	-0.2923235
184	0xbe047b7f	-0.12937735
185	0xbc25a687	-0.010110504
186	0xbed8b357	-0.42324325
187	0xbe698902	-0.2280617
188	0xbda2f0e2	-0.07956101
189	0x3d439a06	0.04775431
190	0xbd48a778	-0.048987836
191	0x3c44ce58	0.012012087
192	0xbddf42c1	-0.10901404
193	0xbe46b1f9	-0.19403829
194	0xbe0eb3cf	-0.13935779
195	0xbc4e1a6b	-0.012579541
196	0xbd5cd8d6	-0.05391773
197	0xbb470ed5	-0.003037383
198	0xbdb42224	-0.08795574
199	0xbe2c3c91	-0.16819979
200	0xbd085f57	-0.03329405
201	0xbe42e2e3	-0.19031863
202	0xbe86845d	-0.2627286
203	0xbe22e973	-0.15909366
204	0xbd2b674a	-0.04184655
205	0xbda2d4ce	-0.079507455
206	0x3c0a490d	0.008440268
207	0xbbad8a5c	-0.0052960347
208	0xbd50ef00	-0.05100918
209	0x3d5793bd	0.05263113
210	0xbd7e0165	-0.06201305
211	0xbdfa5afb	-0.122243844
212	0xbd54528a	-0.051836528
213	0x3d44637a	0.04794643
214	0xbc152380	-0.009102702
215	0x3ca0c72f	0.019626228
216	0xbcb1dc4a	-0.021711487
217	0xbd11bc9e	-0.03558027
218	0xbd7c050a	-0.061528243
219	0xbd17129d	-0.036882985
220	0xbd4ec14a	-0.050477304
221	0xbd70c63d	-0.058782805
222	0xbd6feb70	-0.05857414
223	0xbd85690a	-0.06514175
224	0xbdce5f2f	-0.100767486
225	0x3cdefa98	0.027219102
226	0x3cf7eee9	0.030265288
227	0x3bbd71df	0.0057813968
228	0x3d0c42a0	0.034243226
229	0x3c0afa3f	0.008482515
230	0x3c0813e5	0.0083055245
231	0xbba4d479	-0.0050302115
232	0xbc59d59b	-0.013295556
233	0xbce04fcf	-0.027381806
234	0x3c0a044d	0.008423877
235	0x3b0352bc	0.0020038327
236	0xbc636bcc	-0.013880681
237	0x3cd03cf2	0.025419686
238	0x3b89f6b9	0.00421032
239	0xbc18ff91	-0.0093382755
240	0xbc7e8c21	-0.015536339
241	0xbd0097de	-0.03139483
242	0xbd56f960	-0.052483916
243	0xbd119cc0	-0.03554988
244	0xbd69df27	-0.05709758
245	0xbd4cac79	-0.04996917
246	0xbd0416a4	-0.032248154
247	0xbcd4d495	-0.025980273
248	0xbd8bc69b	-0.0682499
249	0xbcd85783	-0.026408916
250	0xbdb88fdf	-0.09011816
251	0xbdaada60	-0.08342433
252	0xbafc4320	-0.0019246079
253	0x3c396ccb	0.011317442
254	0x3cb77cfc	0.022398464
255	0x3c3df222	0.0115933735

down1.down_block3d.1.double_conv3d.0.bias f4 [8]
0	0x387a6617	5.9699723e-05
1	0x3ad962e4	0.0016585258
2	0x3b391cf7	0.0028246024
3	0xbb126a8e	-0.0022341344
4	0x3b0cd7c1	0.0021490904
5	0x3bd871d4	0.0066053662
6	0x3949ef2e	0.00019257955
7	0x3b3e6c76	0.0029056347

down1.down_block3d.1.double_conv3d.3.weight f4 [8, 8, 3, 3, 3]
0	0xbdb90255	-0.09033648
1	0xbdb5432f	-0.08850705
2	0xbdb83b5b	-0.08995696
3	0xbdb8a774	-0.09016314
4	0xbdbe6528	-0.09296638
5	0xbdba00a9	-0.09082157
6	0xbdafc989	-0.08583362
7	0xbdb58f32	-0.08865203
8	0xbdb54a4a	-0.0885206
9	0xbdbc168c	-0.09183988
10	0xbdb6a7f2	-0.08918752
11	0xbdb8e4eb	-0.09028038
12	0xbdbcc00d	-0.09216318
13	0xbdc2383a	-0.094833806
14	0xbdbcd5a4	-0.09220436
15	0xbdb2b00b	-0.08724984
16	0xbdb9e3e0	-0.09076667
17	0xbdb8eba5	-0.090293206
18	0xbdabcde3	-0.08388879
19	0xbda4f2b1	-0.08054102
20	0xbda5449a	-0.08069725
21	0xbdae353e	-0.08506249
22	0xbdb4e6f5	-0.08833114
23	0xbdaed2e3	-0.08536317
24	0xbda50a0a	-0.080585554
25	0xbdaeb725	-0.08531026
26	0xbdacb013	-0.08432021
27	0xbd389795	-0.045066435
28	0xbda1aca9	-0.078942604
29	0xbdb45b13	-0.088064335
30	0xbd0e447d	-0.034733284
31	0xbd897091	-0.067109235
32	0xbd96280a	-0.073318556
33	0x3d76e45c	0.060276374
34	0x3cefec86	0.029287588
35	0x3c825a25	0.015912125
36	0xb9f0b073	-0.00045907832
37	0xbd3c2190	-0.045930445
38	0xbd9dc1cf	-0.07702982
39	0x3d3cc794	0.04608877
40	0xbb6c1f02	-0.0036029224
41	0xbd2fdae5	-0.042933363
42	0x3df4dfc2	0.11956741
43	0x3d86d2d1	0.06583179
44	0x3cc27d29	0.023741322
45	0x3d322fa5	0.04350247
46	0xbc8ebbcc	-0.017423533
47	0xbd83d57e	-0.06437205
48	0x3db0acd8	0.08626717
49	0x3c1bb02e	0.009502454
50	0xbd446e17	-0.047956552
51	0x3e0c87e8	0.13723719
52	0x3d4bfac7	0.049799707
53	0xbc056273	-0.008141148
54	0xbdabc9a0	-0.08388066
55	0xbde1db8f	-0.110282056
56	0xbe194a57	-0.14969765
57	0xbdbf2c5a	-0.09334631
58	0xbdfd100e	-0.12356578
59	0xbe22c33a	-0.15894786
60	0xbdd1f9c5	-0.10252718
61	0xbdf28b2f	-0.118429534
62	0xbe1e08ac	-0.15432996
63	0xbda09c5c	-0.07842323
64	0xbdfd1a96	-0.123585865
65	0xbe32a268	-0.17444766
66	0xbdb1428e	-0.086552724
67	0xbe06dcfe	-0.1317024
68	0xbe3560be	-0.17712685
69	0xbde88bc2	-0.11354782
70	0xbe11d46f	-0.14241193
71	0xbe395815	-0.18100007
72	0xbd16842e	-0.03674715
73	0xbd8699bb	-0.065722905
74	0xbdc5eaac	-0.09663901
75	0xbd3f3a07	-0.0466862
76	0xbda897d1	-0.08232082
77	0xbde063e3	-0.10956552
78	0xbd97b321	-0.07407213
79	0xbdc876a9	-0.09788258
80	0xbdfe29dd	-0.124103285
81	0x3c51f183	0.012813929
82	0x3cb46298	0.02201967
83	0x3d86fa2f	0.065906875
84	0xbc294bcd	-0.010333014
85	0x3cb56fdd	0.022148067
86	0x3da84687	0.08216577
87	0x3d595865	0.053062815
88	0x3de3b5dc	0.11118671
89	0x3e1bf861	0.15231468
90	0xbdb931b6	-0.09042685
91	0xbd6cb00d	-0.057785083
92	0xbaed4d70	-0.0018104743
93	0xbdab6e78	-0.083706796
94	0xbb9675fc	-0.0045917016
95	0x3d9546a3	0.072888635
96	0xbd5b5a9c	-0.05355321
97	0x3d74ff6c	0.0598139
98	0x3df77690	0.12083161
99	0x3b90a75f	0.0044144834
100	0x3cad6193	0.021164691
101	0x3d0e965f	0.034811374
102	0x3d25c581	0.040471558
103	0x3dd49733	0.103804015
104	0x3e0887d4	0.13333064
105	0x3c9f9c3f	0.019483684
106	0x3dd39cb9	0.10332627
107	0x3e070253	0.1318448
108	0x3d33da53	0.043909382
109	0xbc8d98dc	-0.017284803
110	0xbca3a508	-0.019976154
111	0x3d892545	0.06696562
112	0xbb6f329b	-0.003649867
113	0xbc3aabb3	-0.011393475
114	0x3dc61164	0.09671286
115	0x3d3eae3e	0.04655289
116	0x3d040d3c	0.032239184
117	0xbd339bd7	-0.043849792
118	0xbd845d71	-0.06463135
119	0xbdad361e	-0.08457588
120	0x3c45cf62	0.01207337
121	0xb9f6c60c	-0.00047068333
122	0xbca3dc42	-0.020002488
123	0x3b862d31	0.0040947427
124	0x3b84cc82	0.0040526995
125	0xbc5e0c91	-0.013552801
126	0x3c9a04e3	0.018801158
127	0xbb9f1277	-0.004854496
128	0xbd828ef1	-0.0637492
129	0x3d9fc2ab	0.07800802
130	0x3d6ca602	0.057775505
131	0x3bfa25c6	0.0076338975
132	0x3d36bb09	0.044611964
133	0x3d0f7b3e	0.035029642
134	0xbcaa2591	-0.020769866
135	0xbd22de73	-0.039762925
136	0xbdf591a2	-0.11990668
137	0xbdb01240	-0.08597231
138	0xbdf29a9c	-0.11845896
139	0xbe25f310	-0.16206002
140	0xbd9786a2	-0.07398726
141	0xbc67a44b	-0.014138292
142	0xbd0ee5e9	-0.03488723
143	0x3d55df13	0.052214693
144	0xbdea8278	-0.11450666
145	0xbe1f9610	-0.15584588
146	0xbd40c470	-0.047062337
147	0xbe1ae9c8	-0.15128243
148	0xbe1a40bf	-0.15063761
149	0xbc27a3e8	-0.010231949
150	0xbd4ea418	-0.05044946
151	0xbd0a89ad	-0.033822704
152	0x3dc47e31	0.095943816
153	0xbcd83762	-0.026393596
154	0xbd540ab5	-0.051768024
155	0x3c0151aa	0.007893005
156	0x3cbd68b8	0.023121223
157	0x3c9fbc8b	0.019499084
158	0x3dacdcee	0.084405765
159	0x3d452c20	0.048137784
160	0x3d6abb5f	0.057307597
161	0x3e0102f9	0.1259879
162	0x3c0cf921	0.008604319
163	0xbbd241ad	-0.0064165206
164	0x3c1f2266	0.009712791
165	0x3bb68fd3	0.0055713444
166	0xbb05418e	-0.0020333263
167	0x3c8096f9	0.01569699
168	0x3c9a2228	0.018815115
169	0x3ce6a4be	0.028154727
170	0x3d200961	0.039071444
171	0xbd0cd865	-0.034386057
172	0xbccc865a	-0.024966408
173	0xbb16ac3f	-0.002299085
174	0xbcff36a7	-0.03115399
175	0xb96f9522	-0.00022848372
176	0x3cf6ecd5	0.030142227
177	0xbd055d76	-0.032559834
178	0x3c8b3cd0	0.016996771
179	0x3d36ce57	0.044630375
180	0x3c93e035	0.018051246
181	0x3cffed2e	0.031241026
182	0x3d28d9ce	0.04122334
183	0x3c9effd5	0.0194091
184	0x3d7b1023	0.061294686
185	0x3dae321b	0.085056506
186	0xbc092930	-0.008371636
187	0x3d5cff66	0.053954504
188	0x3d9f99a1	0.07792974
189	0x3caabdc6	0.020842444
190	0xbdc5d426	-0.09659605
191	0xbdd81b0d	-0.105520345
192	0xbd5d02d5	-0.05395778
193	0xbe15cb14	-0.1462825
194	0xbdb3bb2d	-0.08775935
195	0xbda91082	-0.08255102
196	0xbdf116c8	-0.11771923
197	0xbc958996	-0.018254083
198	0xbdcdb450	-0.100441575
199	0xbe3be1e9	-0.18347897
200	0xbe0b2c8b	-0.1359121
201	0xbe463d97	-0.19359432
202	0xbe897a8e	-0.26851314
203	0xbe1f1993	-0.155371
204	0xbe490586	-0.19631013
205	0xbe444eff	-0.1917076
206	0xbd478655	-0.048712093
207	0xbdcfd9cc	-0.10148963
208	0xbdfd8b82	-0.12380125
209	0xbd9d6fd1	-0.07687343
210	0xbe0da7c5	-0.1383353
211	0xbe1352db	-0.14387076
212	0xbd5ae92a	-0.05344502
213	0xbe343831	-0.1759956
214	0xbe0f1316	-0.13972124
215	0xbc8f3ff7	-0.017486556
216	0xbcba5ed9	-0.022750305
217	0xbcda3637	-0.02663718
218	0x3bc41bd1	0.0059847613
219	0xbd26385b	-0.04058109
220	0xbd28966f	-0.04115909
221	0xbbe799ca	-0.0070678936
222	0xbcb1cb15	-0.021703282
223	0xbcbbe839	-0.02293788
224	0x3aef2170	0.0018244218
225	0xbc9e8470	-0.01935026
226	0xbccb2311	-0.024796994
227	0x3bfd9e7a	0.007739839
228	0xbd19f3a3	-0.037585866
229	0xbd1a4c70	-0.037670553
230	0xbb3aa0d0	-0.00284772
231	0xbc8c0fb2	-0.017097328
232	0xbc9a4c6a	-0.018835265
233	0x3bdf4994	0.006814191
234	0xbcc7f3c5	-0.02440823
235	0xbcfa3baa	-0.030546028
236	0x3b171698	0.0023054238
237	0xbd33a8b7	-0.04386207
238	0xbd382aa1	-0.04496253
239	0xbc2550dd	-0.01009008
240	0xbcbe857f	-0.023257015
241	0xbcd794a9	-0.026316004
242	0x3a299152	0.0006468493
243	0x3daf2f8b	0.0855399
244	0x3dccdf91	0.100035794
245	0x3dd79672	0.10526742
246	0x3dcc1097	0.09964102
247	0x3e104150	0.14087415
248	0x3e27addf	0.1637492
249	0x3db723be	0.08942364
250	0x3e162ea4	0.1466623
251	0x3e39796c	0.18112725
252	0x3e009ee5	0.12560613
253	0x3e19a96c	0.15006036
254	0x3df9fe15	0.122066654
255	0x3e23187a	0.15927306

down1.down_block3d.1.double_conv3d.3.bias f4 [8]
0	0x3a78664c	0.00094756926
1	0xbb604619	-0.003422147
2	0xb922b666	-0.00015517473
3	0xba0f9692	-0.0005477454
4	0xbae4ef97	-0.0017466423
5	0x3b595e5a	0.003316781
6	0xbb279389	-0.0025570116
7	0xbb077a65	-0.0020672318

down1.down_block3d.1.shortcut.weight f4 [8, 4, 1, 1, 1]
0	0xb915a609	-0.000142716
1	0xb7234074	-9.730564e-06
2	0xbab212d0	-0.0013585929
3	0xb9fcb6a4	-0.00048201263
4	0x3902499d	0.00012425189
5	0x395541ab	0.00020337726
6	0x3b429869	0.0029692894
7	0x3a560078	0.0008163522
8	0x39a45441	0.00031343292
9	0x3866d541	5.503488e-05
10	0x3a1c8ba6	0.0005971737
11	0x3a01dd63	0.00049539487
12	0xb836523e	-4.3468775e-05
13	0x385bf4cd	5.2441657e-05
14	0xb7c404f5	-2.3367329e-05
15	0xb81df9c4	-3.766433e-05
16	0xb91bb7e0	-0.0001485045
17	0xb7b3d407	-2.1437196e-05
18	0xbab9c5a8	-0.0014173286
19	0x3777aadb	1.4762128e-05
20	0x3911c918	0.00013903191
21	0xb885d2dd	-6.3812106e-05
22	0xb9df162f	-0.00042550403
23	0xb9e8c12a	-0.00044394407
24	0x388176ab	6.173303e-05
25	0x392e9913	0.00016650958
26	0xb98734e3	-0.0002578861
27	0xb9b52d96	-0.00034556974
28	0xb9bd47c1	-0.0003610235
29	0xb98ea8aa	-0.00027210015
30	0xbac2227e	-0.0014811305
31	0xba0d1363	-0.0005381612

down1.down_block3d.1.shortcut.bias f4 [8]
0	0x3ea8500a	0.32873565
1	0xbc830496	-0.015993398
2	0x3e9b823b	0.30372795
3	0x3d959ccb	0.073052965
4	0x3f12f10d	0.57399064
5	0x3e09bb75	0.13450415
6	0x3ddf7c23	0.10912349
7	0x3ecc009f	0.39844224

down2.down_block3d.1.double_conv3d.0.weight f4 [16, 8, 3, 3, 3]
0	0xbd310f3b	-0.043227416
1	0xbd63387f	-0.0554738
2	0xbccf1939	-0.025280582
3	0xbd61988f	-0.05507713
4	0xbd958fc0	-0.07302809
5	0xbd3e8c94	-0.046520784
6	0xbcefc78b	-0.029269954
7	0xbd0aa0b0	-0.03384465
8	0xbb375bad	-0.0027978227
9	0x3d5fe718	0.054663748
10	0x3b4fc310	0.003170196
11	0x3d5447f6	0.05182644
12	0xbc2b5358	-0.010456882
13	0xbd472ac3	-0.048624765
14	0x3c4abc41	0.012373985
15	0x3cc57991	0.024105819
16	0x3caaa128	0.020828798
17	0x3da0db6e	0.07854353
18	0xbcf51deb	-0.029921493
19	0xbd594ccd	-0.05305176
20	0xbc8cf8d9	-0.017208504
21	0xbd51154c	-0.0510457
22	0xbd8aade5	-0.06771449
23	0xbd0af9b4	-0.03392954
24	0xbaa787d0	-0.0012781564
25	0xbc205d2b	-0.009787838
26	0xbb838ff1	-0.004014962
27	0xbdd02f4a	-0.1016527
28	0xbd526ed7	-0.051375236
29	0x3bf8c3e5	0.007591712
30	0xbe064799	-0.1311325
31	0xbdbf9ece	-0.093564615
32	0xbd31af41	-0.043380026
33	0xbdbee89f	-0.09321713
34	0xbd86cd34	-0.06582108
35	0xbc29d46a	-0.010365585
36	0xbd250cdc	-0.040295467
37	0x3cae946c	0.021311007
38	0x3da92557	0.08259075
39	0xbda88656	-0.082287475
40	0xbd30fd66	-0.04321041
41	0xbb18ec04	-0.0023334036
42	0xbd0dc6d6	-0.034613453
43	0xbc665135	-0.014057447
44	0x3cb50f75	0.022102097
45	0x3b90ba95	0.0044167736
46	0x3d73b5b8	0.059499472
47	0x3ddbabcd	0.10726128
48	0xbcf9c9ee	-0.030491795
49	0xbbaa9ad7	-0.0052064466
50	0x3c1e5add	0.009665218
51	0x3c8583ca	0.016298193
52	0x3c38d5cb	0.011281441
53	0x3bfc7c8a	0.007705276
54	0xbd2d384d	-0.04229002
55	0xbc8c031d	-0.017091328
56	0xbd9c4a33	-0.0763134
57	0x3a849ca4	0.0010117483
58	0x3cf5a212	0.029984508
59	0xbcae1b29	-0.021253185
60	0xbc96ddf7	-0.018416388
61	0x3c14aaa6	0.009073889
62	0xbd0c5e69	-0.034269724
63	0xbcda8548	-0.026674882
64	0xbb7bd2d7	-0.003842523
65	0xbdadd5b6	-0.08488028
66	0x3d24755e	0.040150993
67	0x3d957200	0.072971344
68	0x3bd2fbd7	0.006438713
69	0x3cd32bb4	0.025777675
70	0x3d81e07b	0.063416444
71	0x3c619063	0.013767335
72	0xbdf2ed1c	-0.11861631
73	0xbde9797a	-0.11400123
74	0xbe32f1d5	-0.17475064
75	0xbda82db3	-0.082118414
76	0xbd3a575f	-0.04549348
77	0xbd96bb11	-0.07359899
78	0xbda9de33	-0.08294334
79	0xbcc0f0a6	-0.02355225
80	0xbd04e521	-0.032445077
81	0xbdc3b010	-0.09555066
82	0xbc280c84	-0.01025689
83	0xbd0831a2	-0.03325046
84	0x3a7cedee	0.00096484914
85	0x3d8af9f6	0.067859575
86	0x3caf49c4	0.021397479
87	0xbc416944	-0.011804882
88	0x3ca226b5	0.019793848
89	0xbd1f4191	-0.03888089
90	0xbdcaa3d8	-0.09894532
91	0xbc8490fd	-0.016182417
92	0xbd7ee168	-0.062226683
93	0x3ce93818	0.02846913
94	0x3dbc2f50	0.09188712
95	0x3ca6384c	0.020290516
96	0x3cd498d7	0.025951786
97	0x3d4859ba	0.048913695
98	0xbd101e0a	-0.035184897
99	0xbe390035	-0.18066485
100	0xbe04b44b	-0.12959401
101	0xbe375eae	-0.17907211
102	0xbdb80bb3	-0.089866064
103	0xbd505e8b	-0.050871413
104	0xbdde5cc2	-0.10857536
105	0xbdb81c10	-0.089897275
106	0xbd9ba14c	-0.07599124
107	0xbe0782b0	-0.13233447
108	0xbc8320bd	-0.016006822
109	0x3b92f50f	0.0044847797
110	0x3d5b5fbd	0.0535581
111	0xba54d44d	-0.00081187935
112	0xbb511245	-0.0031901759
113	0x3d1e3532	0.03862495
114	0x3cfadf24	0.03062398
115	0x3cd28b76	0.025701266
116	0x3d8dedb6	0.069301054
117	0x3dcc7128	0.0998252
118	0x3d8f5a94	0.06999698
119	0x3df0bcf6	0.117547914
120	0x3d973dac	0.0738481
121	0x3ce81515	0.028330365
122	0x3db0e1ef	0.086368434
123	0x3df47ab4	0.11937466
124	0x3dbff1a2	0.0937226
125	0x3e1f95bb	0.15584461
126	0xbcb5a387	-0.022172702
127	0xbd3d21fe	-0.046174996
128	0xbcb6c112	-0.02230886
129	0xbcc71b59	-0.024305033
130	0xbd78ce25	-0.06074347
131	0xbd29a0a5	-0.04141297
132	0x3d0389af	0.032113727
133	0xbaed0f3d	-0.0018086206
134	0xbc00df07	-0.007865674
135	0xbe0a1c5c	-0.1348738
136	0xbda26f2a	-0.07931359
137	0xbd069bb3	-0.03286333
138	0xbe0f3f3d	-0.13988967
139	0xbdc5254f	-0.09626257
140	0xbd7b33cb	-0.06132869
141	0xbe08f13c	-0.13373274
142	0xbdc65418	-0.09684008
143	0xbd6e0057	-0.058105793
144	0xbd9a7827	-0.075424485
145	0xbcab7f5b	-0.020934751
146	0x3cce5c8c	0.025190614
147	0xbde06e49	-0.10958535
148	0xbda2d489	-0.07950694
149	0xbd5970e3	-0.053086173
150	0xbdf3c65c	-0.119030684
151	0xbdcae5f6	-0.09907143
152	0xbd98e612	-0.074657574
153	0xbd2aeb67	-0.041728403
154	0x3b0c30e6	0.002139145
155	0x3cc73984	0.024319418
156	0xbd90bcb5	-0.07067243
157	0xbd7d0b96	-0.061778627
158	0xbd8c7a73	-0.06859293
159	0xbdbbad0f	-0.09163868
160	0xbdcde69d	-0.100537516
161	0xbde39f61	-0.111143835
162	0x3d23ad12	0.039959975
163	0x3cca0e43	0.024665004
164	0xbac5318f	-0.0015044677
165	0xbcd4f3d9	-0.025995182
166	0xbc29f08f	-0.010372295
167	0xbcc2fbbd	-0.023801679
168	0xbdd2fd67	-0.10302239
169	0xbd70b555	-0.05876668
170	0xbd83120d	-0.06399927
171	0x3d88c482	0.06678106
172	0x3d849aae	0.06474815
173	0x3d870088	0.06591898
174	0xbc6b326e	-0.014355285
175	0x3bf26845	0.007397684
176	0x3cbded64	0.023184486
177	0xbde3dcb6	-0.11126082
178	0xbd8aca68	-0.06776887
179	0xbd59181e	-0.053001516
180	0xbd312cae	-0.0432555
181	0xbc94a1c2	-0.018143538
182	0x3cab6011	0.020919831
183	0xbda50101	-0.08056832
184	0xbd11fc8e	-0.035641246
185	0x3c2a7f7e	0.010406373
186	0xbe27861a	-0.1635975
187	0xbdd5e8b2	-0.10444774
188	0xbd860e8f	-0.065457456
189	0x3caf4245	0.021393904
190	0x3da90ba9	0.08254177
191	0x3e4b3978	0.19846141
192	0x3ca22bc1	0.019796254
193	0x3d169727	0.036765244
194	0x3dfd7de5	0.12377528
195	0x3da31d51	0.07964576
196	0x3da2742e	0.07932316
197	0x3e2348c0	0.1594572
198	0x3e34af2c	0.17644948
199	0x3e630fe8	0.22174037
200	0x3eb00545	0.3437902
201	0x3df15a16	0.11784761
202	0x3dd5abad	0.10433135
203	0x3e380948	0.1797229
204	0x3e1d912b	0.15387408
205	0x3dfacef9	0.12246508
206	0x3e47c92b	0.19510333
207	0x3dfd7e0d	0.12377558
208	0x3df92396	0.121649906
209	0x3e2b67bb	0.16738789
210	0x3da34f4b	0.07974108
211	0x3cd2df45	0.025741229
212	0x3ce4c0f1	0.027924033
213	0x3e072be9	0.13200344
214	0x3d345a79	0.044031594
215	0x3c0c7daf	0.008574887
216	0xbd7350bb	-0.059403162
217	0xbd84d7c1	-0.06486464
218	0xbde2ed7e	-0.11080454
219	0xbced1d61	-0.028944673
220	0xbd4b8f6c	-0.049697325
221	0xbde427c8	-0.111404
222	0xbd3db872	-0.04631848
223	0xbdc2df6d	-0.09515271
224	0xbe1f973a	-0.15585032
225	0xbc8fa83c	-0.017536275
226	0x3c7431c7	0.014904446
227	0xbd83fe18	-0.06444949
228	0x3cb4fa45	0.022091994
229	0x3d2ebcaf	0.04266041
230	0xbd84fe2d	-0.06493793
231	0xbc92c613	-0.017916715
232	0xbd860638	-0.06544155
233	0xbe23564b	-0.15950887
234	0x3d0556bf	0.03255343
235	0x3d7b1598	0.06129989
236	0x3b8f3973	0.004370862
237	0x3ce248f7	0.027622683
238	0x3cf8473f	0.03030741
239	0xbcea62a2	-0.028611485
240	0xbcb7cd0f	-0.022436647
241	0xbd5fe70e	-0.05466371
242	0xbda35cd2	-0.079766884
243	0x3e9f844a	0.31155616
244	0x3e9980de	0.2998113
245	0x3e92efe7	0.28698656
246	0x3e7a3a13	0.24436216
247	0x3e99b7b5	0.3002297
248	0x3ec68391	0.38772252
249	0xbc06d36f	-0.008229121
250	0x3de37c18	0.111076534
251	0x3e733f24	0.23754555
252	0x3e7ad4d8	0.24495256
253	0x3e828caf	0.25497958
254	0x3e8d0700	0.27544403
255	0x3e70ca4a	0.23514667

down2.down_block3d.1.double_conv3d.0.bias f4 [16]
0	0xb907b948	-0.00012943626
1	0x3894fd4c	7.10437e-05
2	0xb87df2ff	-6.054621e-05
3	0xba0a2c25	-0.000527086
4	0x39424f4b	0.0001853082
5	0xb738e9aa	-1.1021659e-05
6	0xba0e3910	-0.0005425373
7	0x3972acb6	0.00023143258
8	0x37f01b40	2.8622919e-05
9	0x37f18edc	2.8795963e-05
10	0xb761310e	-1.34224665e-05
11	0x38a8b70a	8.044958e-05
12	0xb9106aba	-0.00013772669
13	0xb9a77c9c	-0.00031945563
14	0x39df7bfd	0.00042626253
15	0xb7856f6d	-1.5906722e-05

down2.down_block3d.1.double_conv3d.3.weight f4 [16, 16, 3, 3, 3]
0	0x3d3dd06d	0.04634135
1	0x3d78fb1a	0.060786344
2	0x3d37d0a1	0.0448767
3	0x3d91584b	0.07096919
4	0x3d8ce9c4	0.06880525
5	0x3d20751d	0.039174188
6	0x3d5f2886	0.054482006
7	0x3d237a4f	0.039911564
8	0x3c21b8b8	0.009870701
9	0x3db316f2	0.08744611
10	0x3d6bf558	0.057607025
11	0xbb05330d	-0.0020324618
12	0x3d880a7e	0.06642626
13	0x3d0bb471	0.03410763
14	0xbca07c63	-0.019590562
15	0x3c7dea5f	0.015497773
16	0xbc4ab069	-0.012371161
17	0xbd5f7811	-0.054557864
18	0x3cfc11ae	0.03077015
19	0xbbe3ffc0	-0.006957978
20	0xbd603aa5	-0.054743428
21	0x3bf72ab4	0.0075429324
22	0xbc7c8a1d	-0.015413788
23	0xbd69628e	-0.056978755
24	0xbcdd7022	-0.027031008
25	0xbd2dba65	-0.042414088
26	0xbda6c063	-0.081421636
27	0xbc28598c	-0.010275256
28	0xbc338432	-0.010956811
29	0xbb524988	-0.0032087285
30	0xbb551597	-0.003251409
31	0xbbd864dc	-0.0066038202
32	0xbb4c945e	-0.0031216363
33	0x3c6eac43	0.014567438
34	0x3c120b26	0.008913791
35	0x3c14a96e	0.009073598
36	0xbcfb4392	-0.030671868
37	0xbd0d1f20	-0.03445351
38	0xbc7e8c19	-0.015536332
39	0xbc9b932c	-0.018991075
40	0xbcaa0249	-0.020753043
41	0xbb874946	-0.004128608
42	0x3c19232c	0.009346765
43	0x3b96d08a	0.0046024965
44	0x3c99a4c2	0.01875532
45	0xbd00a44b	-0.031406682
46	0xbcd04856	-0.025425117
47	0xbc161787	-0.009160883
48	0xbba19a19	-0.0049317
49	0xbc06402a	-0.008194009
50	0xba167c66	-0.0005740583
51	0x3d0cd457	0.03438219
52	0x3caed202	0.021340374
53	0x3c92d0ae	0.017921772
54	0xbc8a42cd	-0.016877556
55	0xbcc79fad	-0.024368132
56	0xbcc2d8ed	-0.023785079
57	0xbcd958ab	-0.026531538
58	0xbcd40e51	-0.025885733
59	0xbc10449d	-0.008805421
60	0xbcbcf527	-0.023066116
61	0xbc301a0f	-0.0107484
62	0x3c4efa78	0.012632959
63	0xbcf76c31	-0.030202957
64	0xbc139b01	-0.009009124
65	0x3c103895	0.008802553
66	0xbcbe37a8	-0.023219898
67	0x3b949d9d	0.0045353905
68	0x3ca7a50b	0.02046444
69	0x3c1189ec	0.008882981
70	0x3d0bdd4a	0.034146585
71	0x3d218442	0.03943277
72	0x3d89fe4e	0.06737958
73	0x3db1fe2c	0.086910576
74	0x3d93040a	0.07178505
75	0x3db1ba88	0.08678156
76	0x3dbf4cf6	0.09340851
77	0x3d9637c2	0.07334854
78	0x3ddd4e78	0.10805982
79	0x3dc09fc2	0.094054714
80	0x3d8fa10c	0.07013139
81	0xbc690df8	-0.014224522
82	0xbd117b5b	-0.03551803
83	0xbcff0d6d	-0.031134332
84	0xbc4150af	-0.011799022
85	0xbca8c7db	-0.020603111
86	0x3c07d829	0.008291283
87	0x3cba2efa	0.022727478
88	0x3cb645f6	0.022250157
89	0x3d431086	0.04762318
90	0xbd55c5d5	-0.05219062
91	0xbd2490bc	-0.040177092
92	0xbb828f25	-0.0039843493
93	0xbcd92188	-0.026505247
94	0xbbb69bf9	-0.0055727926
95	0x3cff31a9	0.03115161
96	0x3ce59578	0.028025374
97	0x3d0cfd74	0.0344214
98	0x3d46b545	0.048512716
99	0x3d356507	0.0442858
100	0x3d7411fe	0.05958747
101	0x3d93938d	0.072058775
102	0x3db31bfb	0.08745571
103	0x3dbde394	0.09271923
104	0x3dc0103b	0.09378096
105	0x3e10db98	0.14146268
106	0x3dfd2a87	0.12361627
107	0x3de1c161	0.11023212
108	0xba9eac8c	-0.0012105866
109	0x3ca7d5a5	0.020487616
110	0x3c9d09e6	0.019169759
111	0xbc5821ae	-0.013191624
112	0x3c87443c	0.016512029
113	0x3c2d4699	0.010575914
114	0xbcd910df	-0.026497303
115	0xbc07e76d	-0.008294922
116	0xbcaa36e9	-0.020778136
117	0x3d8fddea	0.070247486
118	0x3da4608a	0.08026226
119	0x3d8fe9cc	0.07027015
120	0x3d27d3a0	0.040973306
121	0x3d7fe4c7	0.06247404
122	0x3d83df05	0.06439022
123	0x3ccc86d9	0.024966644
124	0x3cf81be0	0.03028673
125	0x3cf7950c	0.030222438
126	0x3d381b27	0.04494777
127	0x3db140d1	0.08654941
128	0x3de22cf9	0.11043734
129	0x3d2fe975	0.04294725
130	0x3da3609c	0.07977411
131	0x3dbe0b8d	0.09279547
132	0x3c82bcef	0.015959231
133	0x3cdeb6af	0.02718672
134	0x3d2a7ccd	0.041622926
135	0x3d3ef66a	0.046621718
136	0x3cf7616f	0.030197827
137	0x3bbc4721	0.005745784
138	0x3ce2a2d2	0.02766553
139	0x3c9b2e33	0.018942928
140	0x3bdf159f	0.0068079974
141	0xbb414a39	-0.0029493703
142	0xbb655e77	-0.0034998932
143	0xbc550ee1	-0.013004036
144	0x3d25924b	0.04042272
145	0x3c519a08	0.012793072
146	0x3bfd12bc	0.0077231806
147	0x3ced4241	0.028962256
148	0x3c1a2717	0.009408734
149	0x3c54a8c6	0.012979692
150	0x3c45d55b	0.012074794
151	0x380f5f66	3.4182704e-05
152	0x3b60f576	0.0034325994
153	0x3cc2abcc	0.02376356
154	0x3c7f0e61	0.015567393
155	0x3d1989bd	0.037484873
156	0x3c32bdb4	0.010909487
157	0x3b188a8c	0.002327594
158	0x3ce74bc6	0.028234374
159	0x3b944801	0.004525185
160	0xbc08e60c	-0.008355629
161	0x3c11b35c	0.00889286
162	0x3d42c8e5	0.04755487
163	0x3d41ddd3	0.04733069
164	0x3d2a8607	0.041631725
165	0x3cc21c9e	0.023695286
166	0x3ce14527	0.027498795
167	0x3d040735	0.032233436
168	0xbc12b663	-0.008954617
169	0xba51695c	-0.0007988417
170	0x3c3119ec	0.010809403
171	0x3d5fb2b1	0.054613773
172	0x3d3aa7c1	0.04557014
173	0x3d33f8ed	0.043938566
174	0x3d25bb51	0.040461842
175	0x3d156e1d	0.036481965
176	0x3d2cba4d	0.042169858
177	0x3cb0dafc	0.021588795
178	0x3cc3b6d6	0.023890894
179	0x3d0d4a85	0.034494895
180	0x3d859b4d	0.06523762
181	0x3d807bef	0.062736385
182	0x3d9715cc	0.07377204
183	0x3d67afc2	0.0565641
184	0x3d532d41	0.05155683
185	0x3d7f1826	0.06227889
186	0x3d5ef472	0.05443234
187	0x3d3b3415	0.045703966
188	0x3d48cd61	0.04902399
189	0x3d773553	0.06035359
190	0x3ceda097	0.02900724
191	0x3bbe476b	0.0058068535
192	0xbacbc046	-0.0015544973
193	0xbc65a1b0	-0.0140156
194	0xbd0085ff	-0.03137779
195	0xbc0d2a6d	-0.008616072
196	0xbcacd7e2	-0.021099035
197	0xbd33cf95	-0.043899138
198	0xbca65db5	-0.020308355
199	0xbc26e57a	-0.010186547
200	0xbcd168a6	-0.025562596
201	0xbd24a828	-0.04019943
202	0xbd0524eb	-0.03250591
203	0xbd634e86	-0.055494808
204	0xbd5d8836	-0.05408498
205	0xbd4eaba6	-0.050456665
206	0xbd821d26	-0.06353216
207	0x3b5ea642	0.003397361
208	0x3b5785ef	0.0032886227
209	0xbc9c7111	-0.019096883
210	0xbbeb0312	-0.007171997
211	0xbc09f477	-0.008420101
212	0xbcd93a14	-0.026516952
213	0xbd1986ab	-0.037481945
214	0xbcb1ca99	-0.021703051
215	0xbc8e327c	-0.017358057
216	0xbca97e83	-0.020690208
217	0xbcb439b6	-0.022000175
218	0xbcd16cc8	-0.025564566
219	0xbcf8e2c8	-0.030381575
220	0xbd060a5d	-0.032724727
221	0xbce062a1	-0.02739078
222	0xbcd43678	-0.025904879
223	0xbcb74937	-0.022373779
224	0xbbe0f9cb	-0.006865715
225	0xbd0923ec	-0.033481523
226	0xbd063e9a	-0.032774545
227	0xbc86e447	-0.016466273
228	0xbd2500d1	-0.04028398
229	0xbd006af8	-0.031352013
230	0xbb0ba2c2	-0.0021306728
231	0xbc65c641	-0.014024318
232	0x3be379e8	0.0069420226
233	0x3cf344ee	0.029695954
234	0x3c818c38	0.015813932
235	0x3d102fc6	0.03520181
236	0x3d3d4335	0.04620667
237	0x3d0509cc	0.032480046
238	0x3d1a4b7e	0.03766965
239	0x3d233717	0.03984746
240	0x3d832d8e	0.06405173
241	0x3d700ed8	0.058607906
242	0x3d4a0bd4	0.049327686
243	0x3d1b43f2	0.037906595
244	0x3c9a75e0	0.018855035
245	0x3af4f0dd	0.0018687506
246	0xbccf5471	-0.02530882
247	0xbd240a18	-0.04004869
248	0xbce4aee3	-0.027915424
249	0xbce6b493	-0.028162276
250	0xbcb9bb83	-0.02267242
251	0xbc28f38d	-0.010311973
252	0x3d2a4f02	0.041579254
253	0x3cafbf8c	0.021453641
254	0x3b4a8023	0.003089913
255	0xbd6887cf	-0.056770142

down2.down_block3d.1.double_conv3d.3.bias f4 [16]
0	0xb97ccace	-0.00024108143
1	0xb8b170c0	-8.461019e-05
2	0xb752a453	-1.2555235e-05
3	0x3a40af16	0.00073503086
4	0xb8898f64	-6.559378e-05
5	0xb9e95720	-0.00044506136
6	0x38942806	7.064645e-05
7	0x398e2693	0.0002711309
8	0x360df052	2.1150522e-06
9	0xb88ae79d	-6.623494e-05
10	0xb851b0e2	-4.9994218e-05
11	0x39cf0dce	0.00039492402
12	0x38e5a2e1	0.000109499095
13	0x37215d40	9.618059e-06
14	0x39929ae2	0.00027962687
15	0x37b57a4a	2.1633827e-05

down2.down_block3d.1.shortcut.weight f4 [16, 8, 1, 1, 1]
0	0x80018781	-1.40445e-40
1	0x8001eb33	-1.76209e-40
2	0x000963b4	8.62286e-40
3	0x0003918d	3.2772e-40
4	0x8001f86e	-1.80955e-40
5	0x800a1572	-9.26048e-40
6	0x0004cd08	4.40893e-40
7	0x0006f56f	6.39058e-40
8	0x80045b85	-4.00173e-40
9	0x00032789	2.89689e-40
10	0x00022caa	1.99693e-40
11	0x0003bb94	3.42797e-40
12	0x8007cf42	-7.17199e-40
13	0x8007d5e2	-7.19575e-40
14	0x00004736	2.5546e-41
15	0x800719ce	-6.52105e-40
16	0x00050781	4.6187e-40
17	0x80011d8d	-1.02436e-40
18	0x00092202	8.38719e-40
19	0x800579ad	-5.02827e-40
20	0x8004a4f1	-4.26512e-40
21	0x8002234b	-1.96332e-40
22	0x800758cf	-6.74707e-40
23	0x8002a34e	-2.42254e-40
24	0x00008600	4.807e-41
25	0x00032b0d	2.9095e-40
26	0x80020b9d	-1.87837e-40
27	0x0007bf6a	7.11515e-40
28	0x00078d29	6.93487e-40
29	0x0003c949	3.47714e-40
30	0x800183eb	-1.39159e-40
31	0x8002e9dd	-2.67565e-40
32	0x8000dd49	-7.9382e-41
33	0x80020dea	-1.88662e-40
34	0x000296da	2.37786e-40
35	0x8000c804	-7.1752e-41
36	0x80051653	-4.67186e-40
37	0x0000801a	4.5954e-41
38	0x00080ed0	7.39998e-40
39	0x80024a69	-2.10364e-40
40	0x80042bf2	-3.83107e-40
41	0x00050ebf	4.64467e-40
42	0x0006705e	5.91323e-40
43	0x80088a57	-7.84311e-40
44	0x00020ebe	1.8896e-40
45	0x80091707	-8.3478e-40
46	0x0008d84a	8.12274e-40
47	0x80010c75	-9.6304e-41
48	0x0002494c	2.09965e-40
49	0x80029787	-2.38029e-40
50	0x800437f7	-3.87418e-40
51	0x80015bb5	-1.24734e-40
52	0x00035c19	3.08545e-40
53	0x0006ec10	6.35696e-40
54	0x80035367	-3.05426e-40
55	0x800385ab	-3.23458e-40
56	0x800851b6	-7.63996e-40
57	0x0000938b	5.2928e-41
58	0x80027ccd	-2.28441e-40
59	0x80008869	-4.8935e-41
60	0x8000e0f1	-8.0694e-41
61	0x0002ec0a	2.68346e-40
62	0x80067d66	-5.95997e-40
63	0x800691d6	-6.03329e-40
64	0x0009891b	8.75704e-40
65	0x8000a76e	-6.0062e-41
66	0x80068565	-5.98866e-40
67	0x0086db0d	1.2384537e-38
68	0x80064609	-5.76137e-40
69	0x800226ae	-1.97547e-40
70	0x8003d749	-3.52736e-40
71	0x80030723	-2.78067e-40
72	0x000232a8	2.01843e-40
73	0x0004772e	4.10096e-40
74	0x0004f099	4.53652e-40
75	0x00007fd5	4.5857e-41
76	0x8003c919	-3.47647e-40
77	0x80022650	-1.97415e-40
78	0x8004fb5f	-4.57517e-40
79	0x00036dac	3.1485e-40
80	0x00054191	4.82698e-40
81	0x0006f256	6.37947e-40
82	0x800006e4	-2.472e-42
83	0x00002587	1.3462e-41
84	0x80057e0f	-5.04399e-40
85	0x80078e33	-6.9386e-40
86	0x80084926	-7.60925e-40
87	0x80057d74	-5.04182e-40
88	0x000e1819	1.294342e-39
89	0x00099aa5	8.81995e-40
90	0x0029ec4b	3.850021e-39
91	0x8008d0e7	-8.09624e-40
92	0x0005bd12	5.27003e-40
93	0x0002dc27	2.62647e-40
94	0x0001ae22	1.54303e-40
95	0x0000912e	5.208e-41
96	0x80013aee	-1.12975e-40
97	0x00067d68	5.96e-40
98	0x00072cea	6.5896e-40
99	0x800384b8	-3.23117e-40
100	0x0008e91b	8.18306e-40
101	0x8005e12b	-5.39953e-40
102	0x80052412	-4.72117e-40
103	0x0009931d	8.79294e-40
104	0x00085edd	7.68715e-40
105	0x00090a4e	8.30216e-40
106	0x805c4512	-8.473643e-39
107	0x00085d8d	7.68244e-40
108	0x000372d6	3.16702e-40
109	0x8004fb89	-4.57576e-40
110	0x80061729	-5.59321e-40
111	0x01874d7a	4.970234e-38
112	0x8080464a	-1.1780158e-38
113	0x8008a234	-7.92871e-40
114	0x8001f53f	-1.79813e-40
115	0x8008bafa	-8.01759e-40
116	0x0001d9f0	1.70017e-40
117	0x80024fc0	-2.1228e-40
118	0x8005ba8c	-5.26098e-40
119	0x80074701	-6.6832e-40
120	0x0007b113	7.06371e-40
121	0x00098d33	8.77172e-40
122	0x0004917f	4.19536e-40
123	0x80017ad8	-1.35904e-40
124	0x800030f6	-1.7564e-41
125	0x8009908b	-8.78372e-40
126	0x0001677d	1.2896e-40
127	0x0005c94a	5.31386e-40

down2.down_block3d.1.shortcut.bias f4 [16]
0	0xbe2881c6	-0.16455755
1	0xbda162e6	-0.078801915
2	0xbd92a9b3	-0.07161274
3	0x3cc2a5e0	0.023760736
4	0xbde14111	-0.109987386
5	0xbe2bb9fe	-0.16770169
6	0xbe75c7ec	-0.24002045
7	0xbdd6b2c9	-0.10483319
8	0xbe6d3386	-0.23164186
9	0xbd27a0f7	-0.040924992
10	0xbdb31d2e	-0.087458
11	0xbdeacd11	-0.114648946
12	0xbe3646ef	-0.17800497
13	0xbd8781c9	-0.066165514
14	0xbe1d01aa	-0.15332666
15	0xbe1c3c3a	-0.1525735
