simple_3dunet/checkpoints/test/backup/0.005-300/300.pth (torch, 377059 bytes, 49 tensors)

input.double_conv3d.0.weight f4 [4, 2, 3, 3, 3]
0	0xbdfc1b65	-0.123099126
1	0x3b8a68b4	0.0042239074
2	0xbcda4b2f	-0.026647178
3	0xbd7870da	-0.0606545
4	0x3dafde01	0.08587266
5	0x3d7064d3	0.058689903
6	0xbdd4886a	-0.103775814
7	0x3d524a61	0.051340465
8	0x3d0724bc	0.032994017
9	0xbe12cdac	-0.1433627
10	0x3d29b915	0.041436274
11	0xbc8c52d0	-0.017129332
12	0x3da483f3	0.0803298
13	0x3ea50e3b	0.3223742
14	0x3e83a298	0.25709987
15	0x3d372e1a	0.0447217
16	0x3e96da06	0.29463214
17	0x3e75f15d	0.24017854
18	0xbe44fc63	-0.19236903
19	0xbc62e846	-0.013849324
20	0xbdae4006	-0.08508305
21	0xbcccf3bb	-0.025018563
22	0x3e343ba5	0.17600878
23	0x3dc42a5f	0.09578394
24	0xbd9db03c	-0.0769963
25	0x3df952a3	0.12173965
26	0x3d0bc807	0.034126308
27	0xbe03d2d2	-0.1287339
28	0x3b3a0daa	0.0028389492
29	0xbcfa1b5a	-0.03053062
30	0xbd6f3a48	-0.05840519
31	0x3db48061	0.08813549
32	0x3d5f9f78	0.05459544
33	0xbdd33329	-0.103124924
34	0x3d3f9bc4	0.04677941
35	0x3ce64de2	0.02811331
36	0xbe165e36	-0.14684376
37	0x3d29b915	0.041436274
38	0xbc88d977	-0.016705258
39	0x3da7f99a	0.082019046
40	0x3ea5231c	0.3225335
41	0x3e832c68	0.25619817
42	0x3d38b7fe	0.045097344
43	0x3e976221	0.29567054
44	0x3e75a284	0.23987776
45	0xbe461f80	-0.19347954
46	0xbc63ddfe	-0.0139079075
47	0xbdafae50	-0.08578169
48	0xbccf2915	-0.025288144
49	0x3e3471ab	0.17621486
50	0x3dc3fb41	0.09569407
51	0xbd9d9551	-0.076944955
52	0x3df935a0	0.12168431
53	0x3d0bb461	0.03410757
54	0x3d8ecef8	0.0697307
55	0x3d679135	0.056534965
56	0xbc9c9c85	-0.019117603
57	0x3da96a30	0.08272207
58	0x3da2c200	0.07947159
59	0xbc157db7	-0.009124211
60	0x3d91ce5c	0.07119438
61	0x3d867c4c	0.065666765
62	0xbca05f99	-0.019576835
63	0x3dd3d545	0.10343412
64	0x3ddc376e	0.1075276
65	0x3d026e15	0.031843264
66	0x3e0b6bae	0.13615295
67	0x3e1e2a49	0.15445818
68	0x3d8639a3	0.06553962
69	0x3dd77f06	0.10522275
70	0x3dedbe99	0.11608619
71	0x3cdb940c	0.026803993
72	0x3da42c18	0.08016223
73	0x3db82809	0.08992011
74	0x3d0e0066	0.03466835
75	0x3d9e1358	0.07718533
76	0x3dd4abb1	0.1038431
77	0x3d381fb1	0.0449521
78	0x3d36ce43	0.0446303
79	0x3d890df8	0.066921175
80	0x3c473ca3	0.012160453
81	0x3d8d8353	0.06909814
82	0x3d6d15cc	0.057882115
83	0xbcabb944	-0.020962365
84	0x3dab8866	0.08375625
85	0x3da08719	0.07838268
86	0xbc35cf1e	-0.011096744
87	0x3d941011	0.07229627
88	0x3d84e55c	0.06489059
89	0xbcaaf31e	-0.02086788
90	0x3dd374f4	0.103250414
91	0x3ddcf1cd	0.10788307
92	0x3d03a1c6	0.0321367
93	0x3e0b3958	0.13596094
94	0x3e1e02ac	0.15430707
95	0x3d853cb6	0.0650572
96	0x3dd741ff	0.10510635
97	0x3ded2775	0.115797915
98	0x3cd34e29	0.025794106
99	0x3da40f81	0.0801077
100	0x3db86569	0.090037175
101	0x3d0e78dc	0.03478323
102	0x3d9dd417	0.077064686
103	0x3dd50bea	0.10402663
104	0x3d37fbdd	0.04491793
105	0x3d36d01c	0.044632062
106	0x3d8801e9	0.06640989
107	0x3c3f2762	0.011667104
108	0xbe0fe081	-0.14050485
109	0x3d1a6460	0.03769338
110	0x3c88ad3a	0.016684163
111	0xbd2d0a83	-0.042246353
112	0x3dec8a2c	0.11549792
113	0x3db044c3	0.08606865
114	0xbdacb351	-0.084326394
115	0x3d796292	0.06088502
116	0x3ca7126f	0.020394532
117	0xbe05a026	-0.13049373
118	0x3e0aa353	0.13538866
119	0x3d34c116	0.044129454
120	0x3de4ea65	0.1117752
121	0x3ee09791	0.43865636
122	0x3eb46400	0.35232544
123	0x3ce3cf6b	0.027808866
124	0x3ebe4f02	0.37169653
125	0x3e9592ac	0.29213464
126	0xbe914806	-0.28375262
127	0xbdacc34a	-0.08435686
128	0xbe4dea49	-0.20108904
129	0xbde966ec	-0.11396584
130	0x3dc00084	0.09375098
131	0x3b48c5dc	0.0030635512
132	0xbe301d81	-0.17198755
133	0x3d368875	0.04456373
134	0xbd374477	-0.044743028
135	0xbdf0aa5e	-0.11751245
136	0x3d5e3220	0.05424702
137	0xbc25a36e	-0.010109765
138	0xbd662487	-0.05618718
139	0x3e0a19bb	0.13486378
140	0x3d8d5397	0.06900709
141	0xbdf40641	-0.11915255
142	0x3d6dc9f0	0.05805391
143	0x3d70e095	0.058807928
144	0xbe0a54ec	-0.13508958
145	0x3e06cf42	0.13165
146	0x3d2fcb6b	0.042918604
147	0x3dec5140	0.11538935
148	0x3ee0291d	0.43781367
149	0x3eb744dd	0.35794726
150	0x3ce6d3a4	0.02817709
151	0x3ebf14cc	0.37320554
152	0x3e9703da	0.29495126
153	0xbe93f810	-0.28900194
154	0xbdbe4fad	-0.09292541
155	0xbe2b50c1	-0.16730024
156	0xbdde0eee	-0.10842691
157	0x3dae6b4d	0.0851656
158	0x39b8a5c1	0.0003521871
159	0xbe35c91f	-0.17752503
160	0x3d3317da	0.04372392
161	0xbd6ea0e1	-0.058258895
162	0xbdc71073	-0.09719934
163	0x3d372dfc	0.04472159
164	0x3b05c478	0.0020411294
165	0xbc85df0b	-0.016341707
166	0x3e147470	0.14497542
167	0x3d800474	0.06250849
168	0xbdc63dcb	-0.09679755
169	0x3d3b9d1d	0.04580413
170	0x3d697e1b	0.05700503
171	0xbd6ac034	-0.057312205
172	0x3e302398	0.17201078
173	0x3dae6adb	0.08516475
174	0x3e1806de	0.1484637
175	0x3ee6b0a6	0.45056647
176	0x3eb5e261	0.35524276
177	0x3d8fe69c	0.07026407
178	0x3ea906e4	0.3301307
179	0x3e809589	0.25114086
180	0xbe64bb46	-0.22337064
181	0xbde0e65e	-0.10981439
182	0xbe354141	-0.17700674
183	0xbdcd548f	-0.10025894
184	0x3d6975f2	0.056997247
185	0xbc7d0f7a	-0.015445584
186	0xbe19f4d5	-0.15034802
187	0xbaa88343	-0.0012856502
188	0xbe01ce3f	-0.12676333
189	0xbdaa4e7b	-0.0831575
190	0x3d9e128f	0.077183835
191	0x3cb3d462	0.021951858
192	0xbd2fb117	-0.042893495
193	0x3dcf653d	0.101267315
194	0x3d87e2da	0.066350654
195	0xbdb984a4	-0.09058502
196	0x3d097e74	0.03356786
197	0x3cbf66a3	0.02336437
198	0xbd5f1405	-0.05446245
199	0x3e308345	0.17237575
200	0x3dc04f41	0.093901165
201	0x3e20a62a	0.15688387
202	0x3ee845be	0.4536571
203	0x3eafbd5a	0.3432415
204	0x3d0def55	0.034652073
205	0x3eaa0bbd	0.3321208
206	0x3e73bf20	0.23803377
207	0xbe5a7de1	-0.21337081
208	0xbdf8369f	-0.12119793
209	0xbe0af1e3	-0.13568835
210	0xbdb047ad	-0.08607421
211	0x3d8f516a	0.069979504
212	0xbd4cb45f	-0.049976703
213	0xbe12e83f	-0.14346407
214	0x3babf1a0	0.00524731
215	0xbdbbbe62	-0.09167172

input.double_conv3d.0.bias f4 [4]
0	0x3b318f17	0.0027093345
1	0xbd8ba0d7	-0.06817787
2	0xbe2d269f	-0.16909264
3	0xbe108196	-0.14111933

input.double_conv3d.3.weight f4 [4, 4, 3, 3, 3]
0	0x3c897886	0.016781103
1	0x3cf3eab0	0.029774994
2	0xbdbbf02f	-0.09176671
3	0x3d47e19a	0.048799135
4	0x3db76fac	0.089568466
5	0xbd34ecda	-0.04417119
6	0xbd307683	-0.04308177
7	0xbb6f195d	-0.0036483624
8	0xbe1b6a4c	-0.15177268
9	0x3e891d0a	0.26779968
10	0x3e7e13c1	0.24812223
11	0x3d52b7b2	0.051444717
12	0x3e98d432	0.29849392
13	0x3ea25290	0.31703615
14	0x3de42050	0.111389756
15	0x3e01aedb	0.12664358
16	0x3e0ed34f	0.13947795
17	0xbd6dad77	-0.058026757
18	0x3d6fb468	0.05852166
19	0x3d4ddc25	0.050258774
20	0xbd6a417e	-0.057191364
21	0x3d2e0f31	0.042494956
22	0x3d8a7a12	0.06761564
23	0xbcfee12a	-0.031113226
24	0xbc87fa26	-0.016598772
25	0x3b588f5b	0.003304443
26	0xbdcf3164	-0.101168424
27	0xbab47951	-0.0013769065
28	0x3d4e4fc2	0.05036903
29	0x3c635961	0.01387629
30	0x3d38fa55	0.04516061
31	0x3db9c6a8	0.09071094
32	0x3d5a6896	0.053322397
33	0x3b91ddbf	0.004451483
34	0x3d583f84	0.05279495
35	0x3d4bd5d2	0.04976446
36	0xbd113d23	-0.035458695
37	0x3d8dbed9	0.06921167
38	0x3d351501	0.044209484
39	0x3d5af5c0	0.05345702
40	0x3e1d6cec	0.15373582
41	0x3de5db37	0.112234525
42	0x3c112d07	0.008860833
43	0x3dc0e951	0.094195016
44	0x3da4ca60	0.080464125
45	0xbc59d0ae	-0.013294382
46	0x3d9a30d5	0.07528845
47	0x3d84e936	0.06489794
48	0x3d295498	0.04134044
49	0x3deffac9	0.11717755
50	0x3de503b1	0.11182345
51	0x3bd48a83	0.0064862384
52	0x3da83f3a	0.082151845
53	0x3d9ba68f	0.07600128
54	0x3a0e8d5d	0.0005437935
55	0xbb78ce8e	-0.0037964913
56	0xbdf11e80	-0.117733955
57	0xbb258d44	-0.0025261203
58	0x3d1eb369	0.038745318
59	0xbdabadbd	-0.08382747
60	0xbdc10402	-0.094245926
61	0xbd616544	-0.055028215
62	0xbe4a62c9	-0.19764246
63	0x3e992b17	0.29915687
64	0x3e75f165	0.24017866
65	0x3cdf916c	0.027291022
66	0x3eba9806	0.3644411
67	0x3ebdfd40	0.37107277
68	0x3e038fca	0.1284782
69	0x3e698647	0.22805129
70	0x3e667d0b	0.22508638
71	0xbd1d631e	-0.038424604
72	0x3d68d8f2	0.05684752
73	0x3d0cc2d5	0.034365494
74	0xbdae5fe7	-0.08514386
75	0x3d806f56	0.06271236
76	0x3dab7651	0.083721764
77	0xbd1f7582	-0.038930424
78	0xbbd27dfc	-0.00642371
79	0x3bd5b4b0	0.006521784
80	0xbe0c358f	-0.13692306
81	0xbd813fbf	-0.06310987
82	0xbcf782f8	-0.030213818
83	0xbdeffa41	-0.11717654
84	0xbd341b15	-0.04397114
85	0x3cb1b579	0.021692978
86	0xbd8ebd41	-0.06969691
87	0xbdf3e930	-0.11909711
88	0xbd49d517	-0.049275484
89	0xbe250edf	-0.16118954
90	0x3e4cd3ee	0.2000272
91	0x3e4e8a8f	0.20170043
92	0x3cc17ffa	0.023620594
93	0x3ea72b2e	0.3265013
94	0x3ebcd23d	0.3687915
95	0x3e294289	0.16529287
96	0x3e64240f	0.2227938
97	0x3e85cd0d	0.26133004
98	0x3d1a1b3b	0.037623625
99	0x3d1d35fd	0.038381565
100	0x3d4e8bf1	0.050426427
101	0xbd685971	-0.056725923
102	0x3da0bbc3	0.07848313
103	0x3e000ff4	0.12506086
104	0x3c66792b	0.014066975
105	0x3c8473d1	0.016168507
106	0x3d544914	0.051827505
107	0xbd977b2f	-0.07396542
108	0x3c8c68d4	0.01713983
109	0x3bbc665e	0.005749508
110	0x3b46b7a8	0.003032187
111	0x3c695ce0	0.0142433345
112	0x3c19317c	0.009350177
113	0x3c5bfcb2	0.0134269465
114	0x3d88ad7b	0.06673714
115	0x3d8b4e9d	0.06802104
116	0x3d9d9956	0.07695262
117	0xbdb05c7e	-0.086113915
118	0xbdd08283	-0.10181143
119	0xbde10c49	-0.10988671
120	0xbdffd511	-0.12491811
121	0xbdf3231d	-0.11871932
122	0xbdbcce67	-0.092190556
123	0xbd5b4b5b	-0.05353866
124	0xbcfb22e4	-0.030656286
125	0xbc4f98f4	-0.012670744
126	0x3d74d2ce	0.05977135
127	0x3cf4f628	0.029902533
128	0xbcd22a44	-0.02565492
129	0x3a8d8c13	0.0010799192
130	0xbc5eed2f	-0.013606354
131	0xbd4fb332	-0.050708003
132	0x3c8ea006	0.01741029
133	0x3bc8c1b4	0.006126607
134	0xbcda6abc	-0.026662223
135	0xbc4a3807	-0.0123424595
136	0xbd3a1f76	-0.04544016
137	0xbd68e3c5	-0.056857843
138	0xbca03429	-0.019556122
139	0xbd362995	-0.04447325
140	0xbd1b899b	-0.037973028
141	0x3c4be7ac	0.012445372
142	0xbb8dc233	-0.004326129
143	0xbc477c0a	-0.012175569
144	0x3d2e45bc	0.042546973
145	0x3aee17a1	0.0018165001
146	0xbca51a74	-0.020154215
147	0x3ba133cb	0.0049195043
148	0xbc7d3aa5	-0.0154558765
149	0xbc898313	-0.016786134
150	0x3cd799b2	0.026318405
151	0x3c2e0d04	0.01062322
152	0x3bac6af4	0.0052617732
153	0x3da33e84	0.07970908
154	0x3d4f1657	0.050558414
155	0x3b058bee	0.0020377594
156	0x3d2b9175	0.041886766
157	0x3cc3f669	0.023921208
158	0xbbb6b738	-0.0055760406
159	0x3d1fef3f	0.039046522
160	0x3cdd3408	0.02700235
161	0x390a52c8	0.00013191544
162	0x3cccba8d	0.024991298
163	0x3cd09303	0.025460726
164	0x3d0e4f83	0.034743797
165	0x3d45c695	0.048285086
166	0x3d2a0d9b	0.04151688
167	0x3d618043	0.05505396
168	0x3dec8e4f	0.11550581
169	0x3dd051cf	0.10171854
170	0x3df99596	0.121867344
171	0xbe23682b	-0.15957706
172	0xbe1edf43	-0.15514855
173	0xbdfae10f	-0.12249958
174	0xbe45dc2f	-0.19322275
175	0xbe353291	-0.17695071
176	0xbdeb0368	-0.11475259
177	0xbdd92376	-0.10602467
178	0xbdb217cb	-0.086959444
179	0xbd0865cd	-0.03330021
180	0xbd396744	-0.045264497
181	0xbd7e969f	-0.062155362
182	0xbdb354ed	-0.08756433
183	0xbde5e7df	-0.112258665
184	0xbdf24527	-0.11829596
185	0xbdf32ab4	-0.11873379
186	0xbd8f4b24	-0.06996754
187	0xbd9163d9	-0.070991226
188	0xbd895f65	-0.06707648
189	0x3c910491	0.017702373
190	0x3a5de0e7	0.0008463994
191	0x3b14add9	0.002268663
192	0x3cd3a76a	0.025836665
193	0x3c841e9c	0.016127877
194	0x3cb76774	0.022388197
195	0x3da391a6	0.079867646
196	0x3d933f96	0.071898624
197	0x3d982b71	0.07430161
198	0xbe153376	-0.14570412
199	0xbe198190	-0.1499083
200	0xbdff2290	-0.12457764
201	0xbe3e5951	-0.18588759
202	0xbe30936c	-0.17243737
203	0xbddeeb5d	-0.10884736
204	0xbe0111f7	-0.1260451
205	0xbdd7f398	-0.10544509
206	0xbd5e932a	-0.054339565
207	0xbcb27e9f	-0.021788893
208	0xbd393ee2	-0.045225985
209	0xbd9d67a8	-0.076857865
210	0xbdc7f4c0	-0.09763479
211	0xbdd91aa7	-0.10600787
212	0xbddb0379	-0.10694022
213	0xbd9f4780	-0.077773094
214	0xbda4773c	-0.08030555
215	0xbda3caa6	-0.079976365
216	0xbc135c75	-0.008994211
217	0xbd7109ee	-0.05884736
218	0xbd72223d	-0.059114683
219	0xbd6093bb	-0.054828387
220	0xbdb40314	-0.087896496
221	0xbda9f26e	-0.08298193
222	0xbd1e4e4d	-0.038648892
223	0xbd97b994	-0.07408443
224	0xbd8253e0	-0.06363654
225	0xbd96e9ba	-0.073687986
226	0xbdd919c0	-0.106006145
227	0xbddb36a6	-0.10703783
228	0xbddd4e7a	-0.10805984
229	0xbdf6e973	-0.12056246
230	0xbdc965dc	-0.09833881
231	0xbd8c1895	-0.06840626
232	0xbdb0033d	-0.08594368
233	0xbd84c5a0	-0.064830065
234	0xbcf667f4	-0.030078866
235	0xbd853d3a	-0.06505819
236	0xbd73db88	-0.059535533
237	0xbd79d45a	-0.06099353
238	0xbd866f5c	-0.06564209
239	0xbd52822a	-0.051393665
240	0xbd12c3c1	-0.035831217
241	0xbd304fde	-0.043044917
242	0xbcdcfea5	-0.026976893
243	0x3d761153	0.060075115
244	0x3cc31166	0.023812007
245	0x3adc37c4	0.0016801287
246	0x3cb6c28f	0.02230957
247	0xbb00d62c	-0.0019658906
248	0xbcca29ee	-0.024678197
249	0x3c8a9f7c	0.016921751
250	0xb9a0c60c	-0.00030665135
251	0xbcb4c0d4	-0.022064604
252	0x3be3340b	0.0069336942
253	0xbd097a7e	-0.033564083
254	0xbd6b08ce	-0.057381444
255	0xbc9b0569	-0.018923478

input.double_conv3d.3.bias f4 [4]
0	0xbdd1c36a	-0.102423504
1	0xbcf7b8c1	-0.030239465
2	0x3b60b9c6	0.0034290417
3	0xbe219dc6	-0.15782842

input.shortcut.weight f4 [4, 2, 1, 1, 1]
0	0x3e9fb26e	0.3119082
1	0x3e222cc4	0.15837389
2	0xbe1bb49f	-0.1520562
3	0x3e3b630b	0.182995
4	0x3e3059ba	0.17221728
5	0x3e89bc44	0.26901448
6	0x3e8ef344	0.27919972
7	0x3e4ac07f	0.19799994

input.shortcut.bias f4 [4]
0	0xbf12fbf3	-0.57415694
1	0x3f5d7d06	0.86518896
2	0x3c9b7835	0.018978218
3	0xbf3f50ab	-0.74732465

down1.down_block3d.1.double_conv3d.0.weight f4 [8, 4, 3, 3, 3]
0	0xbca56b5b	-0.020192793
1	0xbc92cf17	-0.017921014
2	0xbc163f6f	-0.009170397
3	0xbc9bc84c	-0.019016407
4	0xbc10b7d7	-0.008832893
5	0xbbc4cac7	-0.0060056183
6	0xbc841e04	-0.016127594
7	0xbb9ac696	-0.0047233803
8	0x3a90e7a7	0.0011055366
9	0xbd8636b7	-0.06553405
10	0xbd80429e	-0.06262706
11	0xbd0b0fa5	-0.033950467
12	0xbd983d1f	-0.07433533
13	0xbd853245	-0.06503729
14	0xbd2775b6	-0.040883742
15	0xbd8dba74	-0.06920329
16	0xbd58c84c	-0.052925393
17	0xbce3abc8	-0.027791873
18	0xbdd7254f	-0.10505163
19	0xbdc5ebf4	-0.09664145
20	0xbd980de4	-0.074245244
21	0xbdedd5fa	-0.116130784
22	0xbdc69e62	-0.09698178
23	0xbd97e196	-0.07416074
24	0xbdca7ccc	-0.09887084
25	0xbda5a7ba	-0.08088632
26	0xbd62f7fa	-0.05541227
27	0x3c556faf	0.013027116
28	0x3cd07ea2	0.025451008
29	0x3ce0048f	0.027345924
30	0x3cf3b658	0.029750034
31	0x3d296645	0.041357297
32	0x3d43f227	0.047838356
33	0x3d3c8717	0.04602727
34	0x3d5ffc97	0.054684248
35	0x3d2bebb4	0.04197283
36	0x3df6ab66	0.120444104
37	0x3dcd4eda	0.10024805
38	0x3d9542a6	0.07288103
39	0x3dd036c2	0.10166694
40	0x3db3529e	0.08755992
41	0x3d7f410d	0.062317897
42	0x3db36c74	0.0876092
43	0x3d9407bd	0.072280385
44	0x3d542e84	0.051802173
45	0x3d3b0e5b	0.045667987
46	0x3cf293eb	0.029611548
47	0x3c2d972f	0.010595127
48	0x3d68591c	0.056725606
49	0x3cc3fecd	0.02392521
50	0x3c4acb10	0.012377515
51	0x3ca5de93	0.020247733
52	0xbb25925b	-0.0025264237
53	0xbc8f51e1	-0.017495098
54	0xbd1cedf4	-0.038312867
55	0xbce534fc	-0.027979366
56	0xbc18d368	-0.009327747
57	0xbd1f6f7a	-0.03892467
58	0xbcaf295d	-0.021382028
59	0xbb926842	-0.004467995
60	0xbd42fc00	-0.047603607
61	0xbcf8cf2c	-0.030372225
62	0xbc870b1e	-0.016484793
63	0x3d87d167	0.06631737
64	0x3d817364	0.06320837
65	0x3d56dc4e	0.052456193
66	0x3d5d9103	0.054093372
67	0x3d54db45	0.051966924
68	0x3d342107	0.04397681
69	0x3cec553f	0.028849242
70	0x3ccb19eb	0.024792632
71	0x3cd386d2	0.025821123
72	0x3c698c54	0.014254648
73	0x3ba351b6	0.004984106
74	0xbc085e60	-0.008323282
75	0x3aa914f8	0.0012899926
76	0xbc1bac63	-0.009501549
77	0xbc9b14ad	-0.018930757
78	0xbd0ae644	-0.033911005
79	0xbd2299fe	-0.03969764
80	0xbd2515f0	-0.040304124
81	0x3c83cfe1	0.016090335
82	0x3c319f5c	0.010841217
83	0x3bec5ba7	0.0072130742
84	0x3cbd83a7	0.023134066
85	0x3cbdd2f0	0.023171872
86	0x3c58d29d	0.013233808
87	0x3d020e99	0.031752203
88	0x3d0b25e5	0.033971686
89	0x3ccfbc2a	0.025358278
90	0xbd296b98	-0.041362375
91	0xbd2862a9	-0.041109715
92	0xbca0cca3	-0.019628828
93	0xbd68bad9	-0.056818817
94	0xbd49846e	-0.04919856
95	0xbcf75302	-0.030190948
96	0xbd56ece1	-0.052472
97	0xbd34198d	-0.04396968
98	0xbc94d6a1	-0.01816875
99	0xbd7779f2	-0.06041903
100	0xbd5bd612	-0.05367095
101	0xbcd39f54	-0.02583281
102	0xbd8d6de2	-0.06905724
103	0xbd48c6af	-0.049017604
104	0xbcdb49f6	-0.026768666
105	0xbd5e66bb	-0.05429719
106	0xbd08492a	-0.0332729
107	0xbc6d761f	-0.014493494
108	0xbcaf67dc	-0.021411829
109	0xbbf61054	-0.0075092707
110	0x3d74512f	0.059647735
111	0xbd820529	-0.063486405
112	0xbd756f7a	-0.059920765
113	0x3c249f8d	0.0100478055
114	0xbd193265	-0.037401576
115	0xbd6c1bc6	-0.057643674
116	0x3cc7b6ec	0.024379216
117	0xbd43abf0	-0.047771394
118	0xbd48908f	-0.048965987
119	0x3d1a589c	0.03768216
120	0xbdd2d655	-0.10294787
121	0xbdb27e91	-0.08715547
122	0x3be00985	0.0068370723
123	0xbd828ac5	-0.063741244
124	0xbd450920	-0.048104405
125	0x3d5060c8	0.050873548
126	0xbc229906	-0.009924179
127	0x3be8db4b	0.00710622
128	0x3dabd8cf	0.08390962
129	0xbd3bb220	-0.04582417
130	0xbc8b1f37	-0.016982658
131	0x3d716a46	0.05893924
132	0xbd0c74c0	-0.03429103
133	0xbbd06b29	-0.0063604307
134	0x3d9ce5b1	0.07660998
135	0x3e00111b	0.12506525
136	0x3d973d9b	0.07384797
137	0xbd06dcbe	-0.03292536
138	0x3e14a4e0	0.1451602
139	0x3ddd8233	0.10815849
140	0x3c2abe6a	0.010421375
141	0x3de89bfc	0.11357877
142	0x3ddfc5e1	0.10926414
143	0x3c9ae150	0.018906265
144	0x3dc22c72	0.094811335
145	0x3d54e79d	0.051978696
146	0xbd5264f0	-0.051365793
147	0x3dfbeba0	0.12300801
148	0x3d954c6d	0.07289968
149	0xbcab33e7	-0.020898772
150	0x3d7f2dd8	0.06229958
151	0x3d22f053	0.039779972
152	0xbd2df86f	-0.042473253
153	0xbce870a5	-0.028374026
154	0xbd2d0706	-0.042243026
155	0xbde224c1	-0.110421665
156	0x3c8645b5	0.01639066
157	0x3b3c02cd	0.0028688193
158	0xbd7b0007	-0.061279323
159	0x3abf7e5e	0.0014609804
160	0xbbec61f4	-0.0072138254
161	0xbd93db3b	-0.07219549
162	0x3dd08d0a	0.10183151
163	0x3d4a8dbb	0.04945157
164	0x3a3b95de	0.0007155816
165	0x3dc9a0d2	0.09845127
166	0x3d8194b7	0.06327193
167	0x3c646f7b	0.013942595
168	0x3d54f839	0.051994536
169	0x3d35897e	0.044320576
170	0x3c6a1feb	0.014289836
171	0x3dac5467	0.08414536
172	0x3d1787f4	0.03699489
173	0xbcabd40a	-0.020975132
174	0x3da7367b	0.08164688
175	0x3d0e225c	0.034700736
176	0xbc91fe5d	-0.017821485
177	0x3c7ded2f	0.0154984435
178	0xbb1445f7	-0.002262471
179	0xbd0e1abd	-0.03469347
180	0xbd0be773	-0.034156274
181	0xbd72bd12	-0.059262343
182	0xbdbb4ba7	-0.09145289
183	0xbce01981	-0.027355911
184	0xbd4c2689	-0.049841437
185	0xbda645c6	-0.08118777
186	0xbd63e207	-0.05563548
187	0xbd8d5f1a	-0.06902905
188	0xbdc3ce36	-0.09560816
189	0x3c809df1	0.015700312
190	0x3d3bd34a	0.045855798
191	0x3df6e778	0.12055868
192	0xbc715d64	-0.014731739
193	0xbc2f1e5d	-0.0106883915
194	0x3d4170af	0.047226604
195	0xbc41c79b	-0.011827375
196	0xbcd52a06	-0.026021015
197	0x3d3d64c2	0.04623867
198	0xbae94a74	-0.0017798678
199	0xbb8eb01d	-0.0043544904
200	0x3d9651e1	0.07339836
201	0xbd346027	-0.04403701
202	0xbd39c7fb	-0.04535673
203	0x3d0990e6	0.03358545
204	0xbc82b646	-0.015956055
205	0xbce41774	-0.027843215
206	0x3d891eb9	0.06695313
207	0xbccc3b62	-0.02493066
208	0xbc9806ff	-0.018558023
209	0x3d6d7952	0.05797703
210	0xbd777ab9	-0.06041977
211	0xbd23dabb	-0.04000352
212	0x3cf48012	0.029846225
213	0xbd2145fc	-0.039373383
214	0xbcdb4664	-0.026766963
215	0x3d68ef43	0.056868803
216	0x3da3626b	0.07977756
217	0xbdc70774	-0.097182184
218	0xbc85749a	-0.016290952
219	0xbd904e50	-0.07046187
220	0xbe610102	-0.2197304
221	0xbda581fd	-0.08081434
222	0x3c2bc437	0.010483793
223	0xbd4e2667	-0.050329592
224	0x3de13d7e	0.10998057
225	0xbd36233a	-0.04446719
226	0xbe8fb2bd	-0.28066054
227	0xbd978281	-0.073979385
228	0xbe80cce1	-0.2515631
229	0xbedc7180	-0.43055344
230	0xbe01bd01	-0.12669756
231	0xbd03243d	-0.03201698
232	0xbdc16ac3	-0.09444191
233	0x3e4fa614	0.20278198
234	0x3dbfbe1b	0.093624316
235	0xbbd25cf0	-0.0064197704
236	0x3dd306f1	0.10304058
237	0x3d842795	0.06452862
238	0xbb63fcaa	-0.003478805
239	0x3dfa5f33	0.12225189
240	0x3dea1887	0.114304595
241	0x3db34536	0.08753435
242	0x3e5fb79c	0.21847385
243	0x3caaa503	0.020830637
244	0x3d0067a4	0.03134884
245	0xbda5cbf6	-0.08095543
246	0x3af7ad5c	0.001889627
247	0x3be45bb5	0.00696894
248	0xbdd84e17	-0.105617695
249	0xbe099263	-0.13434748
250	0xbdae1bce	-0.08501397
251	0xbe2f251a	-0.17103997
252	0xbe8d5abd	-0.2760829
253	0xbe452d4c	-0.1925556
254	0xbe5428dd	-0.20718713
255	0xbe80b076	-0.2513463

down1.down_block3d.1.double_conv3d.0.bias f4 [8]
0	0xba59b708	-0.0008305167
1	0xba2f32c5	-0.00066832855
2	0x3a52292f	0.0008017001
3	0x3ae7cb18	0.0017684428
4	0x3bc7c0d0	0.006095983
5	0x3b1c0833	0.0023808598
6	0x37af9780	2.0932173e-05
7	0xbabda52b	-0.001446878

down1.down_block3d.1.double_conv3d.3.weight f4 [8, 8, 3, 3, 3]
0	0x3da5b3fa	0.080909684
1	0x3d906791	0.07051004
2	0x3d6f5231	0.058427993
3	0x3d64da7b	0.05587242
4	0x3d434f7c	0.047683224
5	0x3d44abca	0.048015393
6	0x3d63e5c3	0.05563904
7	0x3d33884e	0.043831162
8	0x3d1f9b36	0.03896638
9	0x3cc8ea82	0.024525885
10	0x3d440e35	0.04786511
11	0x3d9fcc6e	0.07802664
12	0x3c1ea48e	0.009682788
13	0x3d03fa48	0.03222111
14	0x3d8f547f	0.06998538
15	0x3c2f88fa	0.01071381
16	0x3cd8b8dc	0.026455335
17	0x3d79628c	0.060884997
18	0x3dbff9a5	0.09373788
19	0x3e09c7d1	0.1345513
20	0x3e2f751b	0.17134516
21	0x3dba1fdf	0.0908811
22	0x3dffbd18	0.12487239
23	0x3e22aa59	0.15885295
24	0x3dac4080	0.0841074
25	0x3df448b1	0.11927927
26	0x3e1bf7d2	0.15231255
27	0x3cdcd00b	0.026954671
28	0x3c8345b4	0.016024448
29	0xbc4a7a69	-0.012358286
30	0x3c0c7bb4	0.008574415
31	0x3ad207d3	0.001602406
32	0xbc8a3085	-0.016868839
33	0x3c0238be	0.007948099
34	0x3ba4b1a8	0.005026061
35	0xbc873a96	-0.016507428
36	0xbd8e2baa	-0.06941922
37	0xbd7d8f85	-0.06190445
38	0xbd4e7f42	-0.05041433
39	0xbd9b791e	-0.07591461
40	0xbd8ff083	-0.07028296
41	0xbd673727	-0.05644908
42	0xbd8ff97e	-0.07030009
43	0xbd8d47ef	-0.06898486
44	0xbd7a6591	-0.061132018
45	0xbc336152	-0.010948496
46	0x3cb0c0b4	0.021576263
47	0x3d3fdf76	0.04684397
48	0xbc1f0de2	-0.0097079
49	0x3c86e87b	0.016468277
50	0x3d2a7b19	0.0416213
51	0xbbd65cbc	-0.0065418165
52	0x3cab5ff5	0.02091978
53	0x3d2ae91f	0.041726228
54	0xbe64ee23	-0.22356467
55	0xbe3f4114	-0.18677169
56	0xbdb6afb5	-0.08920232
57	0xbe1501eb	-0.14551513
58	0xbdb1f836	-0.086899206
59	0x3afaeb73	0.0019143656
60	0xbb574c9b	-0.0032852057
61	0x3d0ec099	0.034851644
62	0x3dc9ade3	0.098476194
63	0x3e88f920	0.26752567
64	0x3ea1128b	0.3145946
65	0x3e97060a	0.29496795
66	0x3ec5d533	0.3863922
67	0x3ee27ba3	0.44234952
68	0x3ebe4995	0.37165514
69	0x3ec23cee	0.3793711
70	0x3ec4cc37	0.38437054
71	0x3e9f1310	0.3106923
72	0x3e8c8252	0.27443177
73	0x3e41c31a	0.18922082
74	0x3dd3e203	0.10345843
75	0x3e904d89	0.28184155
76	0x3e31445d	0.17311235
77	0x3d3d0bee	0.046153955
78	0x3e5fdd3e	0.21861741
79	0x3dd09579	0.1018476
80	0x3a82b221	0.00099713
81	0x3e0fd3ee	0.14045689
82	0x3de3221b	0.110904895
83	0x3da16834	0.07881203
84	0x3d6664e9	0.05624858
85	0xbc70114d	-0.014652562
86	0xbd92dbc3	-0.071708225
87	0xbc8a2e80	-0.016867876
88	0xbd7a6976	-0.06113573
89	0xbe1531ef	-0.1456983
90	0x3c8066c4	0.015674002
91	0xbd9df922	-0.07713534
92	0x3cb10f83	0.021613842
93	0xbda4002b	-0.080078445
94	0xbe5ec878	-0.2175616
95	0xbd15db49	-0.03658608
96	0x3d1b566d	0.03792422
97	0xbcb88c70	-0.022527903
98	0x3dc102d0	0.094243646
99	0xbd28c830	-0.04120654
100	0xbc90208f	-0.01759365
101	0x3d82bf55	0.0638415
102	0xbbd084d9	-0.006363493
103	0x3cb8753b	0.022516837
104	0x3e2236f5	0.15841277
105	0x3ce30727	0.027713371
106	0x3db86b61	0.09004856
107	0x3e5f3117	0.2179607
108	0xbd8443b0	-0.06458223
109	0xbc95f1de	-0.018303808
110	0x3c96da40	0.018414617
111	0xbd07e6b2	-0.033178993
112	0x3baaea32	0.0052159065
113	0x3d49f06a	0.049301542
114	0x3b9114f8	0.0044275485
115	0x3c916a63	0.017750924
116	0x3d594c87	0.053051498
117	0xbda1ddbc	-0.079036206
118	0x3bad096f	0.0052806656
119	0x3d61df82	0.055144794
120	0xbe39336e	-0.18086025
121	0xbdf65322	-0.12027575
122	0xbcf5ad40	-0.029989839
123	0xbe65d127	-0.22443067
124	0xbe596de2	-0.21233323
125	0xbdc120b1	-0.094300635
126	0xbd80b631	-0.0628475
127	0x3c5d3d6b	0.013503413
128	0x3d761180	0.060075283
129	0xbe0962c6	-0.13416585
130	0xbda35e1d	-0.07976935
131	0x3c08154a	0.008305857
132	0xbe117ed2	-0.14208534
133	0xbdd5e1ac	-0.10443434
134	0x3bd14e40	0.006387502
135	0x3c0ab2c9	0.008465477
136	0xbd59ddc7	-0.05319002
137	0xbdae0c9c	-0.08498499
138	0xbd42728b	-0.047472518
139	0xbe1f2009	-0.15539564
140	0xbe303207	-0.17206584
141	0xbd67e399	-0.05661354
142	0xbe118e8e	-0.14214537
143	0xbe3df216	-0.1854938
144	0xbe0930a4	-0.13397461
145	0xbe5a81b9	-0.21338548
146	0xbdb83ade	-0.08995603
147	0xbe91db51	-0.28487638
148	0xbecb57d3	-0.39715442
149	0xbe498499	-0.19679488
150	0xbe086134	-0.1331833
151	0xbe50d7e9	-0.20394863
152	0xbd66f2de	-0.05638396
153	0xbd9a5072	-0.07534875
154	0xbd5d16b6	-0.053976737
155	0x3d282b81	0.041057114
156	0xbd4c73d9	-0.04991517
157	0xbc3041f8	-0.010757916
158	0x3dfee497	0.12445944
159	0x3c36b828	0.011152305
160	0x3d968dd5	0.07351271
161	0x3e3f1d0f	0.18663429
162	0x3d69c6ed	0.057074476
163	0x3d59af6a	0.053145804
164	0x3d45a57b	0.048253518
165	0x3cc19ea7	0.023635222
166	0x3c932594	0.017962255
167	0x3c552a89	0.013010629
168	0x3cbd6c86	0.023123037
169	0x3c779d87	0.015113241
170	0x3ad3e81e	0.0016167199
171	0xbc991836	-0.018688302
172	0xbadb7c68	-0.001674545
173	0x3ceb040b	0.028688451
174	0xbd10c25a	-0.035341598
175	0xbcded7d4	-0.027202524
176	0xbba151e8	-0.004923094
177	0xbd0e8bd6	-0.034801327
178	0xbcebc5cf	-0.028780846
179	0xbc7652a2	-0.01503435
180	0x3d1d3ea9	0.038389836
181	0x3d887a77	0.06663983
182	0x3dc592b4	0.09647122
183	0x3caf9c74	0.021436907
184	0x3d2afc49	0.041744504
185	0x3d8482fb	0.06470295
186	0x3c828a5d	0.015935117
187	0x3d2c49fa	0.042062737
188	0x3d800783	0.06251433
189	0x3da09d18	0.07842463
190	0x3e03ed17	0.12883411
191	0x3dfdf10e	0.12399493
192	0x3cc3fe3e	0.023924943
193	0x3d998cc5	0.07497553
194	0x3dfdebe1	0.12398506
195	0x3c0fd615	0.0087790685
196	0x3c6e2412	0.014534967
197	0x3d2ecbb1	0.042674724
198	0x3e2a8ec6	0.16656026
199	0x3eaab820	0.333436
200	0x3ebd2445	0.36941734
201	0xbda79b80	-0.08183956
202	0xbc0eb7be	-0.0087108
203	0x3df2f270	0.118626475
204	0xbe3b5997	-0.18295895
205	0xbe3e8cb6	-0.18608364
206	0xbe0751b0	-0.13214755
207	0xbb1618b3	-0.0022902905
208	0x3e24aba4	0.160811
209	0x3e618919	0.22024955
210	0xbe81843b	-0.25296196
211	0xbe35e739	-0.17763986
212	0xbd45e3bc	-0.048312888
213	0xbea9cdac	-0.33164728
214	0xbe982195	-0.2971312
215	0xbe58ac48	-0.2115947
216	0x3c0678c2	0.008207502
217	0xbc095ea7	-0.008384383
218	0xbadd183a	-0.0016868182
219	0x3bb3319b	0.00546856
220	0x3bf1ac8f	0.007375307
221	0x3cf274b3	0.029596662
222	0x3bc3041e	0.0059514185
223	0x3cb5131e	0.022103842
224	0x3d471e1d	0.048612703
225	0x3cf4d1aa	0.029885132
226	0x3c1cb99b	0.009565736
227	0x3bdc35e2	0.0067202905
228	0x3ce79cbf	0.028272985
229	0x3cca8797	0.024722857
230	0x3d06f3ba	0.03294728
231	0x3cc8e99a	0.024525452
232	0x3d08657b	0.033299904
233	0x3d636904	0.055520073
234	0x3d2de0b0	0.042450607
235	0x3cc1acce	0.02364197
236	0x3c74ef38	0.014949612
237	0x3d70b0f7	0.058762517
238	0x3d4f40d0	0.05059892
239	0x3d1b15a1	0.037862424
240	0x3d7701d6	0.060304485
241	0x3d7fe4ee	0.062474184
242	0x3d637621	0.05553258
243	0x3c877695	0.016536037
244	0x3c2f716e	0.010708196
245	0x3c926897	0.017872138
246	0x3c75ccdf	0.015002458
247	0x3cbcc3e2	0.023042623
248	0x3d301cfb	0.042996388
249	0x3bc429dc	0.0059864353
250	0x3cb1a637	0.021685703
251	0x3d3fd463	0.046833407
252	0xbc94196f	-0.018078534
253	0xbd04b649	-0.032400403
254	0xbcc31cfd	-0.023817534
255	0xbc8959e2	-0.016766492

down1.down_block3d.1.double_conv3d.3.bias f4 [8]
0	0xba760a7d	-0.0009385718
1	0x3a37dea5	0.00070140726
2	0x3a9b0f51	0.0011830126
3	0xbb3c32d1	-0.0028716812
4	0xba205ad1	-0.00061170483
5	0x39d51e4a	0.00040649093
6	0xbb83e232	-0.0040247673
7	0x39f5905b	0.00046837595

down1.down_block3d.1.shortcut.weight f4 [8, 4, 1, 1, 1]
0	0xba6609c0	-0.00087752566
1	0xb9eed733	-0.00045555233
2	0xb9a41752	-0.00031297893
3	0xba8dc650	-0.0010816548
4	0x37f815f0	2.957412e-05
5	0x3790de16	1.7269555e-05
6	0x35a1d8f2	1.2058574e-06
7	0xb6981e85	-4.533506e-06
8	0x3753e65e	1.2630217e-05
9	0xb8bac563	-8.905937e-05
10	0xb8580210	-5.1500334e-05
11	0xb859b3d7	-5.190432e-05
12	0xb91b6612	-0.00014819976
13	0xb86e706a	-5.6848316e-05
14	0x39254b44	0.00015763665
15	0xb9f6b28c	-0.00047053804
16	0xb9c67be3	-0.00037857806
17	0xba1502fa	-0.00056843425
18	0xb96e3a08	-0.00022719067
19	0xba37d927	-0.0007013254
20	0xb8a06502	-7.648209e-05
21	0xb84a7d66	-4.827734e-05
22	0x3925299d	0.00015751128
23	0x36303716	2.6258108e-06
24	0xb99f7bc4	-0.00030419056
25	0xb8e947f3	-0.000111237074
26	0xb86030a4	-5.3451062e-05
27	0xb9c5554b	-0.00037638316
28	0xb9330394	-0.00017072103
29	0xb9fcdb76	-0.00048228697
30	0x384c306b	4.8682483e-05
31	0xb9ea97d3	-0.00044745076

down1.down_block3d.1.shortcut.bias f4 [8]
0	0x3f12f7ba	0.5740925
1	0x3e407968	0.18796313
2	0x3e20430a	0.15650573
3	0x3f2defdf	0.6794414
4	0x3fa4dcd6	1.2879894
5	0x3e6817e0	0.22665358
6	0xbdab3609	-0.08359916
7	0x3f410715	0.7540143

down2.down_block3d.1.double_conv3d.0.weight f4 [16, 8, 3, 3, 3]
0	0xbe08406f	-0.1330583
1	0xbe0246b1	-0.12722279
2	0xbdb07c8c	-0.086175054
3	0xbcff7dd5	-0.031187931
4	0xbd372490	-0.044712603
5	0xbd4dcbdf	-0.050243255
6	0x3d0acb3f	0.033885237
7	0xbc771cbc	-0.015082534
8	0xbd14dd95	-0.03634413
9	0xbd4ec911	-0.05048472
10	0xbca63335	-0.02028809
11	0x3cd1d19c	0.025612645
12	0xbd89bf7f	-0.06725978
13	0xbd673225	-0.056444306
14	0xbd18a944	-0.0372708
15	0xbd4b7cc7	-0.049679544
16	0xbd6d514d	-0.057938863
17	0xbd708b48	-0.05872658
18	0x3cdb5f97	0.02677898
19	0x3d2ff3d2	0.042957135
20	0x3d5a417a	0.0532851
21	0xbccf621f	-0.025315342
22	0xbc734b05	-0.014849429
23	0xbb8d4a80	-0.0043118596
24	0xbd2687d9	-0.0406569
25	0xbd843f75	-0.06457416
26	0xbd918534	-0.071054846
27	0xbc22fcfa	-0.00994801
28	0xbcc6c4d9	-0.024263786
29	0xbd4fcf5d	-0.050734866
30	0x3c429775	0.0118769305
31	0xbc98bb9b	-0.018644145
32	0xbd7e9970	-0.06215805
33	0x3c90896a	0.01764365
34	0xbcc0b881	-0.023525478
35	0xbd8366ca	-0.0641609
36	0xbc2c9d91	-0.010535614
37	0xbc9be70c	-0.01903107
38	0xbd2adee7	-0.041716482
39	0x3c182e61	0.009288401
40	0xbc6563aa	-0.014000813
41	0xbd56c54d	-0.052434254
42	0x3cb3244f	0.0218679
43	0xbc39ea02	-0.011347296
44	0xbd4bd68f	-0.049765166
45	0xbc070620	-0.008241206
46	0xbcaacace	-0.020848658
47	0xbd109fd1	-0.035308663
48	0x3c378875	0.0112019675
49	0xbc2cb34e	-0.010540796
50	0xbcfac881	-0.030613186
51	0x3d2439a3	0.04009403
52	0x3c81ba85	0.01583601
53	0xbb84cb8a	-0.004052584
54	0xbba80063	-0.005126999
55	0xbc6447c8	-0.01393313
56	0xbd2579e9	-0.040399466
57	0x3ac02fdb	0.00146627
58	0xbc93136a	-0.017953593
59	0xbd5a64d3	-0.05331881
60	0xbb585597	-0.003301
61	0xbd120f1a	-0.035658933
62	0xbd99546b	-0.074868046
63	0xbd12f22b	-0.03587548
64	0xbd2e0f6a	-0.04249517
65	0xbd862e50	-0.06551802
66	0xbcedf27f	-0.029046295
67	0xbd32a83c	-0.043617472
68	0xbd90910c	-0.070589155
69	0xbd2f09c7	-0.042733934
70	0xbd81dd07	-0.06340986
71	0xbdbb7aa0	-0.09154248
72	0xbc97a75a	-0.018512417
73	0xbd0113ef	-0.03151315
74	0xbd367c33	-0.04455204
75	0x3b628500	0.0034564137
76	0xbc7dfe8e	-0.015502585
77	0xbcffd7ae	-0.031230774
78	0x3cbb5b46	0.022870671
79	0x3c191241	0.009342731
80	0xbbe22554	-0.0069014225
81	0xbe49dcd6	-0.19713148
82	0xbe315889	-0.1731893
83	0xbdfb0181	-0.12256146
84	0xbe537f2e	-0.20653984
85	0xbe3f5f25	-0.18688639
86	0xbe089e10	-0.13341546
87	0xbe3befb8	-0.18353164
88	0xbe30e807	-0.17276011
89	0xbe00f805	-0.12594612
90	0xbde234cd	-0.11045227
91	0xbd9823ff	-0.07428741
92	0xbcce82ff	-0.025208948
93	0xbe6c8e0a	-0.23101059
94	0xbe41bc47	-0.18919478
95	0xbe007578	-0.12544811
96	0xbe900984	-0.2813226
97	0xbe80c5d6	-0.25150937
98	0xbe41cca4	-0.1892572
99	0xbd815269	-0.063145466
100	0xbd464d71	-0.048413698
101	0xbd18732e	-0.03721922
102	0xbe29d559	-0.16585292
103	0xbe0bd229	-0.13654388
104	0xbde85d46	-0.113459155
105	0xbe8f1e73	-0.27952918
106	0xbe8e3851	-0.2777734
107	0xbe83e1c7	-0.25758192
108	0xbcfc1ead	-0.030776346
109	0xbba68d5f	-0.0050827707
110	0x3d06a132	0.03286857
111	0xbccfba66	-0.025357436
112	0xbca72b49	-0.020406382
113	0x3c1abd8a	0.009444604
114	0x3c8b9cd7	0.01704256
115	0x3a8a1f1a	0.0010537833
116	0x3ca7c48c	0.020479463
117	0x3dd40139	0.10351796
118	0x3e09aafa	0.13444129
119	0x3e1c6d1a	0.15275994
120	0xba84e0c7	-0.001013779
121	0x3c959c14	0.0182629
122	0x3d347fa8	0.044067055
123	0xbd519f7d	-0.05117749
124	0xbd52d4b2	-0.051472373
125	0xbcd2fc1a	-0.025754977
126	0x3d95e487	0.07318979
127	0x3d924918	0.07142848
128	0x3d6d8e76	0.05799719
129	0xbcce805b	-0.025207689
130	0xbc8ad8d4	-0.016949095
131	0xbc949a76	-0.018140059
132	0xbdf1448f	-0.11780655
133	0xbe0c68dd	-0.13711877
134	0xbe0971d9	-0.13422336
135	0x3d26c5fd	0.04071616
136	0x3c3ce0b5	0.011528184
137	0xbcf6662a	-0.030078012
138	0x3d3ffd1f	0.046872254
139	0xbb25fc18	-0.0025327262
140	0xbd4e7934	-0.050408557
141	0x3cf67045	0.030082831
142	0xbc803629	-0.015650826
143	0xbd5a9081	-0.053360466
144	0x3c13fb1d	0.009032038
145	0xbca1fe4e	-0.019774582
146	0xbd5b3612	-0.053518362
147	0x3c8de021	0.017318787
148	0xbc9a3034	-0.018821813
149	0xbd76e6a4	-0.06027855
150	0x3cb16084	0.021652468
151	0xbc99c1b7	-0.018769128
152	0xbd71b438	-0.05900976
153	0xbd264936	-0.040597163
154	0xbd841732	-0.06449737
155	0xbda7ed06	-0.081995055
156	0xbd02cd1d	-0.031933893
157	0xbd682db5	-0.056684215
158	0xbd9635d1	-0.073344834
159	0xba881486	-0.0010382093
160	0xbd004939	-0.03131983
161	0xbd5dafcd	-0.054122735
162	0x3dbb5682	0.091473594
163	0x3d563c7a	0.05230377
164	0x3d108049	0.035278592
165	0x3c54a791	0.012979404
166	0xbb5fcb97	-0.0034148449
167	0x3ca85056	0.02054612
168	0xbc58852a	-0.013215343
169	0x3b7190b7	0.0036859938
170	0x3ccc33d9	0.024927067
171	0xbc70662c	-0.014672797
172	0xbd081be9	-0.033229742
173	0xbd0ebbc4	-0.034847036
174	0xbd3892fc	-0.04506205
175	0xbd1b5ed4	-0.037932232
176	0xbb84f510	-0.004057534
177	0xbdc243f9	-0.09485621
178	0xbd61902a	-0.055069126
179	0xbc1993d3	-0.009373623
180	0x3d6c8efd	0.05775355
181	0x3d2b3695	0.0418001
182	0x3d6109b7	0.054940905
183	0x3dab03f6	0.08350365
184	0x3da4bd28	0.08043891
185	0x3dc86f37	0.097868375
186	0x3d7b61eb	0.06137268
187	0x3dc8a650	0.097973466
188	0x3e09258c	0.13393229
189	0x3d282821	0.041053895
190	0x3d4ac236	0.04950162
191	0x3da41e0f	0.08013546
192	0x3d4b0ec2	0.04957462
193	0x3d22b728	0.039725453
194	0x3d61bbf7	0.055110898
195	0x3d975b7d	0.07390497
196	0x3d5a50dd	0.053299773
197	0x3d7d6537	0.061864104
198	0x3e163470	0.14668441
199	0x3e1ae448	0.15126145
200	0x3e247168	0.16058886
201	0x3d8cda67	0.068775944
202	0x3d8794ad	0.066201545
203	0x3d9a76b7	0.07542174
204	0x3d616a33	0.05503292
205	0x3d45a3c6	0.04825189
206	0x3d60ea9a	0.054911233
207	0x3ddeaf2a	0.10873254
208	0x3dd1ff70	0.10253799
209	0x3dbc4183	0.09192183
210	0x3c86afff	0.016441343
211	0x3c0be190	0.008537665
212	0x3c817743	0.015803939
213	0xbcfa7de0	-0.0305776
214	0xbd6e8303	-0.05823041
215	0xbd5c344f	-0.053760823
216	0x3ce82967	0.028340055
217	0x3c14476a	0.00905023
218	0x3dac1244	0.084019214
219	0x3ba1d23f	0.0049383934
220	0xbd0e5c47	-0.03475597
221	0xbbc3944f	-0.0059686075
222	0x3bff65ab	0.007794102
223	0xbc67d165	-0.014149045
224	0xbcaf4531	-0.021395298
225	0x3ce29bc9	0.027662175
226	0x3d38d10e	0.045121245
227	0x3e1379fc	0.14402002
228	0x3d8041dd	0.062625624
229	0x3c532f51	0.012889699
230	0x3cd0fc3a	0.025510896
231	0x3e00244f	0.1251385
232	0x3d9e7f3e	0.07739113
233	0x3d3b7c0a	0.04577259
234	0x3c07491a	0.008257175
235	0xbcf4e500	-0.029894352
236	0x3ba9ecfd	0.005185722
237	0x3cec4ece	0.02884617
238	0xbcd38435	-0.025819877
239	0xbb3b4d54	-0.0028580027
240	0x3d4ef7e2	0.05052937
241	0x3d3a9ee9	0.045561705
242	0x3d8de908	0.06929213
243	0xbd58d77d	-0.05293988
244	0xbd57bfce	-0.052673154
245	0xbd5d08cc	-0.053963467
246	0xbd5d81c8	-0.054078847
247	0xbd31d613	-0.043417048
248	0xbd1fc8c1	-0.039009813
249	0xbd29ee96	-0.0414873
250	0xbcba00be	-0.022705432
251	0xbcb1c219	-0.021698998
252	0xbbe07e59	-0.0068509993
253	0x3c007b14	0.007841844
254	0x3c9dd0db	0.01926463
255	0xbc905267	-0.017617417

down2.down_block3d.1.double_conv3d.0.bias f4 [16]
0	0x3896f106	7.1974515e-05
1	0xb9d9e289	-0.00041558247
2	0xb972cfb6	-0.00023156297
3	0x39ac3ecf	0.00032853193
4	0xb913e439	-0.00014104032
5	0x3a169f43	0.0005745778
6	0x3969d6e1	0.0002230066
7	0x3981dfd4	0.00024771562
8	0x39a12245	0.00030733846
9	0x3896d1bc	7.1916234e-05
10	0xb7ea3c30	-2.7923e-05
11	0x39cfd091	0.0003963751
12	0x39196d28	0.00014631881
13	0xb8ddab9e	-0.000105700674
14	0xb8fdd6cf	-0.00012103991
15	0xba1bdc18	-0.0005945577

down2.down_block3d.1.double_conv3d.3.weight f4 [16, 16, 3, 3, 3]
0	0x3d122fc6	0.03569009
1	0x3ba4a340	0.0050243437
2	0x3a8f198e	0.001091765
3	0x3d8ff8f9	0.0702991
4	0x3cda6152	0.026657734
5	0xbb07830d	-0.0020677478
6	0x3d1e6931	0.038674537
7	0x3d3c255b	0.045934062
8	0x3d19b605	0.037527103
9	0x3dc92576	0.09821598
10	0x3d7afdc3	0.061277162
11	0x3d297199	0.0413681
12	0x3dd5dcb2	0.10442485
13	0x3dc0fa50	0.09422743
14	0x3d8f15b9	0.06986565
15	0x3dc576c7	0.096417956
16	0x3de175f4	0.11008826
17	0x3dc7687e	0.09736727
18	0x3dc83a7d	0.09776781
19	0x3db54825	0.08851651
20	0x3da2a35c	0.079413146
21	0x3d911046	0.07083182
22	0x3d8a3509	0.06748397
23	0x3d8b1ac6	0.06792216
24	0x3dc38749	0.09547288
25	0x3daf9683	0.0857363
26	0x3d8c4271	0.0684861
27	0xbd8db9cc	-0.069202036
28	0xbda32ccb	-0.07967528
29	0xbc87d146	-0.016579282
30	0xbcc9fa47	-0.024655474
31	0xbcb7e437	-0.022447689
32	0x3c425073	0.011860001
33	0x3d34586b	0.044029634
34	0x3c7ae2e6	0.015312886
35	0x3cd6dde0	0.026228845
36	0x3c643660	0.01392898
37	0x3ba02271	0.0048869182
38	0x3d40d7b7	0.04708072
39	0xbcdd100c	-0.02698519
40	0xbca528d5	-0.020161072
41	0x3c7a8baf	0.015292092
42	0xbc3ab38e	-0.011395348
43	0xbc9c961a	-0.019114543
44	0x3c94cead	0.018164957
45	0xbc054b44	-0.0081356205
46	0xbc881c94	-0.01661519
47	0xbc079eb5	-0.008277585
48	0xbc9750f0	-0.018471211
49	0xba6d0a43	-0.00090423616
50	0x3b300d3a	0.0026863352
51	0x3bf742d9	0.0075458107
52	0x3d06c6c6	0.03290441
53	0x3d4707b1	0.04859132
54	0xbd4cad90	-0.04997021
55	0xbd87a687	-0.066235594
56	0xbd97a833	-0.07405128
57	0x3b916344	0.004436882
58	0x3b94b63d	0.004538326
59	0xbb2e845a	-0.002662918
60	0x3ba6af14	0.005086789
61	0x3c4d764e	0.012540413
62	0x3b42978c	0.002969238
63	0xbb9343b5	-0.0044941553
64	0x3d367f9c	0.04455529
65	0x3d85e26b	0.065373264
66	0xbd2c23dc	-0.042026386
67	0xbc49192a	-0.012274066
68	0x3ca35383	0.019937282
69	0xbddadadf	-0.106862776
70	0xbdaddad0	-0.08489001
71	0xbd1b1d51	-0.037869755
72	0xbdb1cfa2	-0.08682181
73	0xbca4aa33	-0.020100689
74	0x3d03adaf	0.03214806
75	0xbdb36433	-0.08759346
76	0xbd1e29b1	-0.03861398
77	0x3ba9b7ac	0.005179366
78	0xbdb88a93	-0.09010806
79	0xbd627ffd	-0.05529784
80	0xbd381366	-0.044940375
81	0x3ce8dfb3	0.02842698
82	0xbb624b4e	-0.0034529748
83	0xbbf7f397	-0.00756688
84	0x3d54b536	0.05193063
85	0x3ca06d10	0.019583255
86	0x3b2ff116	0.002684658
87	0x3d8d9a4d	0.06914196
88	0x3d293733	0.041312408
89	0x3c80dec0	0.015731215
90	0x3d20fadf	0.03930175
91	0xbcaa64ed	-0.020800078
92	0xbc9bbde2	-0.019011442
93	0x3de17a9b	0.11009713
94	0x3d063512	0.032765456
95	0x3c3941b3	0.011307168
96	0x3e1ae439	0.15126123
97	0x3db64f6a	0.08901866
98	0x3d745cb8	0.059658736
99	0x3d07d84c	0.03316526
100	0x3bdb5dae	0.006694517
101	0xbc9f8c2d	-0.01947602
102	0x3d6079bd	0.0548036
103	0x3c091bf6	0.008368483
104	0xbcfbddc2	-0.03074539
105	0x3d5bac50	0.053631127
106	0x3ab80689	0.0014040034
107	0xbcb19f40	-0.021682382
108	0x3de0e009	0.10980231
109	0x3d8b9c95	0.06816975
110	0xbbeeade5	-0.0072839134
111	0x3ce2d659	0.0276901
112	0x3dc20d83	0.094752334
113	0x3df27b7e	0.118399605
114	0xbbbf5018	-0.0058384053
115	0x3c9d9ebe	0.019240733
116	0x3de05c09	0.10955054
117	0x3db69cde	0.08916639
118	0x3e10ce4d	0.14141198
119	0x3dde986b	0.10868915
120	0x3b979743	0.004626186
121	0x3de56031	0.11199988
122	0x3e3efd59	0.18651332
123	0xbd4780dc	-0.048706874
124	0xbd2896f6	-0.041159593
125	0x3daf8b78	0.085715234
126	0xbc41c94d	-0.011827779
127	0x3c88fdb5	0.01672254
128	0x3ce2ed07	0.027700914
129	0xbd4c1e75	-0.049833734
130	0xbc302292	-0.01075043
131	0x3d2d867a	0.042364575
132	0xbc922a01	-0.017842295
133	0xbcdf3a11	-0.027249368
134	0x3d15aef7	0.036543813
135	0xbd9e24ed	-0.07721887
136	0xbdeb5758	-0.11491269
137	0xbd4fc3f1	-0.050723974
138	0xbcb04297	-0.021516128
139	0xbd1e25f5	-0.038610417
140	0xbccab74f	-0.024745611
141	0x3d827ebd	0.0637183
142	0x3ce13827	0.027492596
143	0x3c533a40	0.012892306
144	0x3ccfa633	0.025347805
145	0xbd098c7b	-0.03358124
146	0xbc5eb1fe	-0.013592241
147	0xbc3ffbad	-0.011717719
148	0xbcd70ba4	-0.026250668
149	0xbcd3a6b4	-0.025836326
150	0x3c37e230	0.011223361
151	0x3c154e1b	0.00911286
152	0x3ccce3f6	0.025011044
153	0xbcb7803e	-0.022400018
154	0xbd2fbabc	-0.042902693
155	0xbd25c553	-0.040471386
156	0xbca426a2	-0.020037953
157	0x3a7957b5	0.00095116656
158	0xbc56a169	-0.013100007
159	0x3c8a6054	0.016891636
160	0x3d6c3e18	0.057676405
161	0x3d7eee59	0.062239025
162	0x3c14fbd6	0.0090932455
163	0xbd0bd438	-0.034137934
164	0xbd7ab1f0	-0.06120485
165	0x3d153cca	0.036434926
166	0x3c889574	0.016672827
167	0xbcfcf545	-0.030878672
168	0x3cdf1af2	0.027234528
169	0x3ce9ff5e	0.028564151
170	0x3bde4adf	0.0067838277
171	0x3d3be7fe	0.045875542
172	0xbcc40087	-0.023926033
173	0xbd648098	-0.0557867
174	0x3dba9a06	0.09111409
175	0x3cb754bd	0.022379274
176	0xbcac828a	-0.02105834
177	0x3ddf7b38	0.10912174
178	0x3d8e036b	0.06934246
179	0x3cd9eda9	0.026602583
180	0xbc8a7d7a	-0.016905535
181	0xbd95e6b4	-0.07319394
182	0xbdf9e7e2	-0.12202431
183	0x3ac9527f	0.0015359669
184	0xbd87bbc7	-0.066276126
185	0xbdffd100	-0.124910355
186	0x3ce1e4a7	0.02757485
187	0xbd0044f7	-0.03131577
188	0xbdbbfd4e	-0.091791734
189	0xbd6643d9	-0.05621705
190	0xbdb1bee5	-0.08678988
191	0xbd2304ed	-0.03979962
192	0xbca63e8c	-0.020293497
193	0xbcd78952	-0.026310597
194	0xbc409901	-0.011755229
195	0x3d120072	0.035644956
196	0x3c436f9f	0.011928468
197	0x3c4da2b3	0.012550998
198	0x3d1bc45d	0.038029063
199	0xbc80eabe	-0.015736934
200	0xba40fa2f	-0.0007361499
201	0xbbb170d9	-0.005415064
202	0xbc68fca7	-0.014220393
203	0xbc0630c6	-0.008190339
204	0x3c06c21e	0.008224992
205	0x3bd65225	0.006540554
206	0x3ccd9013	0.025093114
207	0xbcdf05d9	-0.027224468
208	0xbd62c477	-0.055363145
209	0xbd3a0889	-0.045418296
210	0xbcd04534	-0.025423624
211	0xbc812d0d	-0.015768552
212	0xbcb3609f	-0.021896658
213	0x3cb5b48c	0.022180818
214	0x3d282788	0.041053325
215	0x3d29cc6d	0.04145472
216	0x3ddbc285	0.10730461
217	0x3d8058be	0.06266926
218	0x3b50b67c	0.003184705
219	0x3d181363	0.037127864
220	0x3d9ae417	0.07563036
221	0x3dd2795a	0.10277052
222	0x3d19847a	0.037479855
223	0x3cd36391	0.025804313
224	0x3d93d59b	0.072184764
225	0x3d3d1b5e	0.046168678
226	0x3dae815d	0.08520768
227	0x3dc1cb7e	0.09462641
228	0xbb1de400	-0.0024092197
229	0x3d2967c2	0.041358717
230	0x3df8b57b	0.1214399
231	0xbc5f3c3f	-0.013625204
232	0xbd889119	-0.066683
233	0x3c8602ae	0.0163587
234	0x391757f0	0.00014433241
235	0x3cc14683	0.023593193
236	0x3d216065	0.03939857
237	0xbd2f55f6	-0.042806588
238	0xbc8f77e5	-0.017513225
239	0x3cf02fd3	0.02931968
240	0xbc19694c	-0.009363484
241	0xbd0facea	-0.035077013
242	0x3c731524	0.014836583
243	0xbd8f8824	-0.07008389
244	0xbd231ccc	-0.039822385
245	0x3d1e07d5	0.038581688
246	0xbdbccc03	-0.092186
247	0xbdcd9f2e	-0.10040127
248	0xbd81bccd	-0.06334839
249	0xbda87305	-0.08225063
250	0xbddef621	-0.10886789
251	0xbd96b9d0	-0.0735966
252	0x3d701673	0.05861516
253	0xbcf8705e	-0.030327018
254	0xbcd36fa7	-0.025810076
255	0x3d8143f2	0.06311788

down2.down_block3d.1.double_conv3d.3.bias f4 [16]
0	0x3905d245	0.000127622
1	0x391c92a5	0.00014931949
2	0x379dafcc	1.879772e-05
3	0x38a68fbc	7.9422694e-05
4	0xb9957e5b	-0.00028513637
5	0xb7c34491	-2.327774e-05
6	0x398ce2ba	0.00026871805
7	0x39d28a8a	0.0004015754
8	0xb75dd984	-1.3223271e-05
9	0x384a0ce0	4.8172544e-05
10	0x382ba04a	4.0918858e-05
11	0x38a63e6a	7.927122e-05
12	0xb6d62d34	-6.3829593e-06
13	0x381109c3	3.4579785e-05
14	0xb74893f8	-1.1955381e-05
15	0x393a7c12	0.00017784562

down2.down_block3d.1.shortcut.weight f4 [16, 8, 1, 1, 1]
0	0x00043095	3.8477e-40
1	0x000685f0	5.9906e-40
2	0x0011ceaa	1.63534e-39
3	0x00748a00	1.0702423e-38
4	0x8008152a	-7.42276e-40
5	0x8003d56f	-3.52072e-40
6	0x800074e9	-4.194e-41
7	0x80053a89	-4.80176e-40
8	0x00e0c4a4	2.0641693e-38
9	0x00003ee3	2.256e-41
10	0x0009cccc	8.99987e-40
11	0x80034756	-3.01097e-40
12	0x8004a7c5	-4.27526e-40
13	0x00102d4f	1.485622e-39
14	0x81055f70	-2.4496715e-38
15	0x0009b5a9	8.91687e-40
16	0x00099f8f	8.83758e-40
17	0x0000e46e	8.1945e-41
18	0x816891a8	-4.2716173e-38
19	0x800ce80b	-1.185267e-39
20	0x00061871	5.59781e-40
21	0x80050184	-4.59721e-40
22	0x80066cb4	-5.90008e-40
23	0x0003ed3a	3.60607e-40
24	0x0005791b	5.02622e-40
25	0x000bd3f0	1.08622e-39
26	0x80042cf4	-3.83468e-40
27	0x800341a4	-2.99054e-40
28	0x800092c0	-5.2644e-41
29	0x0002816b	2.30097e-40
30	0x80043f87	-3.90131e-40
31	0x0046f894	6.517658e-39
32	0x8007f915	-7.32202e-40
33	0x800934c8	-8.45454e-40
34	0x00070abd	6.467e-40
35	0x0000af09	6.2791e-41
36	0x800a72ac	-9.59491e-40
37	0x80037c03	-3.19994e-40
38	0x005a84f4	8.312889e-39
39	0x0006fe64	6.42271e-40
40	0x8000ed22	-8.5067e-41
41	0x800049dd	-2.6497e-41
42	0x00089243	7.87153e-40
43	0x000afcfd	1.00911e-39
44	0x00022e8d	2.0037e-40
45	0x0006d933	6.2893e-40
46	0x8005f47c	-5.46882e-40
47	0x00010a09	9.5435e-41
48	0x800b3f78	-1.032959e-39
49	0x800798ed	-6.97708e-40
50	0x8006415f	-5.74464e-40
51	0x00042642	3.81066e-40
52	0x8002c804	-2.55423e-40
53	0x8002202a	-1.95209e-40
54	0x8008d881	-8.12351e-40
55	0x0000f2b6	8.7068e-41
56	0x800ccbb0	-1.175095e-39
57	0x00002ff7	1.7207e-41
58	0x00067eaa	5.96451e-40
59	0x800c099c	-1.105473e-39
60	0x000684e0	5.9868e-40
61	0x800828d3	-7.49329e-40
62	0x0003d6a1	3.52501e-40
63	0x00053636	4.78625e-40
64	0x80092466	-8.39577e-40
65	0x0004a3aa	4.26054e-40
66	0x800c1074	-1.107928e-39
67	0x800a8c39	-9.68657e-40
68	0x0001bc3a	1.59358e-40
69	0x0000e0f1	8.0694e-41
70	0x0002a5bc	2.43125e-40
71	0x8007e8bf	-7.26342e-40
72	0x808c31b0	-1.2874794e-38
73	0x81d0ffbb	-7.677409e-38
74	0x0007e1ef	7.23898e-40
75	0x00053580	4.7837e-40
76	0x8007531c	-6.72662e-40
77	0x000178f6	1.35228e-40
78	0x0000a97a	6.0797e-41
79	0x800b616d	-1.04514e-39
80	0x80066253	-5.86285e-40
81	0x000a8b3a	9.683e-40
82	0x000714f4	6.50365e-40
83	0x0009f3c5	9.13967e-40
84	0x000108e8	9.503e-41
85	0x8018770c	-2.246758e-39
86	0x000a3bdd	9.3983e-40
87	0x800763c3	-6.78636e-40
88	0x8004bc70	-4.3494e-40
89	0x0002ddf7	2.63297e-40
90	0x00023977	2.04285e-40
91	0x0006fcb0	6.4166e-40
92	0x000bfa8e	1.100073e-39
93	0x00074acb	6.69679e-40
94	0x800643e8	-5.75373e-40
95	0x811819d8	-2.7936533e-38
96	0x8009cdba	-9.0032e-40
97	0x000c55e3	1.132836e-39
98	0x0005860e	5.07267e-40
99	0x80221e4f	-3.13328e-39
100	0x000a5f58	9.52558e-40
101	0x0009c6eb	8.97878e-40
102	0x000cd285	1.177546e-39
103	0x8003309e	-2.92947e-40
104	0x0009f045	9.12712e-40
105	0x00079599	6.96514e-40
106	0x80027525	-2.25695e-40
107	0x800b16df	-1.018395e-39
108	0x000c777f	1.144893e-39
109	0x8003d87b	-3.53165e-40
110	0x0002f873	2.72798e-40
111	0x00034da4	3.03359e-40
112	0x8002c380	-2.53803e-40
113	0x00069c04	6.06981e-40
114	0x800c6b73	-1.140571e-39
115	0x800cc136	-1.171337e-39
116	0x80020b1a	-1.87653e-40
117	0x0006836f	5.98162e-40
118	0x0005bb97	5.26472e-40
119	0x00a79ee4	1.5393527e-38
120	0x0008e1b3	8.1565e-40
121	0x8086dc66	-1.238502e-38
122	0x80092aa2	-8.41813e-40
123	0x00450894	6.339726e-39
124	0x800826f6	-7.4866e-40
125	0x00068cec	6.01566e-40
126	0x806755ac	-9.48979e-39
127	0x0003cecd	3.49693e-40

down2.down_block3d.1.shortcut.bias f4 [16]
0	0xbf1fae0d	-0.62374955
1	0xbf04598a	-0.51699126
2	0x3dd24270	0.10266578
3	0x3e1154eb	0.1419255
4	0xbb42a9b5	-0.0029703204
5	0xbf1212f8	-0.57060194
6	0xbe553ba3	-0.20823531
7	0xbf14be72	-0.58103096
8	0xbf144af6	-0.5792688
9	0xbf05f9f5	-0.5233453
10	0x3f214550	0.6299639
11	0xbf02793b	-0.50966233
12	0xbeca09fb	-0.3946074
13	0xbe2ebd40	-0.1706438
14	0xbf011046	-0.50415456
15	0xbdc5f1e6	-0.09665279
