simple_3dunet/checkpoints/test/backup/0.005-300/best_model-0.6969.pth (torch, 377059 bytes, 49 tensors)

input.double_conv3d.0.weight f4 [4, 2, 3, 3, 3]
0	0xbdfa5651	-0.12223495
1	0x3ba551d3	0.0050451546
2	0xbcd57ef9	-0.026061522
3	0xbd765c19	-0.060146425
4	0x3db08bce	0.08620416
5	0x3d70d6ec	0.058798715
6	0xbdd488a3	-0.10377624
7	0x3d512c7c	0.051067814
8	0x3d04ed81	0.032453064
9	0xbe0ebb17	-0.13938557
10	0x3d38bb8d	0.045100737
11	0xbc5fd826	-0.013662374
12	0x3dac9e02	0.08428575
13	0x3ea6bc01	0.3256531
14	0x3e85c5ed	0.26127568
15	0x3d48eecd	0.049055863
16	0x3e996fd9	0.29968145
17	0x3e7ccd62	0.24687722
18	0xbe468336	-0.1938599
19	0xbc73a3d5	-0.014870604
20	0xbdaf633d	-0.0856385
21	0xbcd448e0	-0.025913656
22	0x3e33d382	0.17561153
23	0x3dc461f2	0.09588994
24	0xbd9e2da8	-0.07723552
25	0x3df9d076	0.12197964
26	0x3d0e408a	0.034729518
27	0xbe02f299	-0.12787856
28	0x3b6fba8f	0.0036579703
29	0xbcf55c45	-0.029951224
30	0xbd6d21a4	-0.05789341
31	0x3db5300f	0.08847057
32	0x3d600a9d	0.05469762
33	0xbdd332dc	-0.10312435
34	0x3d3e760c	0.046499297
35	0x3ce1ced5	0.027564446
36	0xbe1251d7	-0.14289032
37	0x3d38bb8d	0.045100737
38	0xbc58d3f5	-0.013234128
39	0x3db01c50	0.0859915
40	0x3ea6d134	0.32581484
41	0x3e854da3	0.26035795
42	0x3d4a7d52	0.04943592
43	0x3e99fa7e	0.30073923
44	0x3e7c7cd3	0.24656992
45	0xbe47a722	-0.1949735
46	0xbc749a25	-0.014929329
47	0xbdb0d28c	-0.08633909
48	0xbcd67fd4	-0.026184
49	0x3e3409a4	0.17581803
50	0x3dc432b8	0.09579986
51	0xbd9e12ab	-0.077184044
52	0x3df9b35f	0.121924154
53	0x3d0e2cd3	0.034710716
54	0x3d92686f	0.071488254
55	0x3d6f0aaa	0.05835978
56	0xbc89c621	-0.016818108
57	0x3dab035f	0.08350252
58	0x3da4512f	0.08023297
59	0xbbfcd099	-0.0077152965
60	0x3d930f7d	0.071806885
61	0x3d875200	0.06607437
62	0xbc993bc0	-0.018705249
63	0x3dd4ac71	0.10384453
64	0x3dde8bd5	0.108665146
65	0x3d0de268	0.034639746
66	0x3e0b4a32	0.13602522
67	0x3e1edf0e	0.15514776
68	0x3d8c1cb3	0.068414114
69	0x3ddab8a3	0.10679748
70	0x3df252d2	0.11832203
71	0x3cfa2300	0.030534267
72	0x3da266b0	0.07929742
73	0x3db84621	0.08997751
74	0x3d1033bc	0.035205588
75	0x3d9cbcb0	0.07653177
76	0x3dd56187	0.104189925
77	0x3d3bcf5d	0.045852054
78	0x3d37c938	0.04486963
79	0x3d8af1a9	0.06784374
80	0x3c5a8d98	0.013339423
81	0x3d9119e7	0.070850186
82	0x3d749b9b	0.05971871
83	0xbc9904ef	-0.01867911
84	0x3dad2656	0.084545776
85	0x3da2114b	0.079134546
86	0xbc1f028a	-0.009705195
87	0x3d955637	0.07291835
88	0x3d85b793	0.06529155
89	0xbca3e63f	-0.02000725
90	0x3dd44a73	0.103657626
91	0x3ddf49a5	0.109027185
92	0x3d0f1b72	0.034938283
93	0x3e0b16f3	0.13582973
94	0x3e1eb6b8	0.15499389
95	0x3d8b1b26	0.067922875
96	0x3dda7a76	0.10667889
97	0x3df1b8ee	0.11802851
98	0x3cf1b9ae	0.029507484
99	0x3da249cb	0.07924231
100	0x3db88421	0.090095766
101	0x3d10ad50	0.035321534
102	0x3d9c7cb0	0.0764097
103	0x3dd5c2de	0.104375586
104	0x3d3bab26	0.045817517
105	0x3d37cb0a	0.044871368
106	0x3d89e2aa	0.06732686
107	0x3c52647b	0.012841339
108	0xbe106e9b	-0.14104693
109	0x3d18318e	0.037156634
110	0x3c831471	0.016000958
111	0xbd3024b4	-0.043003753
112	0x3deaac01	0.114585884
113	0x3dae053c	0.08497092
114	0xbdaea850	-0.08528197
115	0x3d746e0f	0.059675273
116	0x3c9afb8b	0.018918773
117	0xbe056e25	-0.13030298
118	0x3e0a9a3a	0.13535395
119	0x3d33813e	0.043824427
120	0x3de49ca3	0.111626886
121	0x3ee057ff	0.43817136
122	0x3eb413c5	0.35171333
123	0x3ce48fc4	0.027900584
124	0x3ebe4d5d	0.37168398
125	0x3e958a63	0.29207143
126	0xbe921fbb	-0.28539833
127	0xbdaf8663	-0.08570554
128	0xbe4f2d6d	-0.20232172
129	0xbdebe1e2	-0.11517693
130	0x3dbdf39c	0.092749804
131	0x3b0c417b	0.0021401334
132	0xbe30f915	-0.17282517
133	0x3d33ab01	0.043864254
134	0xbd3a3d8e	-0.04546886
135	0xbdf1b9f5	-0.118030466
136	0x3d5c1195	0.053727705
137	0xbc314b21	-0.010821135
138	0xbd694e27	-0.056959298
139	0x3e092ff4	0.13397199
140	0x3d8b0aa9	0.06789143
141	0xbdf60ea2	-0.1201451
142	0x3d68d24c	0.05684118
143	0x3d6aff96	0.057372652
144	0xbe0a25f8	-0.13491046
145	0x3e06c37f	0.13160513
146	0x3d2e87f8	0.04261014
147	0x3dec08e2	0.11525132
148	0x3edfe92e	0.4373259
149	0x3eb6f704	0.35735333
150	0x3ce7963c	0.02826988
151	0x3ebf13cb	0.37319788
152	0x3e96fccf	0.29489753
153	0xbe94d0c2	-0.2906552
154	0xbdc11912	-0.0942861
155	0xbe2c8773	-0.16848545
156	0xbde085af	-0.10962998
157	0x3dac57c5	0.08415178
158	0xba16c7a3	-0.0005751794
159	0xbe36a6e9	-0.17837109
160	0x3d303912	0.043023176
161	0xbd71aecf	-0.0590046
162	0xbdc8ce04	-0.09804919
163	0x3d33e5f7	0.043920483
164	0x3a9c678c	0.0011932715
165	0xbc8e8f0b	-0.017402193
166	0x3e134b40	0.14384174
167	0x3d7af21f	0.06126606
168	0xbdc8a559	-0.097971626
169	0x3d362008	0.04446414
170	0x3d63c1e4	0.05560483
171	0xbd6d3238	-0.05790922
172	0x3e2f9327	0.17145978
173	0x3dad807f	0.08471774
174	0x3e175f82	0.14782527
175	0x3ee66bf2	0.4500423
176	0x3eb5c2cb	0.35500178
177	0x3d9079ee	0.07054506
178	0x3ea94643	0.33061418
179	0x3e80feaf	0.25194308
180	0xbe6687a1	-0.22512676
181	0xbde3c4b0	-0.111214995
182	0xbe3676ee	-0.17818806
183	0xbdcfd3c7	-0.10147815
184	0x3d659fe4	0.056060687
185	0xbc85614b	-0.016281744
186	0xbe1aba36	-0.15110096
187	0xbaf63d06	-0.0018786497
188	0xbe0287f9	-0.12747182
189	0xbdac0290	-0.08398926
190	0x3d9c8461	0.07642437
191	0x3cad17df	0.021129547
192	0xbd342d0a	-0.043988265
193	0x3dccf57a	0.100077584
194	0x3d855a06	0.06511311
195	0xbdbbe7fd	-0.09175108
196	0x3d03f0ec	0.032212183
197	0x3cb3940a	0.021921176
198	0xbd617ba1	-0.055049542
199	0x3e2ff333	0.17182617
200	0x3dbf7629	0.09348709
201	0x3e20075d	0.15627809
202	0x3ee802ad	0.4531454
203	0x3eaf9736	0.34295052
204	0x3d0e8258	0.034792274
205	0x3eaa4c32	0.33261257
206	0x3e748341	0.23878194
207	0xbe5c45a3	-0.2151094
208	0xbdfb1f7f	-0.12261867
209	0xbe0c148e	-0.13679716
210	0xbdb2b953	-0.08726754
211	0x3d8d72c0	0.069066525
212	0xbd506256	-0.05087503
213	0xbe13aa48	-0.14420426
214	0x3b98e7d1	0.0046663065
215	0xbdbd105b	-0.09231635

input.double_conv3d.0.bias f4 [4]
0	0x3b3b6b32	0.002859783
1	0xbd9caedc	-0.07650539
2	0xbe3032b4	-0.17206842
3	0xbe163e9c	-0.14672321

input.double_conv3d.3.weight f4 [4, 4, 3, 3, 3]
0	0x3c868785	0.016422043
1	0x3cf18e2d	0.02948674
2	0xbdbc0a5a	-0.09181662
3	0x3d446395	0.04794653
4	0x3db5e86c	0.088822216
5	0xbd366a20	-0.044534802
6	0xbd353648	-0.04424122
7	0xbb983bb8	-0.004645791
8	0xbe1c2305	-0.15247734
9	0x3e887eea	0.26659328
10	0x3e7d8c16	0.2476047
11	0x3d5bec19	0.053691957
12	0x3e983c17	0.29733345
13	0x3ea2526e	0.31703514
14	0x3deaed2f	0.114710204
15	0x3e0350e5	0.12823828
16	0x3e11bac8	0.14231408
17	0xbd5a7b29	-0.05334011
18	0x3d6bb9b5	0.05755015
19	0x3d4be184	0.049775615
20	0xbd6a395f	-0.05718362
21	0x3d2c756b	0.042104166
22	0x3d8a918d	0.06766043
23	0xbcfae1e6	-0.030625295
24	0xbc846c0f	-0.016164808
25	0x3b851922	0.004061834
26	0xbdcd59c4	-0.10026887
27	0xbac3509f	-0.0014901346
28	0x3d4daf2e	0.050215892
29	0x3c614890	0.01375021
30	0x3d376e90	0.044783175
31	0x3db8ae3a	0.09017606
32	0x3d5854f4	0.052815393
33	0x3b7a674d	0.0038208545
34	0x3d54d156	0.05195745
35	0x3d48bfe6	0.049011134
36	0xbd11c41e	-0.035587423
37	0x3d8d8dc0	0.06911802
38	0x3d36274e	0.044471078
39	0x3d5a2095	0.05325373
40	0x3e1d074a	0.15334812
41	0x3de5ad6b	0.112147175
42	0x3c12dd6a	0.008963922
43	0x3dc09986	0.09404282
44	0x3da528db	0.08064433
45	0xbc6622a8	-0.014046349
46	0x3d992305	0.074773826
47	0x3d846399	0.06464309
48	0x3d277d37	0.0408909
49	0x3def4eb0	0.1168493
50	0x3de4c3b1	0.11170138
51	0x3bd2de0e	0.0064351624
52	0x3da84d3d	0.08217857
53	0x3d9bf6a7	0.076154046
54	0x3ad85f43	0.0016507882
55	0xbb2329c2	-0.0024896716
56	0xbdee2a1f	-0.11629128
57	0xbafeac22	-0.0019429962
58	0x3d21ecb3	0.039532375
59	0xbda991bc	-0.0827975
60	0xbdc136fd	-0.09434316
61	0xbd611db3	-0.054959964
62	0xbe4a30c7	-0.1974517
63	0x3e9b0258	0.30275226
64	0x3e79c92e	0.2439315
65	0x3d0a1639	0.0337126
66	0x3ebb92a7	0.36635324
67	0x3ebf59dd	0.37373248
68	0x3e09e39a	0.1346573
69	0x3e6cc6dd	0.23122735
70	0x3e6ab561	0.22920753
71	0xbd0250bc	-0.031815276
72	0x3d62af07	0.0553427
73	0x3d087c4e	0.03332167
74	0xbdaee386	-0.085394904
75	0x3d7dbc60	0.061947227
76	0x3daa9959	0.0833003
77	0xbd1e0c84	-0.038586155
78	0xbbc133a3	-0.005896048
79	0x3bef1371	0.007296019
80	0xbe0b0be5	-0.13578756
81	0xbd7d4b8e	-0.061839633
82	0xbcebe71a	-0.028796721
83	0xbded1609	-0.115764685
84	0xbd30d150	-0.043168366
85	0x3cb92406	0.022600185
86	0xbd8ccb37	-0.06874698
87	0xbdf3ce25	-0.11904553
88	0xbd497052	-0.049179383
89	0xbe2500ae	-0.1611354
90	0x3e51128b	0.2041723
91	0x3e52c5af	0.20583223
92	0x3cf506b8	0.02991043
93	0x3ea8550c	0.32877386
94	0x3ebe3234	0.37147677
95	0x3e2f2bc8	0.17106545
96	0x3e6718b8	0.22568023
97	0x3e87a02c	0.2648939
98	0x3d3281d5	0.04358085
99	0x3d16e802	0.036842354
100	0x3d49ec96	0.04929789
101	0xbd69f37c	-0.05711697
102	0x3d9ef292	0.0776111
103	0x3dfef6ec	0.1244944
104	0x3c68925c	0.014195051
105	0x3c86d9f6	0.016461354
106	0x3d56451e	0.05231201
107	0xbd95bc5d	-0.07311318
108	0x3c95f59f	0.018305598
109	0x3bdfd27f	0.006830513
110	0x3b7cc4a3	0.0038569353
111	0x3c6b628d	0.014366758
112	0x3c1a0fad	0.009403151
113	0x3c597fd6	0.013275107
114	0x3d866fed	0.06564317
115	0x3d8939cb	0.06700476
116	0x3d9c2b5f	0.0762546
117	0xbdb4f941	-0.08836604
118	0xbdd48cc2	-0.1037841
119	0xbde398d5	-0.11113135
120	0xbe0274cb	-0.12739865
121	0xbdf7ab19	-0.12093181
122	0xbdc07205	-0.093967475
123	0xbd6a8b0b	-0.057261508
124	0xbd0c6855	-0.034279186
125	0xbc7b8834	-0.015352298
126	0x3d678bd8	0.05652985
127	0x3cda79e4	0.02666945
128	0xbcea04e0	-0.028566778
129	0xbb01d4f9	-0.001981078
130	0xbc85e801	-0.01634598
131	0xbd5a1fdc	-0.05325304
132	0x3c6cd2b0	0.014454529
133	0x3b60fb83	0.00343296
134	0xbceec113	-0.0291448
135	0xbc49c35e	-0.012314646
136	0xbd3bff84	-0.045897976
137	0xbd6c06d2	-0.05762369
138	0xbca2130f	-0.019784478
139	0xbd389fc2	-0.045074232
140	0xbd1edd0e	-0.038785033
141	0x3c3f7cab	0.011687438
142	0xbbb08c16	-0.0053877933
143	0xbc5cebbb	-0.013483937
144	0x3d2b1284	0.041765705
145	0x39a86759	0.00032120457
146	0xbcb35ef9	-0.021895872
147	0x3b856005	0.0040702843
148	0xbc8975b7	-0.016779764
149	0xbc95e278	-0.018296465
150	0x3ccf6f6d	0.025321687
151	0x3c163ead	0.0091702165
152	0x3b66e946	0.0035234257
153	0x3d9f18a6	0.07768373
154	0x3d44ebb2	0.04807634
155	0xba2680a0	-0.0006351564
156	0x3d23e09b	0.040009122
157	0x3cb1ff3a	0.021728147
158	0xbc01ea0a	-0.007929334
159	0x3d191862	0.03737677
160	0x3ccd9118	0.0250936
161	0xbb03d450	-0.0020115562
162	0x3cdaad92	0.026694093
163	0x3cddd9c3	0.027081376
164	0x3d1357c6	0.03597238
165	0x3d46fc60	0.048580527
166	0x3d2b25bb	0.04178403
167	0x3d61cd74	0.055127576
168	0x3dea7141	0.11447383
169	0x3dce910e	0.10086261
170	0x3df8b141	0.121431835
171	0xbe24f4f0	-0.16109061
172	0xbe1e6bb6	-0.15470776
173	0xbdf7405b	-0.12072822
174	0xbe479539	-0.19490518
175	0xbe35f12e	-0.17767784
176	0xbdec540c	-0.11539468
177	0xbde283ad	-0.110602714
178	0xbdbbba81	-0.09166432
179	0xbd151ed6	-0.03640636
180	0xbd493d55	-0.049130756
181	0xbd879ab6	-0.06621306
182	0xbdb93f2a	-0.09045251
183	0xbdedeba4	-0.116172105
184	0xbdf83e97	-0.12121313
185	0xbdf73675	-0.12070934
186	0xbd96d488	-0.07364756
187	0xbd976875	-0.073929705
188	0xbd8d60cf	-0.069032304
189	0x3c9d148d	0.019174838
190	0x3b023285	0.0019866538
191	0x3b4675cd	0.0030282617
192	0x3cd66fac	0.026176296
193	0x3c853ba2	0.016263787
194	0x3cb6a364	0.022294708
195	0x3da1ff12	0.07909979
196	0x3d91bd1f	0.0711615
197	0x3d96e426	0.073677346
198	0xbe163c48	-0.14671433
199	0xbe19fc7e	-0.15037724
200	0xbdfe66e8	-0.124219716
201	0xbe3f81f3	-0.18701915
202	0xbe31b285	-0.17353256
203	0xbde0da9d	-0.10979197
204	0xbe048efd	-0.1294517
205	0xbde05aeb	-0.10954841
206	0xbd6ca88c	-0.057777926
207	0xbccb9a06	-0.024853718
208	0xbd48b2a3	-0.048998486
209	0xbda41277	-0.080113344
210	0xbdceb15b	-0.100924216
211	0xbddfea7c	-0.10933396
212	0xbde05040	-0.109528065
213	0xbda5d211	-0.080967076
214	0xbdaae75f	-0.08344912
215	0xbda92ecc	-0.08260879
216	0xbc26c1f5	-0.010178079
217	0xbd785cfc	-0.06063555
218	0xbd7a9163	-0.061173808
219	0xbd694c9e	-0.056957833
220	0xbdb970bf	-0.09054708
221	0xbdafe60d	-0.085888006
222	0xbd284fc7	-0.041091707
223	0xbd9db7ae	-0.0770105
224	0xbd889367	-0.0666874
225	0xbd95bb91	-0.07311166
226	0xbdd97f8f	-0.10620033
227	0xbdddc4a5	-0.108285226
228	0xbddfc0d8	-0.10925454
229	0xbdfb1079	-0.12259001
230	0xbdcf0319	-0.10108013
231	0xbd8f29e8	-0.06990415
232	0xbdb4fece	-0.08837663
233	0xbd8b55fa	-0.06803508
234	0xbcf69c9f	-0.03010398
235	0xbd866cfb	-0.06563755
236	0xbd780eb3	-0.060560893
237	0xbd7f3d5a	-0.06231437
238	0xbd89ee4a	-0.06734903
239	0xbd5b4005	-0.05352785
240	0xbd1b14d0	-0.037861645
241	0xbd3a2fa4	-0.04545559
242	0xbcf49f54	-0.02986113
243	0x3d746e44	0.05967547
244	0x3cbc7dcf	0.023009209
245	0x3a1d0834	0.0005990297
246	0x3cae4928	0.021275118
247	0xbb552ab6	-0.0032526678
248	0xbcd7d868	-0.026348308
249	0x3c7e74b9	0.015530759
250	0xbaeabb39	-0.001790858
251	0xbcc44b70	-0.023961753
252	0x3bf83b3f	0.007575422
253	0xbd0aa65c	-0.03385006
254	0xbd700d1a	-0.058606245
255	0xbca3c8f3	-0.019993281

input.double_conv3d.3.bias f4 [4]
0	0xbdd050d4	-0.10171667
1	0xbd024801	-0.03180695
2	0x3aef0e0d	0.001823844
3	0xbe285d41	-0.16441824

input.shortcut.weight f4 [4, 2, 1, 1, 1]
0	0x3e9e180f	0.3087773
1	0x3e1eccf5	0.15507872
2	0xbe1cb15a	-0.15302029
3	0x3e3a8c52	0.1821759
4	0x3e2c5f6f	0.1683328
5	0x3e87d44a	0.2652915
6	0x3e8e7368	0.27822423
7	0x3e49b395	0.19697411

input.shortcut.bias f4 [4]
0	0xbf12fecd	-0.57420045
1	0x3f5df873	0.8670723
2	0x3c97b79d	0.01852017
3	0xbf3f6322	-0.7476064

down1.down_block3d.1.double_conv3d.0.weight f4 [8, 4, 3, 3, 3]
0	0xbc64f3e0	-0.01397416
1	0xbc2323e1	-0.009957285
2	0xba6061ed	-0.0008559514
3	0xbc70d3c0	-0.014698923
4	0xbb6ae97c	-0.0035844734
5	0x39c74b90	0.00038012536
6	0xbc4f6f28	-0.012660779
7	0xb99dae2a	-0.00030075136
8	0x3bdc1a4f	0.0067170034
9	0xbd81117b	-0.06302162
10	0xbd70f8aa	-0.058830895
11	0xbcec78b6	-0.028866153
12	0xbd9898df	-0.07451033
13	0xbd842837	-0.06452983
14	0xbd18bdd9	-0.037290428
15	0xbd9119fb	-0.070850335
16	0xbd57daf1	-0.052699033
17	0xbcc41374	-0.023935057
18	0xbdda0703	-0.10645869
19	0xbdc690b2	-0.09695567
20	0xbd94b06b	-0.072602116
21	0xbdf4ab61	-0.119467504
22	0xbdc8ba06	-0.09801106
23	0xbd94a50f	-0.07258045
24	0xbdd60015	-0.104492344
25	0xbda8e027	-0.08245879
26	0xbd59a415	-0.053134996
27	0x3c53dc51	0.0129309455
28	0x3cce8904	0.025211819
29	0x3ce2dfb2	0.027694557
30	0x3cfffb52	0.031247769
31	0x3d2f27cf	0.042762574
32	0x3d4a1fbe	0.049346678
33	0x3d47d886	0.048790477
34	0x3d6bf221	0.05760396
35	0x3d36546a	0.044514097
36	0x3dfb8f36	0.12283175
37	0x3dd0bf98	0.101927936
38	0x3d970576	0.073740885
39	0x3ddc464c	0.107555956
40	0x3dbc1cab	0.091851555
41	0x3d838074	0.06420985
42	0x3dc4d6a4	0.09611252
43	0x3da100b3	0.078614615
44	0x3d5fe598	0.054662317
45	0x3d370f47	0.044692304
46	0x3cdf12ff	0.027230738
47	0x3bf5c8e5	0.007500755
48	0x3d6a9a3f	0.057276007
49	0x3cb78692	0.022403035
50	0x3c2252f6	0.009907475
51	0x3cb9659e	0.022631463
52	0xbb3a39a2	-0.00284157
53	0xbc9f1f88	-0.019424215
54	0xbd13cacf	-0.036082085
55	0xbcd4f31d	-0.025994832
56	0xbbdfcabb	-0.0068295873
57	0xbd122f28	-0.035689503
58	0xbc949267	-0.018136216
59	0xba892562	-0.0010463411
60	0xbd3274e5	-0.04356851
61	0xbcd6b925	-0.02621133
62	0xbc4a6cb5	-0.012355019
63	0x3d8e7ac8	0.069570124
64	0x3d87d16f	0.06631743
65	0x3d630e02	0.05543328
66	0x3d700462	0.05859793
67	0x3d64d044	0.05586268
68	0x3d41bb26	0.04729762
69	0x3d0a887c	0.033821568
70	0x3cee4e7c	0.029090159
71	0x3cf0a4c8	0.029375449
72	0x3c89bb88	0.016813055
73	0x3be27f7a	0.006912169
74	0xbbe039fb	-0.0068428493
75	0x3b9bd774	0.0047559086
76	0xbbe82126	-0.0070840297
77	0xbc8c94d6	-0.017160814
78	0xbcf3b2ad	-0.029748285
79	0xbd171835	-0.03688832
80	0xbd1d37ef	-0.03838342
81	0x3cb91308	0.022592083
82	0x3c9c6bfa	0.019094456
83	0x3c8b1cc5	0.016981492
84	0x3ce93f07	0.028472437
85	0x3cf3fb75	0.02978299
86	0x3caf0a90	0.021367341
87	0x3d167f01	0.036742214
88	0x3d245cab	0.040127438
89	0x3d072406	0.03299334
90	0xbd1397f0	-0.03603357
91	0xbd109678	-0.03529975
92	0xbc651121	-0.013981135
93	0xbd5dfd0d	-0.054196406
94	0xbd3e605c	-0.046478614
95	0xbcd357d7	-0.025798721
96	0xbd4f6333	-0.050631713
97	0xbd29e5ad	-0.0414788
98	0xbc57c81b	-0.013170267
99	0xbd70812c	-0.058716938
100	0xbd5399f4	-0.051660493
101	0xbcb5a967	-0.022175504
102	0xbd8f657f	-0.07001781
103	0xbd47cdcd	-0.04878025
104	0xbcc1f1cc	-0.023674868
105	0xbd69a2c5	-0.057039995
106	0xbd09ea32	-0.03367061
107	0xbc3089cf	-0.010775044
108	0xbc8e6d5a	-0.017386127
109	0xbbbeb2d9	-0.00581966
110	0x3d80731c	0.06271955
111	0xbd787dfc	-0.060667023
112	0xbd70fc3d	-0.058834303
113	0x3c4868e4	0.012232039
114	0xbd1266f1	-0.035742704
115	0xbd67a617	-0.05655488
116	0x3cd9b92e	0.026577558
117	0xbd510124	-0.05102648
118	0xbd57237f	-0.052524086
119	0x3d16c8b1	0.036812488
120	0xbddc5a15	-0.10759369
121	0xbdb9b297	-0.090672664
122	0x3bd10e66	0.0063798903
123	0xbd8bb824	-0.068222314
124	0xbd5086b0	-0.050909698
125	0x3d4d25ef	0.050085004
126	0xbc5c19ac	-0.013433855
127	0x3b6a8287	0.0035783367
128	0x3da74590	0.08167565
129	0xbd4e10b4	-0.050308898
130	0xbcaaaae2	-0.020833436
131	0x3d67b94f	0.05657321
132	0xbd18c1b6	-0.037294112
133	0xbc0f7d6d	-0.008757931
134	0x3d99ffaf	0.07519471
135	0x3df8fc68	0.12157518
136	0x3d95f64d	0.07322369
137	0xbd01fb0c	-0.031733558
138	0x3e155753	0.14584093
139	0x3de0cb65	0.109762944
140	0x3c52ca0e	0.012865556
141	0x3def3bfd	0.11681364
142	0x3de4a270	0.11163795
143	0x3cad5d27	0.021162583
144	0x3dc0319f	0.093844645
145	0x3d550f25	0.052016396
146	0xbd4e3a61	-0.050348643
147	0x3dfe03fb	0.12403103
148	0x3d98850e	0.07447253
149	0xbc97fe3d	-0.018553847
150	0x3d869f93	0.06573405
151	0x3d2f6608	0.042821914
152	0xbd2053da	-0.039142467
153	0xbcf9bb04	-0.030484684
154	0xbd3257b6	-0.04354068
155	0xbde2eb2c	-0.11080012
156	0x3c75dad5	0.015005787
157	0x3b06288e	0.002047095
158	0xbd7ac518	-0.06122312
159	0x396cd74c	0.00022586918
160	0xbc046fab	-0.008083264
161	0xbd93aa4f	-0.07210218
162	0x3dc67213	0.09689727
163	0x3d3ff28a	0.046862163
164	0xb9d548f1	-0.00040680871
165	0x3dc31d0a	0.09527023
166	0x3d7bf09c	0.06150876
167	0x3c580923	0.013185772
168	0x3d4f215f	0.050568935
169	0x3d3195a9	0.043355618
170	0x3c626141	0.013817132
171	0x3da51399	0.080603786
172	0x3d0d76f3	0.034537267
173	0xbcb93204	-0.022606857
174	0x3da13e85	0.07873253
175	0x3d0560ea	0.032563128
176	0xbc9c9be6	-0.019117307
177	0x3c64cdcf	0.013965084
178	0xbb651b0e	-0.0034958753
179	0xbd1124f1	-0.03543562
180	0xbd1934c8	-0.03740385
181	0xbd7d4eba	-0.061842658
182	0xbdbf5845	-0.09343008
183	0xbcfb656d	-0.030688012
184	0xbd576c5a	-0.052593566
185	0xbdaa5612	-0.08317198
186	0xbd7069ad	-0.05869453
187	0xbd92586b	-0.07145771
188	0xbdc7457b	-0.09730049
189	0x3cbec7d1	0.02328864
190	0x3d54777b	0.051871758
191	0x3e014e2f	0.12627481
192	0xbc00f75c	-0.007871475
193	0xbb8ece4e	-0.0043580895
194	0x3d588ab7	0.052866664
195	0xbb9a5e7f	-0.004710972
196	0xbc9c370f	-0.019069223
197	0x3d5708ce	0.05249863
198	0xb949e01e	-0.00019252344
199	0xbb8169b1	-0.003949367
200	0x3d9b27db	0.07575961
201	0xbd32d5f6	-0.04366108
202	0xbd3b0a1e	-0.045663945
203	0x3d11e8df	0.035622474
204	0xbc866966	-0.01640768
205	0xbce68430	-0.028139204
206	0x3d8c87f8	0.068618715
207	0xbcdee9c0	-0.02721107
208	0xbcabab0f	-0.02095559
209	0x3d6bf373	0.05760522
210	0xbd8360ef	-0.06414973
211	0xbd2e99ef	-0.04262727
212	0x3cf334d9	0.029688286
213	0xbd2b8cba	-0.041882254
214	0xbce44210	-0.027863532
215	0x3d6bb0cc	0.057541654
216	0x3da5df23	0.080992006
217	0xbdc52024	-0.09625271
218	0xbc80adad	-0.015707815
219	0xbd8ccc0c	-0.06874856
220	0xbe5f3fad	-0.21801634
221	0xbda2976f	-0.0793904
222	0x3c607d57	0.013701758
223	0xbd3f64be	-0.046726935
224	0x3de8156d	0.11332212
225	0xbd348a0e	-0.04407697
226	0xbe8f828c	-0.28029287
227	0xbd97c892	-0.074113026
228	0xbe8076ed	-0.25090733
229	0xbedbf800	-0.42962646
230	0xbe0178cd	-0.12643738
231	0xbcf98ab6	-0.03046165
232	0xbdbd1f6b	-0.09234508
233	0x3e51c434	0.20485002
234	0x3dbe629b	0.09296151
235	0xbbf22cce	-0.007390595
236	0x3dd306e8	0.10304052
237	0x3d81ec21	0.06343866
238	0xbb930939	-0.0044871834
239	0x3dfb2e5d	0.122647025
240	0x3de9ec50	0.11422026
241	0x3db43c78	0.08800596
242	0x3e61d2a8	0.22053015
243	0x3ca6b6eb	0.020350894
244	0x3d0025e6	0.031286143
245	0xbda58083	-0.08081152
246	0xb99fbb3d	-0.00030466347
247	0x3ba2a18a	0.0049631046
248	0xbddb5d75	-0.10711185
249	0xbe0e167c	-0.13875765
250	0xbdb6687f	-0.0890665
251	0xbe3222e4	-0.17396122
252	0xbe8f42bb	-0.279806
253	0xbe486413	-0.19569425
254	0xbe572f82	-0.21014217
255	0xbe82bc3c	-0.25534236

down1.down_block3d.1.double_conv3d.0.bias f4 [8]
0	0x39d03671	0.00039713414
1	0x39951878	0.00028437725
2	0xba05419b	-0.00050833233
3	0x3a8c1227	0.0010686562
4	0x3a55e3ab	0.00081592303
5	0xbb92932f	-0.004473112
6	0xb5275550	-6.2336494e-07
7	0xba6bc8aa	-0.000899444

down1.down_block3d.1.double_conv3d.3.weight f4 [8, 8, 3, 3, 3]
0	0x3da47fdb	0.08032199
1	0x3d8e5014	0.069488674
2	0x3d697681	0.05699778
3	0x3d6287a2	0.05530513
4	0x3d3f6a96	0.046732508
5	0x3d3f0e73	0.04664464
6	0x3d61fe64	0.055174246
7	0x3d300d34	0.04298134
8	0x3d1a904d	0.037735272
9	0x3cc06b7e	0.023488756
10	0x3d3ef509	0.046620402
11	0x3d9cd06c	0.07656941
12	0x3c104b15	0.008806963
13	0x3cff2cdd	0.031149322
14	0x3d8cec0c	0.0688096
15	0x3c23d53b	0.009999569
16	0x3cd1bda0	0.025603116
17	0x3d75f1b5	0.060044963
18	0x3dbee22f	0.09320485
19	0x3e092eb4	0.13396722
20	0x3e2e97b0	0.17050052
21	0x3db99ac4	0.09062722
22	0x3dfefd19	0.12450618
23	0x3e220bda	0.15824834
24	0x3dac579c	0.08415148
25	0x3df429c3	0.11922028
26	0x3e1bb733	0.15206604
27	0x3ce2341f	0.027612744
28	0x3c862edd	0.016379768
29	0xbc4af7bf	-0.012388169
30	0x3c12ad64	0.008952472
31	0x3af28225	0.0018501921
32	0xbc8ac56e	-0.016939845
33	0x3c04ac0a	0.008097658
34	0x3ba0b452	0.0049043084
35	0xbc8b6289	-0.017014759
36	0xbd8ca360	-0.06867099
37	0xbd7a4847	-0.061104085
38	0xbd4a8604	-0.049444214
39	0xbd99ed3b	-0.07515951
40	0xbd8e534e	-0.06949483
41	0xbd631cc4	-0.055447355
42	0xbd8e70a9	-0.06955082
43	0xbd8c0e73	-0.068386935
44	0xbd778212	-0.06042678
45	0xbc365ee7	-0.011131025
46	0x3caeb89b	0.021328261
47	0x3d3f16e2	0.046652682
48	0xbc208807	-0.009798056
49	0x3c859460	0.016306102
50	0x3d2ad7cb	0.041709702
51	0xbbda035f	-0.006653234
52	0x3caa5e12	0.02079681
53	0x3d2b92e8	0.041888148
54	0xbe67f510	-0.22652078
55	0xbe41e98e	-0.1893675
56	0xbdb9fecd	-0.090818025
57	0xbe16df5e	-0.14733645
58	0xbdb5a537	-0.08869403
59	0x3a53b90c	0.00080765854
60	0xbb8e8e39	-0.0043504504
61	0x3d0a2edd	0.0337361
62	0x3dc88b4c	0.09792194
63	0x3e8a144b	0.26968607
64	0x3ea222d7	0.31667206
65	0x3e984c57	0.29745743
66	0x3ec74ac5	0.38924232
67	0x3ee3b1e9	0.44471672
68	0x3ebf9b0c	0.3742298
69	0x3ec3c09b	0.38232884
70	0x3ec5f90c	0.3866657
71	0x3ea043d3	0.31301746
72	0x3e8cea38	0.27522445
73	0x3e41f708	0.18941891
74	0x3dd448e0	0.10365462
75	0x3e910cb2	0.28329998
76	0x3e31aec9	0.17351831
77	0x3d3d9346	0.04628303
78	0x3e61b9e2	0.22043565
79	0x3dd184b9	0.10230393
80	0x3a2e5257	0.0006649843
81	0x3e0f2301	0.13978197
82	0x3de27ad3	0.11058583
83	0x3d9f8a46	0.077900454
84	0x3d613bb0	0.054988563
85	0xbc7bae6b	-0.015361409
86	0xbd952a40	-0.07283449
87	0xbc9418ba	-0.018078197
88	0xbd7d9154	-0.061906174
89	0xbe168547	-0.14699279
90	0x3c81be00	0.01583767
91	0xbd9ea385	-0.077460326
92	0x3ca96e80	0.020682573
93	0xbda6a1b8	-0.08136314
94	0xbe6006cb	-0.21877591
95	0xbd1b1f8d	-0.037871886
96	0x3d126e9d	0.03575002
97	0xbcbddd25	-0.023176739
98	0x3dc2b47b	0.0950708
99	0xbd310ad8	-0.043223232
100	0xbca5705b	-0.020195177
101	0x3d7a25e8	0.061071306
102	0xbc1a7c23	-0.009429011
103	0x3ca48c38	0.020086393
104	0x3e20f827	0.15719663
105	0x3cce7f1d	0.025207097
106	0x3db7a23c	0.089664906
107	0x3e607981	0.2192135
108	0xbd8081db	-0.06274768
109	0xbc86d43c	-0.016458623
110	0x3ca08405	0.019594202
111	0xbd0bebfa	-0.03416059
112	0x3b99af45	0.004690083
113	0x3d4addac	0.04952781
114	0x3a6a8ba6	0.0008947201
115	0x3c7a4c9d	0.015277055
116	0x3d575f57	0.052581158
117	0xbd9d7c41	-0.07689715
118	0x3beb40f6	0.007179375
119	0x3d66e994	0.0563751
120	0xbe38b4c2	-0.18037704
121	0xbdf6bb20	-0.1204741
122	0xbcf7533b	-0.030191055
123	0xbe66ee85	-0.22551925
124	0xbe5ac62e	-0.21364662
125	0xbdc27264	-0.094944745
126	0xbd7fa780	-0.0624156
127	0x3c5ab84d	0.013349605
128	0x3d74df96	0.05978354
129	0xbe096055	-0.13415654
130	0xbda74ce2	-0.08168961
131	0x3bc2d3d5	0.0059456625
132	0xbe1235b1	-0.14278294
133	0xbddbf3e3	-0.10739877
134	0x3b54d101	0.003247321
135	0x3c080a91	0.0083033005
136	0xbd5b86b2	-0.053595252
137	0xbdaff0fc	-0.08590886
138	0xbd4826dd	-0.048865188
139	0xbe200524	-0.15626961
140	0xbe31a21c	-0.17346996
141	0xbd66dc01	-0.056362156
142	0xbe114f9f	-0.1419053
143	0xbe3ec8d5	-0.18631299
144	0xbe076089	-0.13220419
145	0xbe591883	-0.21200757
146	0xbdb76ca2	-0.08956267
147	0xbe917226	-0.284074
148	0xbecaf52c	-0.39640176
149	0xbe498f55	-0.19683583
150	0xbe0746fa	-0.13210669
151	0xbe4f7429	-0.20259155
152	0xbd61f256	-0.05516275
153	0xbd9bd8be	-0.076097
154	0xbd60805f	-0.054809924
155	0x3d1f9226	0.038957737
156	0xbd4d9721	-0.050192956
157	0xbc35f021	-0.0111046145
158	0x3dfb61bb	0.122745
159	0x3c3c38fe	0.011488197
160	0x3d977bac	0.073966354
161	0x3e3efb51	0.18650557
162	0x3d679dd4	0.056547
163	0x3d561b05	0.05227186
164	0x3d40e56f	0.047093805
165	0x3cbdb2e4	0.02315659
166	0x3c8cc7d8	0.017185137
167	0x3c437d24	0.011931691
168	0x3cb8f192	0.022576127
169	0x3c69e851	0.01427658
170	0x39fa8719	0.0004778437
171	0xbca1d0dd	-0.019752914
172	0xbb3d15c2	-0.002885208
173	0x3ce034ee	0.027368989
174	0xbd147ff0	-0.036254823
175	0xbce763cc	-0.028245829
176	0xbbc4459e	-0.0059897443
177	0xbd1243cf	-0.0357092
178	0xbcf4378c	-0.029811643
179	0xbc83c598	-0.016085431
180	0x3d1a6b4a	0.037699975
181	0x3d8720e6	0.06598072
182	0x3dc4122a	0.09573777
183	0x3cac79c7	0.021054162
184	0x3d2950de	0.041336887
185	0x3d839188	0.06424242
186	0x3c802f4c	0.015647553
187	0x3d2aca05	0.041696567
188	0x3d7e66e9	0.06210986
189	0x3da79616	0.081829235
190	0x3e07d225	0.13263758
191	0x3e01714f	0.1264088
192	0x3cc74847	0.024326457
193	0x3d9cd600	0.07658005
194	0x3e00e7f3	0.12588482
195	0x3ba9ba77	0.005179699
196	0x3c4aec6a	0.012385467
197	0x3d2f77dd	0.04283892
198	0x3e3133e0	0.17304945
199	0x3eae2f79	0.34020594
200	0x3ec005df	0.3750448
201	0xbda067c9	-0.078322954
202	0xbba2cabe	-0.0049680164
203	0x3dfaec01	0.122520454
204	0xbe3a6d67	-0.18205796
205	0xbe3ec799	-0.18630828
206	0xbe0607c7	-0.13088904
207	0xba93c5c5	-0.001127415
208	0x3e26e694	0.16298896
209	0x3e651233	0.22370224
210	0xbe8168df	-0.25275323
211	0xbe36d90e	-0.17856237
212	0xbd419128	-0.047257572
213	0xbeaa29ef	-0.33235118
214	0xbe9a059f	-0.30082414
215	0xbe5ae49b	-0.21376269
216	0x3bf38a34	0.0074322466
217	0xbc298520	-0.010346681
218	0xbb96abb6	-0.0045981063
219	0x3b98b644	0.0046603996
220	0x3bb23dbe	0.005439489
221	0x3cdb2e8f	0.0267556
222	0x3b98567c	0.0046489816
223	0x3ca106ac	0.019656502
224	0x3d3917bd	0.045188654
225	0x3ce58c6f	0.028021066
226	0x3bda2221	0.0066569005
227	0x3b4b6e24	0.003104099
228	0x3cda0772	0.026614878
229	0x3cb59bb4	0.022168972
230	0x3cf1ebe6	0.02953143
231	0x3cbca373	0.023027157
232	0x3cfc65aa	0.030810196
233	0x3d549622	0.05190099
234	0x3d24f6b1	0.040274326
235	0x3ca9a5aa	0.020708878
236	0x3c3bf0b4	0.011470962
237	0x3d693ced	0.05694287
238	0x3d444fa4	0.047927514
239	0x3d0d4b1c	0.034495458
240	0x3d716e21	0.058942918
241	0x3d7683cd	0.06018429
242	0x3d56c004	0.052429214
243	0x3c8800e1	0.016601982
244	0x3c20674b	0.009790252
245	0x3c893a4e	0.016751435
246	0x3c6d6e0e	0.014491571
247	0x3cb2ab6f	0.021810262
248	0x3d2b55e1	0.041829947
249	0x3baa0051	0.005188026
250	0x3ca9b00c	0.020713829
251	0x3d3b6e6e	0.04575961
252	0xbc8ea479	-0.017412411
253	0xbd07ab09	-0.033122096
254	0xbccd9b60	-0.025098503
255	0xbc88558b	-0.016642353

down1.down_block3d.1.double_conv3d.3.bias f4 [8]
0	0xba100a89	-0.0005494734
1	0x3a858028	0.0010185288
2	0xb984e24a	-0.000253456
3	0xbb0a0adb	-0.00210636
4	0x3908a74e	0.00013032297
5	0xb960945a	-0.0002141757
6	0x3a6cd2d7	0.0009034103
7	0x39814b75	0.00024661017

down1.down_block3d.1.shortcut.weight f4 [8, 4, 1, 1, 1]
0	0xb98db7ea	-0.00027030642
1	0xb97cff22	-0.00024127637
2	0xb95e8903	-0.0002122261
3	0xb99cf1c2	-0.00029934762
4	0xb7b6b0fe	-2.177851e-05
5	0xb5127588	-5.456027e-07
6	0xb7863f6e	-1.6003582e-05
7	0xb81402ec	-3.528867e-05
8	0x37e7b4fe	2.7621627e-05
9	0x37eaa2c7	2.7970773e-05
10	0x36ed05e7	7.0638375e-06
11	0x37ca61bb	2.4125786e-05
12	0x3981c983	0.00024754935
13	0x39b47030	0.00034415862
14	0x3957efc7	0.00020593322
15	0x39ed4618	0.00045256387
16	0xb8ffc8e8	-0.00012196769
17	0x389edb55	7.574881e-05
18	0x379e82d2	1.8895986e-05
19	0xb88fb722	-6.8528825e-05
20	0x3855a3b1	5.0935607e-05
21	0x3794ddc4	1.7746243e-05
22	0xb7263a5c	-9.907959e-06
23	0x380e0c4a	3.3866883e-05
24	0xb782f1c5	-1.560979e-05
25	0x3839ce6f	4.4299693e-05
26	0xb755980e	-1.2731192e-05
27	0x3910cb47	0.00013808637
28	0xb8d9a481	-0.000103780076
29	0xb85c8af4	-5.2581498e-05
30	0xb8c7481d	-9.5024916e-05
31	0xb8b5dfd2	-8.672442e-05

down1.down_block3d.1.shortcut.bias f4 [8]
0	0x3f12b48b	0.57306737
1	0x3e43063f	0.19045351
2	0x3e1eb94a	0.1550037
3	0x3f2e0e18	0.67990255
4	0x3fa519e2	1.2898524
5	0x3e6647bf	0.22488306
6	0xbdaccf63	-0.084379934
7	0x3f422ce0	0.75849724

down2.down_block3d.1.double_conv3d.0.weight f4 [16, 8, 3, 3, 3]
0	0xbe050392	-0.12989643
1	0xbdfd3432	-0.12363471
2	0xbdab299c	-0.08357546
3	0xbced07a2	-0.028934304
4	0xbd2e3294	-0.042528704
5	0xbd4789e1	-0.048715476
6	0x3d15a9b3	0.03653879
7	0xbc4aeea6	-0.012386
8	0xbd0d6212	-0.034517355
9	0xbd46aed5	-0.048506577
10	0xbca3b915	-0.019985715
11	0x3cc89d4f	0.024489073
12	0xbd8612f8	-0.06546587
13	0xbd661517	-0.056172457
14	0xbd1cfbde	-0.038326137
15	0xbd49769a	-0.049185373
16	0xbd6eea57	-0.058328953
17	0xbd766c49	-0.060161863
18	0x3ce76935	0.028248409
19	0x3d36994a	0.04457978
20	0x3d5ffd03	0.05468465
21	0xbccb76da	-0.024836946
22	0xbc6cbca0	-0.014449269
23	0xbb8a825f	-0.004226967
24	0xbd2899b7	-0.04116222
25	0xbd867300	-0.06564903
26	0xbd95049d	-0.072762705
27	0xbc436fef	-0.0119285425
28	0xbccd52b9	-0.02506386
29	0xbd4f5110	-0.050614417
30	0x3c2e7da7	0.010650075
31	0xbc98bf6d	-0.018645966
32	0xbd7b992a	-0.061425366
33	0x3c9043e2	0.017610494
34	0xbcbba114	-0.022903956
35	0xbd8191d8	-0.063266456
36	0xbc520fd5	-0.012821157
37	0xbca97460	-0.020685375
38	0xbd301b8e	-0.04299503
39	0x3be9e2b6	0.0071376218
40	0xbc7cb99d	-0.015425113
41	0xbd5a59f4	-0.053308442
42	0x3ca63ae9	0.020291762
43	0xbc4bd7d5	-0.012441595
44	0xbd4f55ce	-0.05061894
45	0xbc1b650a	-0.009484539
46	0xbcb15be6	-0.021650266
47	0xbd1397e0	-0.03603351
48	0x3c232266	0.009956932
49	0xbc381788	-0.011236079
50	0xbcfeafd5	-0.031089703
51	0x3d1ff267	0.039049532
52	0x3c7b4ea4	0.015338574
53	0xbb917094	-0.004438469
54	0xbbd2b21f	-0.006429925
55	0xbc707cd7	-0.014678202
56	0xbd2651bb	-0.040605288
57	0x3aa21b3a	0.0012367733
58	0xbc90ef0f	-0.017692117
59	0xbd57fa58	-0.05272898
60	0xbb3722c2	-0.0027944301
61	0xbd0e4525	-0.03473391
62	0xbd96ddd1	-0.07366527
63	0xbd16f503	-0.036854755
64	0xbd3048fe	-0.04303836
65	0xbd8616f1	-0.065473445
66	0xbcf43221	-0.02980906
67	0xbd34ad68	-0.044110686
68	0xbd90bb4c	-0.07066974
69	0xbd2ff0b4	-0.04295416
70	0xbd81c650	-0.06336653
71	0xbdbb0ff1	-0.091339
72	0xbc9d8770	-0.01922962
73	0xbd01eec0	-0.03172183
74	0xbd35b9d4	-0.044366673
75	0x3b33e55d	0.0027449944
76	0xbc82af3e	-0.015952703
77	0xbd003eee	-0.031310014
78	0x3cb90862	0.022587005
79	0x3c17c017	0.009262106
80	0xbbde2768	-0.0067796
81	0xbe4a2702	-0.19741443
82	0xbe31f2fe	-0.1737785
83	0xbdfcfb23	-0.12352588
84	0xbe55452d	-0.2082717
85	0xbe419353	-0.18903856
86	0xbe0aac6f	-0.1354234
87	0xbe3e5c3f	-0.18589877
88	0xbe337407	-0.1752473
89	0xbe02fc54	-0.12791568
90	0xbde02a54	-0.109455734
91	0xbd9811d9	-0.07425279
92	0xbcd6cacd	-0.02621975
93	0xbe6cd92d	-0.23129721
94	0xbe42d076	-0.19024834
95	0xbe022904	-0.12710959
96	0xbe90f6a1	-0.28313163
97	0xbe81e09e	-0.25366682
98	0xbe43d1a4	-0.1912294
99	0xbd7e13b9	-0.062030528
100	0xbd477179	-0.0486922
101	0xbd1dfd50	-0.038571656
102	0xbe2a0cf8	-0.1660651
103	0xbe0d816e	-0.13818905
104	0xbded767f	-0.11594867
105	0xbe8fcbfe	-0.2808532
106	0xbe8f9422	-0.28042704
107	0xbe8583b6	-0.2607705
108	0xbce87bbd	-0.028379316
109	0xbb42343c	-0.0029633185
110	0x3d0cbfb5	0.034362514
111	0xbcc298f4	-0.023754574
112	0xbc9da76a	-0.019244868
113	0x3c26d371	0.0101822475
114	0x3c90f777	0.017696125
115	0x3acf4e70	0.0015816223
116	0x3cab220e	0.020890262
117	0x3ddc05b6	0.10743277
118	0x3e0cd3d4	0.13752681
119	0x3e1e5991	0.15463854
120	0x3b19fa9c	0.0023495322
121	0x3caa2d50	0.02077356
122	0x3d3a770a	0.04552368
123	0xbd4877e5	-0.048942465
124	0xbd4ba082	-0.04971362
125	0xbcc96cba	-0.024587978
126	0x3d9d15b7	0.076701574
127	0x3d969bc5	0.073539294
128	0x3d70c159	0.05877814
129	0xbcbbbb7d	-0.02291655
130	0xbc82fe77	-0.015990479
131	0xbc94d5fd	-0.018168444
132	0xbdef39f2	-0.11680974
133	0xbe0c9746	-0.13729581
134	0xbe0a2827	-0.1349188
135	0x3d320ae4	0.043467417
136	0x3c58bb56	0.013228258
137	0xbcf5d07d	-0.030006642
138	0x3d4e5e83	0.050383102
139	0xb84caf8f	-4.880089e-05
140	0xbd49b4cc	-0.049244687
141	0x3d0f58f9	0.03499696
142	0xbc453bf8	-0.012038223
143	0xbd5177e2	-0.05113972
144	0x3c284898	0.010271214
145	0xbc9b4337	-0.018952949
146	0xbd59ef03	-0.053206455
147	0x3c993736	0.018703084
148	0xbc9066a2	-0.017627064
149	0xbd739f9d	-0.05947839
150	0x3cbf99d0	0.023388773
151	0xbc8c5e98	-0.01713495
152	0xbd6daf1e	-0.058028333
153	0xbd205432	-0.039142795
154	0xbd81f6e5	-0.063459195
155	0xbda759e1	-0.0817144
156	0xbcfde0f2	-0.030991051
157	0xbd65aa7a	-0.056070782
158	0xbd95facb	-0.073232256
159	0xb95d7d1c	-0.00021122809
160	0xbcfc5c7c	-0.030805819
161	0xbd5e214e	-0.05423098
162	0x3dc2a747	0.09504562
163	0x3d61233f	0.054965254
164	0x3d194de4	0.037427798
165	0x3c8fc791	0.017551215
166	0xb995306e	-0.00028455578
167	0x3cbb6470	0.02287504
168	0xbc0cd7c0	-0.008596361
169	0x3bdc440b	0.0067219785
170	0x3cdca300	0.026933193
171	0xbc5a89a9	-0.013338485
172	0xbd03b405	-0.032154102
173	0xbd0a6bbe	-0.033794157
174	0xbd312f4e	-0.043258004
175	0xbd177c26	-0.03698363
176	0xbb717576	-0.0036843694
177	0xbdbe651e	-0.0929663
178	0xbd5daec4	-0.054121748
179	0xbc19b78c	-0.00938214
180	0x3d68efae	0.0568692
181	0x3d294fc1	0.041335825
182	0x3d620539	0.055180762
183	0x3daa103b	0.08303877
184	0x3da3bcea	0.07995017
185	0x3dc7d8f1	0.09758175
186	0x3d7addfd	0.06124686
187	0x3dc7e0c8	0.097596705
188	0x3e08c3b8	0.13355911
189	0x3d302c1b	0.043010812
190	0x3d50cd7f	0.050977226
191	0x3da57f29	0.080808945
192	0x3d50f898	0.051018327
193	0x3d268164	0.04065074
194	0x3d6342c4	0.055483595
195	0x3d99db9a	0.07512589
196	0x3d5e1a1a	0.05422411
197	0x3d800330	0.06250608
198	0x3e17d907	0.14828883
199	0x3e1bfc2c	0.15232915
200	0x3e24d219	0.16095771
201	0x3d8fecf4	0.07027617
202	0x3d89fa92	0.067372456
203	0x3d9b633a	0.07587285
204	0x3d6517af	0.05593079
205	0x3d4925db	0.049108367
206	0x3d630f1f	0.055434342
207	0x3de05efd	0.109556176
208	0x3dd1a1e0	0.10235953
209	0x3dba2b38	0.090902746
210	0x3c7fa62f	0.015603586
211	0x3be2fdbf	0.0069272215
212	0x3c5ee398	0.013604067
213	0xbd03b7ff	-0.032157894
214	0xbd79000f	-0.06079107
215	0xbd688771	-0.056769792
216	0x3ce05707	0.027385248
217	0x3c1a4107	0.009414918
218	0x3db78e3b	0.08962675
219	0x3b6b7bd7	0.0035931969
220	0xbd0edfcf	-0.03488141
221	0xbb2a5b60	-0.0025994405
222	0x3c060953	0.008180934
223	0xbc654e42	-0.013995709
224	0xbcaf2086	-0.021377813
225	0x3cea884b	0.028629443
226	0x3d46071f	0.048346635
227	0x3e1ac8a2	0.15115598
228	0x3d7e5ac7	0.06209829
229	0x3c4024bd	0.011727509
230	0x3cdff3f8	0.027338013
231	0x3e034514	0.1281932
232	0x3d9fd0ed	0.07803521
233	0x3d3ce7cc	0.046119496
234	0x3ba2c467	0.0049672606
235	0xbd06a5ff	-0.03287315
236	0x3b4d4e61	0.0031327235
237	0x3ca5efa5	0.020255873
238	0xbd01065b	-0.0315002
239	0xbb990183	-0.0046693697
240	0x3d3cb373	0.046069574
241	0x3d359a9e	0.044336908
242	0x3d91a000	0.07110596
243	0xbd561fdf	-0.05227649
244	0xbd5d871e	-0.054083936
245	0xbd67f3e7	-0.056629088
246	0xbd57d446	-0.052692674
247	0xbd31da7c	-0.043421254
248	0xbd222f9c	-0.039596185
249	0xbd1ba50b	-0.037999194
250	0xbc99910f	-0.018745927
251	0xbc9d8264	-0.019227214
252	0xbc342987	-0.010996229
253	0x3b5256bf	0.0032095162
254	0x3c71f65a	0.014768207
255	0xbca9dbf5	-0.020734766

down2.down_block3d.1.double_conv3d.0.bias f4 [16]
0	0x36c75343	5.940355e-06
1	0xb7ef9481	-2.8560173e-05
2	0xb90f2fb7	-0.00013655318
3	0xb818acb1	-3.6400455e-05
4	0xb8c2cab9	-9.288401e-05
5	0xb654d548	-3.1714608e-06
6	0xb6f8e266	-7.417332e-06
7	0x3912d19c	0.0001400173
8	0xb7a340c6	-1.9461277e-05
9	0xb7cfb617	-2.4761115e-05
10	0x3864ee81	5.458156e-05
11	0xb887be53	-6.472752e-05
12	0x38fba056	0.000119984776
13	0xb7f59de2	-2.9279796e-05
14	0x3748156a	1.1925915e-05
15	0xb940a33e	-0.0001837136

down2.down_block3d.1.double_conv3d.3.weight f4 [16, 16, 3, 3, 3]
0	0x3d02449b	0.03180371
1	0xb90d81d8	-0.00013495178
2	0xbb7ff236	-0.003905428
3	0x3d8a18c2	0.067430034
4	0x3cbacfd2	0.022804175
5	0xbbcc62fa	-0.006237385
6	0x3d0efac2	0.03490711
7	0x3d2fd0bb	0.04292367
8	0x3d10eed4	0.035384014
9	0x3dc19f6a	0.09454234
10	0x3d6fe8d9	0.05857167
11	0x3d2a1277	0.041521516
12	0x3dd2065f	0.102551214
13	0x3dbae20a	0.09125145
14	0x3d8bd50a	0.06827743
15	0x3dc56eec	0.09640297
16	0x3de15c41	0.11003924
17	0x3dc65540	0.09684229
18	0x3dc25875	0.09489528
19	0x3db17b5f	0.08666109
20	0x3da0c3ee	0.078498706
21	0x3d8a90e7	0.06765919
22	0x3d859779	0.06523032
23	0x3d87f0dd	0.06637738
24	0x3dbd3f32	0.09240569
25	0x3dab3500	0.08359718
26	0x3d88eec5	0.06686167
27	0xbd8a5ce8	-0.06756002
28	0xbd9dfb31	-0.077139266
29	0xbc504c6d	-0.012713534
30	0xbcb39004	-0.021919258
31	0xbc9e1b9c	-0.019300275
32	0x3c8ed1bd	0.017433995
33	0x3d35ad9a	0.044355012
34	0x3c89edca	0.01683702
35	0x3cf61492	0.030039106
36	0x3c61f904	0.01379228
37	0x3a72aa02	0.00092569005
38	0x3d2bbf35	0.041930396
39	0xbcd33a04	-0.0257845
40	0xbcb2e174	-0.02183602
41	0x3c3beb99	0.011469745
42	0xbc36a347	-0.011147327
43	0xbc9eb67c	-0.019374125
44	0x3c8344e7	0.016024066
45	0xbc0442d7	-0.0080725765
46	0xbc971ae7	-0.018445445
47	0xbc1cd9ca	-0.009573409
48	0xbc98f0ba	-0.018669475
49	0xba24a25e	-0.0006280298
50	0x3b25d7a4	0.0025305534
51	0x3bdac391	0.0066761454
52	0x3d0c830c	0.034304664
53	0x3d52bf46	0.051451944
54	0xbd554020	-0.052063107
55	0xbd8b3a79	-0.06798262
56	0xbd9eccdc	-0.077539176
57	0xbacda643	-0.0015689809
58	0x39511df3	0.0001994295
59	0xbbae5998	-0.005320739
60	0xbaaf9cc9	-0.0013398166
61	0x3be9c425	0.007133978
62	0xbacc3fc3	-0.0015582967
63	0xbb987c23	-0.00465347
64	0x3d26b4a6	0.040699624
65	0x3d6e22dc	0.058138713
66	0xbd2cb6f4	-0.042166665
67	0xbc685044	-0.014179293
68	0x3c65d6d0	0.014028266
69	0xbdda04f1	-0.10645474
70	0xbdae4675	-0.08509532
71	0xbd312d26	-0.043255948
72	0xbdb8a816	-0.09016435
73	0xbcc4976f	-0.02399799
74	0x3ced6c5c	0.028982334
75	0xbdbd0752	-0.09229912
76	0xbd2c68b2	-0.042092033
77	0x3afc367a	0.001924231
78	0xbdba8e8f	-0.09109222
79	0xbd5f57b6	-0.054527007
80	0xbd384181	-0.044984344
81	0x3d07d011	0.033157412
82	0xb714c378	-8.8669985e-06
83	0xbb8cd8ca	-0.004298304
84	0x3d647b41	0.055781607
85	0x3cb147ba	0.021640647
86	0x3b894f96	0.0041903956
87	0x3d96748f	0.073464505
88	0x3d338d86	0.04383614
89	0x3c8d4495	0.017244617
90	0x3d2c5b69	0.042079363
91	0xbc85140d	-0.016244913
92	0xbc522639	-0.012826496
93	0x3de3fe7d	0.11132524
94	0x3d0e7f8b	0.034789603
95	0x3c7f0c04	0.01556683
96	0x3e1c5491	0.15266635
97	0x3db859a5	0.09001473
98	0x3d800f93	0.062529705
99	0x3d171d34	0.036893085
100	0x3c2a08cb	0.010378073
101	0xbc795dd9	-0.015220129
102	0x3d6d46dc	0.057928905
103	0x3c3b8249	0.011444637
104	0xbcdcb85a	-0.026943374
105	0x3d68efa2	0.056869157
106	0x3ba6ec65	0.0050940984
107	0xbc90ac06	-0.017660152
108	0x3df0f0f0	0.11764705
109	0x3d95cc78	0.0731439
110	0xbb7c6772	-0.0038513807
111	0x3d09b3ee	0.03361886
112	0x3dcf2bcb	0.10115775
113	0x3e005851	0.1253369
114	0xbb2215b3	-0.0024732172
115	0x3cc80617	0.024416966
116	0x3def722d	0.11691699
117	0x3dc14232	0.09436454
118	0x3e14d582	0.14534572
119	0x3de58c43	0.112083934
120	0x3c2a941e	0.01041129
121	0x3deff8c4	0.1171737
122	0x3e43ad2e	0.19109032
123	0xbd3dc7e5	-0.046333212
124	0xbd24aaed	-0.04020207
125	0x3db1790e	0.086656675
126	0xbc3deca2	-0.011592062
127	0x3c937b18	0.018003032
128	0x3cf681c6	0.030091178
129	0xbd4de70f	-0.050269183
130	0xbc32f39c	-0.010922339
131	0x3d36e6ab	0.044653576
132	0xbc90c39b	-0.017671397
133	0xbce04566	-0.027376842
134	0x3d1ead47	0.03873947
135	0xbd99b746	-0.0750566
136	0xbde41591	-0.11136926
137	0xbd36fe3c	-0.04467605
138	0xbc8b2134	-0.016983606
139	0xbd0bd93c	-0.034142718
140	0xbc959f8e	-0.018264558
141	0x3d882c77	0.06649106
142	0x3cffff2c	0.031249605
143	0x3c973960	0.018459976
144	0x3cd19166	0.025582027
145	0xbd1e19d6	-0.038598858
146	0xbcaa83d8	-0.020814821
147	0xbc1ea76e	-0.009683473
148	0xbceb09d4	-0.02869121
149	0xbd016312	-0.03158862
150	0x3c4fe6c4	0.012689296
151	0x3c262de7	0.01014278
152	0x3cbd30c4	0.023094542
153	0xbcb15dd8	-0.021651193
154	0xbd37e9c0	-0.044900656
155	0xbd3306a2	-0.043707497
156	0xbca06fe4	-0.019584604
157	0x3b06025b	0.0020448181
158	0xbc6ad14e	-0.014332129
159	0x3c739c8a	0.014868865
160	0x3d6ddff2	0.0580749
161	0x3d8175cf	0.06321298
162	0x3c1e9062	0.009677978
163	0xbd0a888a	-0.03382162
164	0xbd720679	-0.059088204
165	0x3d1f1ee7	0.03884783
166	0x3c844260	0.016144931
167	0xbd010bd2	-0.031505413
168	0x3d039256	0.03212198
169	0x3cf830e6	0.030296754
170	0x3bda9c57	0.006671469
171	0x3d3b119f	0.0456711
172	0xbcb71dce	-0.02235308
173	0xbd520e3d	-0.05128311
174	0x3dbbe497	0.091744594
175	0x3cb95246	0.022622239
176	0xbc995c03	-0.018720632
177	0x3de38386	0.111090705
178	0x3d8f36f4	0.06992903
179	0x3ce03c53	0.027372515
180	0xbc7071b1	-0.014675544
181	0xbd9092e6	-0.07059269
182	0xbdf247a6	-0.11830072
183	0x3b8803fe	0.0041508665
184	0xbd826371	-0.06366623
185	0xbdfb302e	-0.12265049
186	0x3cf977f3	0.030452704
187	0xbcefc696	-0.029269498
188	0xbdb8e6dc	-0.09028408
189	0xbd5ff9b9	-0.054681513
190	0xbdab07ad	-0.083510734
191	0xbd0728a7	-0.032997753
192	0xbc84e0e8	-0.016220525
193	0xbcb4232f	-0.021989433
194	0xbb911b38	-0.0044282936
195	0x3d2149f1	0.039377157
196	0x3c894d75	0.016760567
197	0x3c9fb63d	0.019496078
198	0x3d1f4e9d	0.03889333
199	0xbc995235	-0.018715957
200	0xbb9c1f98	-0.0047645085
201	0xbb4fd12b	-0.0031710367
202	0xbc7c31f0	-0.015392765
203	0xbc37ab73	-0.01121031
204	0x3c31edef	0.01085995
205	0x3c0d0be6	0.008608794
206	0x3cd0903a	0.025459398
207	0xbcd6b328	-0.026208475
208	0xbd678f3f	-0.056533094
209	0xbd425065	-0.04743995
210	0xbcc0d0fc	-0.023537152
211	0xbc5f643b	-0.013634737
212	0xbcb078bd	-0.021541947
213	0x3cbc6e12	0.023001704
214	0x3d2f3129	0.042771492
215	0x3d318d06	0.04334738
216	0x3dea94af	0.114541404
217	0x3d8db1d0	0.06918681
218	0x3c048b55	0.00808986
219	0x3d2cb5cc	0.042165563
220	0x3da7ba5e	0.081898436
221	0x3de1ce8b	0.11025723
222	0x3d236c81	0.0398984
223	0x3cf4586d	0.029827321
224	0x3da0490a	0.07826431
225	0x3d521760	0.051291823
226	0x3db6a744	0.08918622
227	0x3dc5a4aa	0.09650548
228	0x3ac29715	0.0014846051
229	0x3d3aaf22	0.045577176
230	0x3dff38f4	0.12462035
231	0xbc4965cf	-0.0122923395
232	0xbd881fd0	-0.06646693
233	0x3c87f21c	0.016594939
234	0x3a46cabe	0.00075833115
235	0x3cc7283a	0.024311174
236	0x3d278c03	0.04090501
237	0xbd34094c	-0.04395418
238	0xbc97bceb	-0.0185227
239	0x3cf5d51a	0.030008841
240	0xbc2209c5	-0.009890025
241	0xbd10d1d0	-0.035356343
242	0x3c8410b6	0.01612125
243	0xbd8a02ad	-0.067387916
244	0xbd134b46	-0.03596046
245	0x3d40af90	0.04704243
246	0xbdb54d69	-0.088526554
247	0xbdc8753c	-0.09787986
248	0xbd6b4c6a	-0.05744592
249	0xbd9a2093	-0.07525744
250	0xbdd4592e	-0.10368572
251	0xbd8c3fc9	-0.068481036
252	0x3d7670a1	0.060166005
253	0xbceba041	-0.028762938
254	0xbcb2203c	-0.021743886
255	0x3d85859c	0.065196246

down2.down_block3d.1.double_conv3d.3.bias f4 [16]
0	0x367222ca	3.608106e-06
1	0xb8443c8a	-4.6786423e-05
2	0x37839fa5	1.5690757e-05
3	0x378df7cf	1.6923905e-05
4	0x386b3a10	5.608244e-05
5	0x361ce630	2.3379798e-06
6	0xb835bad1	-4.332775e-05
7	0x38100bc1	3.4343222e-05
8	0xb891cfb5	-6.952827e-05
9	0x38bca67e	8.99555e-05
10	0xb7738804	-1.4515597e-05
11	0xb83fc65f	-4.5722696e-05
12	0xb88c892f	-6.701273e-05
13	0x3642e4ca	2.9041425e-06
14	0x392da267	0.00016559065
15	0xb8079949	-3.2329266e-05

down2.down_block3d.1.shortcut.weight f4 [16, 8, 1, 1, 1]
0	0x00043095	3.8477e-40
1	0x000685f0	5.9906e-40
2	0x0011ceaa	1.63534e-39
3	0x01c9dd6e	7.4153475e-38
4	0x8008152a	-7.42276e-40
5	0x8003d56f	-3.52072e-40
6	0x800074e9	-4.194e-41
7	0x80053a89	-4.80176e-40
8	0x817e59aa	-4.6716763e-38
9	0x00003ee3	2.256e-41
10	0x0009cccc	8.99987e-40
11	0x80034756	-3.01097e-40
12	0x8004a7c5	-4.27526e-40
13	0x00102d4f	1.485622e-39
14	0x00cab18c	1.8614462e-38
15	0x0009b5a9	8.91687e-40
16	0x00099f8f	8.83758e-40
17	0x0000e46e	8.1945e-41
18	0x814db0e2	-3.777946e-38
19	0x800ce80b	-1.185267e-39
20	0x00061871	5.59781e-40
21	0x80050184	-4.59721e-40
22	0x80066cb4	-5.90008e-40
23	0x0003ed3a	3.60607e-40
24	0x0005791b	5.02622e-40
25	0x000bd3f0	1.08622e-39
26	0x80042cf4	-3.83468e-40
27	0x800341a4	-2.99054e-40
28	0x800092c0	-5.2644e-41
29	0x0002816b	2.30097e-40
30	0x80043f87	-3.90131e-40
31	0x0046f894	6.517658e-39
32	0x8007f915	-7.32202e-40
33	0x800934c8	-8.45454e-40
34	0x00070abd	6.467e-40
35	0x0000af09	6.2791e-41
36	0x800a72ac	-9.59491e-40
37	0x80037c03	-3.19994e-40
38	0x004f3732	7.274805e-39
39	0x0006fe64	6.42271e-40
40	0x8000ed22	-8.5067e-41
41	0x800049dd	-2.6497e-41
42	0x00089243	7.87153e-40
43	0x000afcfd	1.00911e-39
44	0x00022e8d	2.0037e-40
45	0x0006d933	6.2893e-40
46	0x8005f47c	-5.46882e-40
47	0x00010a09	9.5435e-41
48	0x800b3f78	-1.032959e-39
49	0x800798ed	-6.97708e-40
50	0x8006415f	-5.74464e-40
51	0x00042642	3.81066e-40
52	0x8002c804	-2.55423e-40
53	0x8002202a	-1.95209e-40
54	0x8008d881	-8.12351e-40
55	0x0000f2b6	8.7068e-41
56	0x800ccbb0	-1.175095e-39
57	0x00002ff7	1.7207e-41
58	0x00067eaa	5.96451e-40
59	0x800c099c	-1.105473e-39
60	0x000684e0	5.9868e-40
61	0x800828d3	-7.49329e-40
62	0x0003d6a1	3.52501e-40
63	0x00053636	4.78625e-40
64	0x80092466	-8.39577e-40
65	0x0004a3aa	4.26054e-40
66	0x800c1074	-1.107928e-39
67	0x800a8c39	-9.68657e-40
68	0x0001bc3a	1.59358e-40
69	0x0000e0f1	8.0694e-41
70	0x0002a5bc	2.43125e-40
71	0x8007e8bf	-7.26342e-40
72	0x80787768	-1.1063094e-38
73	0x00797164	1.1152772e-38
74	0x0007e1ef	7.23898e-40
75	0x00053580	4.7837e-40
76	0x8007531c	-6.72662e-40
77	0x000178f6	1.35228e-40
78	0x0000a97a	6.0797e-41
79	0x800b616d	-1.04514e-39
80	0x80066253	-5.86285e-40
81	0x000a8b3a	9.683e-40
82	0x000714f4	6.50365e-40
83	0x0009f3c5	9.13967e-40
84	0x000108e8	9.503e-41
85	0x8018770c	-2.246758e-39
86	0x000a3bdd	9.3983e-40
87	0x800763c3	-6.78636e-40
88	0x8004bc70	-4.3494e-40
89	0x0002ddf7	2.63297e-40
90	0x00023977	2.04285e-40
91	0x0006fcb0	6.4166e-40
92	0x000bfa8e	1.100073e-39
93	0x00074acb	6.69679e-40
94	0x800643e8	-5.75373e-40
95	0x810abde6	-2.5482842e-38
96	0x8009cdba	-9.0032e-40
97	0x000c55e3	1.132836e-39
98	0x0005860e	5.07267e-40
99	0x80221e4f	-3.13328e-39
100	0x000a5f58	9.52558e-40
101	0x0009c6eb	8.97878e-40
102	0x000cd285	1.177546e-39
103	0x8003309e	-2.92947e-40
104	0x0009f045	9.12712e-40
105	0x00079599	6.96514e-40
106	0x80027525	-2.25695e-40
107	0x800b16df	-1.018395e-39
108	0x000c777f	1.144893e-39
109	0x8003d87b	-3.53165e-40
110	0x0002f873	2.72798e-40
111	0x00034da4	3.03359e-40
112	0x8002c380	-2.53803e-40
113	0x00069c04	6.06981e-40
114	0x800c6b73	-1.140571e-39
115	0x800cc136	-1.171337e-39
116	0x80020b1a	-1.87653e-40
117	0x0006836f	5.98162e-40
118	0x0005bb97	5.26472e-40
119	0x8198f43a	-5.618643e-38
120	0x0008e1b3	8.1565e-40
121	0x80707f66	-1.0331278e-38
122	0x80092aa2	-8.41813e-40
123	0x00450894	6.339726e-39
124	0x800826f6	-7.4866e-40
125	0x00068cec	6.01566e-40
126	0x8056f826	-7.986872e-39
127	0x0003cecd	3.49693e-40

down2.down_block3d.1.shortcut.bias f4 [16]
0	0xbf20655e	-0.62654674
1	0xbf0427d1	-0.51623255
2	0x3dd4dd7c	0.10393807
3	0x3e126585	0.14296539
4	0xbbda3044	-0.0066585857
5	0xbf147947	-0.57997555
6	0xbe5713c6	-0.21003637
7	0xbf1690ad	-0.5881451
8	0xbf157184	-0.58376336
9	0xbf06be13	-0.5263378
10	0x3f20d0e2	0.6281873
11	0xbf01766c	-0.5057132
12	0xbecccbc8	-0.39999223
13	0xbe2c38f5	-0.16818602
14	0xbf0436e0	-0.5164623
15	0xbdc203f7	-0.094734125
