simple_3dunet/checkpoints/96-128_3-8/try/best_model-0.0000.pth (torch, 377059 bytes, 49 tensors)

input.double_conv3d.0.weight f4 [4, 2, 3, 3, 3]
00000000: 97f5 843d 0fd8 533d d6d8 783d f341 ca3c
00000010: 70cc c83c 6dde 1d3d 3311 633d f833 453d
00000020: 70a8 3f3c 8bae 983c 0eb7 9b3c c184 37bc
00000030: 361c 723a 0204 3dbc 8d07 18bb bee8 173d
00000040: 77fe a0bc ba8a 063b 9254 a23c 7a68 33bc
00000050: 100d 9ebb 0ae0 303c b517 95bb 5200 8e3b
00000060: c7ea 3d3d 20ff 87bb d9eb 3a3c 2493 0e3d
00000070: 6646 5d3d fe3d 5d3d b46f 323d 15af ca3c
00000080: b9e6 193d 2258 653d 8ebf d53c ee16 0e3d
00000090: 382a cebb 311b 903c 5435 a73a 5b74 8abc
000000a0: bb0c ebba f207 85bc d602 113d 843a 1fbc
000000b0: c6e0 64bc 2b91 bfba c5b8 743c df88 1b3c
000000c0: 722b 073c ee45 d2bb 1b38 7cbc de98 d53c
000000d0: 79dd 223c 7b65 9cbc 9bc1 063d 3500 ac3c
000000e0: 8cab 093d 2b52 983c f963 7e3c 956f bb3c
000000f0: e595 163d 2b8c 7d3c 36e2 963c 14c3 f23c
00000100: dc74 223b 3796 dd3c 2a9e 88bc d991 04bd
00000110: 5a55 8bbc 615f 3a3d 7bae 3dbc 9af4 083c
00000120: a5a5 2e3d ed80 8b3c ecf3 b53c 86f9 aebc
00000130: d430 823c ab18 193c 8e54 d63c dac1 033d
00000140: 1ad2 093d 3406 8b3c be6a e73c 243d 0a3d
00000150: b6bc e03c cca3 cb3b f925 bd3c eb72 3f3d
00000160: 3eac e43c df54 133d 4ba2 243d 4980 c63c
00000170: a0f7 d13c 996f babc 359e 1fbd 8a1b e0bc
00000180: 9360 3a3d 1f33 96bc 882d 093c 7f03 753c
00000190: 73a9 173d 002e 0b3d 6428 c939 a774 7ebc
000001a0: fb35 d63c 7d97 a53c 9237 2a3d 9e13 9d3b
000001b0: a58f af3c 524d 47bc dc91 c03c 8ef2 863c
000001c0: e764 9cbc 645b 4cbc 7cbd 523c 8775 bb3c
000001d0: 2b3c 5d3c 1109 eebc f702 68bd f11c cabc
000001e0: 1f8e 38bd ce08 4fbd 2295 39bd 03dc ca3c
000001f0: dd35 3fbd 59ed b8bc 96f2 163d b2ec 4fbc
00000200: 285b 0d3d 831d 093d ae78 04bd 69da 1bbd
00000210: 1197 483d 0310 213d 3bf8 c43b 3643 d13c
00000220: 5e94 7f3a 4afb dc3c 6843 683b 1f39 92bc
00000230: 228a 3c3c 3e93 b93b f48f 283b b537 c43c
00000240: e007 77ba aa27 46bd 84b7 dbbc 6620 5abd
00000250: 4e62 20bd 3695 14bd 21a7 afbc 5f0d d7bc
00000260: 11a2 ffbc 2fa6 343d dc53 adbb 8ef2 663b
00000270: f284 0d3d 119e dfbb 16e5 c63b c014 253d
00000280: 8c01 8f3c 8825 053d 7b6e 2b3c dc14 a73c
00000290: 3405 293d 5aee 5c3c 4b2f 543c 7ad5 233d
000002a0: e28f 713c 29ee 9b3c 0a35 543d 9495 2e3c
000002b0: d774 09bc c7b6 b4bc fa35 e93c be9e f53a
000002c0: 74d7 843c 29b0 213d 7609 2e3c 79b2 9fbb
000002d0: c372 f63c 4720 743c adf4 f1bc d245 073d
000002e0: 080a f23a 8de3 cebb faff 023d 2784 af3c
000002f0: 4a7d 2739 10c5 b23c 69b5 f33c 895b fb3c
00000300: 3959 153d cc51 683c 29e0 223d ca34 a63c
00000310: bfd3 a83c 4f96 153d 1101 ef3b ebaa df3c
00000320: aeca 7dbc ea2a 093d 5e29 d23c 902d 4bbc
00000330: 375d 1b3d 6729 2f3d da3c 39bb 57c4 c23c
00000340: 248a 5abc f42a 4bbc 5ece 183d 3c25 2f3b
00000350: 8172 e8ba dd0c 273d 6b29 883c 53e3 863c
0.06492155 0.05171972 0.060753666 0.02468965 0.024511546 0.0385422 0.055436324 0.048145264
0.0116978735 0.018637916 0.019008186 -0.011201085 0.0009235771 -0.0115366 -0.002319786 0.037087195
-0.019652588 0.0020529465 0.019815717 -0.010950202 -0.0048233345 0.010795603 -0.0045499452 0.0043335343
0.04636648 -0.0041502863 0.0114087695 0.034808293 0.054022215 0.0540142 0.04356356 0.024741689
0.03757355 0.055992253 0.026092317 0.034689836 -0.006291654 0.01759109 0.0012756982 -0.016901186
-0.0017932871 -0.01623914 0.035403095 -0.009718541 -0.013969606 -0.0014615407 0.014936631 0.009493082
0.008250104 -0.0064170277 -0.015394236 0.02607387 0.0099404985 -0.019091358 0.03289948 0.020996192
0.033610865 0.018593868 0.015526765 0.022880355 0.036764044 0.015475313 0.018418413 0.029634036
0.0024788892 0.027049167 -0.016676981 -0.032365654 -0.017008472 0.045501117 -0.011577244 0.008359099
0.04263844 0.01702925 0.022211038 -0.021359216 0.015892424 0.00934426 0.026163366 0.032167293
0.033647634 0.016970731 0.02824914 0.033749714 0.027433734 0.0062145945 0.023089396 0.046740454
0.027914163 0.03596961 0.040193837 0.024231093 0.025630772 -0.022758292 -0.038969237 -0.027356882
0.045502257 -0.018334923 0.008372672 0.014954447 0.037026834 0.033979416 0.000383678 -0.015530742
0.026148787 0.020213837 0.041556902 0.0047935983 0.0214308 -0.012164431 0.023507051 0.016473081
-0.019091083 -0.012472961 0.012862559 0.02288319 0.013503115 -0.029057058 -0.056643452 -0.024672003
-0.045057412 -0.050545506 -0.04530824 0.024763113 -0.046682227 -0.022574114 0.03685244 -0.01269071
0.03451076 0.03347541 -0.03234165 -0.03805009 0.048972193 0.03932191 0.0060110367 0.025544744
0.00097495865 0.026975293 0.0035440568 -0.017849503 0.011507543 0.0056633046 0.0025720568 0.023952344
-0.0009423476 -0.04837767 -0.026820906 -0.053253554 -0.03915625 -0.03627511 -0.021441998 -0.026251493
-0.031205209 0.044103798 -0.005289538 0.0035239789 0.034550615 -0.006824263 0.0060697896 0.040302992
0.017456792 0.032506496 0.010463352 0.020395689 0.041264728 0.013484562 0.012950729 0.03999851
0.014743777 0.019034462 0.051808394 0.010655779 -0.008389673 -0.022059811 0.02846812 0.0018739325
0.016216017 0.03947464 0.010622373 -0.0048735705 0.03008402 0.014900274 -0.029535616 0.03302557
0.0018466124 -0.0063137473 0.0319824 0.02142532 0.00015973035 0.021822482 0.029749589 0.030683296
0.036462042 0.014179658 0.039764557 0.020288844 0.02060878 0.0365203 0.0072938283 0.02730318
-0.015490217 0.03348819 0.025654491 -0.012401 0.037930693 0.042764094 -0.002826503 0.023775263
-0.013338599 -0.012400378 0.037306182 0.0026725074 -0.001773432 0.04078375 0.016621312 0.016465819

input.double_conv3d.0.bias f4 [4]
00000000: d31f d53c d51a 0cbd 5e30 a13a 0072 fe3c
0.026016152 -0.034205277 0.001229774 0.031060219

input.double_conv3d.3.weight f4 [4, 4, 3, 3, 3]
00000000: 03cc 01bc f651 94bc a328 9cbc 7af4 d2bb
00000010: d299 89bc c1f6 07bc 37d8 9cbb a3da e6bc
00000020: 8c95 75bc 31cd aabc 1353 70bc 7383 2ebc
00000030: f099 6cbc 3502 04bd 9246 89bc 8a52 d8bc
00000040: 6ffb 28bc caa7 5bbc aa7a 7cbc 14bb 9abc
00000050: 34ab 2dbb bf1b acbc 5e17 14bc 0e9a d2bc
00000060: bd57 88bc 4f43 04bd 12ba 8ebc f43b a8bc
00000070: bef5 a9bc 33b5 9cbc a88d e4bb 1c22 1ebc
00000080: d1de a6bb 41d8 e3bc e6c6 5ebc 3980 50bc
00000090: 7516 30bc 3972 ccbc 37f9 68bc ae4c 96bb
000000a0: aef1 dabc 1308 b9bc cd9f a7bc ff1f 26bb
000000b0: 93fd eebc 2cbf b6bc 2a55 dcbc 7d57 bebc
000000c0: db6b b6bc 3712 75bb 2f4b 3ebc 4adb 32bb
000000d0: f5d3 37bc 246b b1bb c847 a53c 04bd 403c
000000e0: fa3b 0b3d 7257 1a3d 9140 e93c 2182 193d
000000f0: b5bf 083d b1ad 003d 8100 cf3c 98ee e03c
00000100: ed6a 363d bcb3 ef3c 41b8 0e3d d60c 443d
00000110: 38b2 333d c8f5 c53c 9a3c 363d fe82 2e3d
00000120: 826d 1f3d 32cb 1c3d 4385 033d 1987 163d
00000130: 5f6a 333d b611 e33c cf34 0d3d eb8b 113d
00000140: a7ca 953c 3608 65bd 125b 59bd 7359 11bd
00000150: 072f 6abd cacb 6abd 8747 61bd fe42 2bbd
00000160: 0d63 27bd b0fb 63bd 4c5b 56bd cfa3 83bd
00000170: c914 9bbd d464 97bd bfbb 86bd 24f4 60bd
00000180: 3814 7bbd a829 90bd ac93 22bd c48a 5cbd
00000190: e1c8 2dbd 6406 7abd aaa1 febc d045 4bbd
000001a0: 818c 9bbd 16af f1bc 305a d0bc 5c1e 8bbd
000001b0: c98c a6bc 1e46 e7bc b9e2 2bbd d594 11bd
000001c0: 897d acbc 5ae1 afbc 540b a6bc 0caa b1bc
000001d0: e9c1 b3bc bb9d f5bc 717a aabc 2dcc 30bd
000001e0: 110f 35bc 3d8c 99bc 420b d5bc 8455 e6bc
000001f0: 0aaa 0cbd fa0d 07bc e6d6 24bd 79d8 82bc
00000200: 37c5 3ebc 86c6 b7bc ff86 bbbc e0ff 08bd
00000210: f8c5 1abd a9c6 1abd d263 bfbc 227b 10bd
00000220: 4e23 90bc 0eb0 92bc 4320 86bc f662 d0bc
00000230: 5cae 85bc 988d 92bc 7607 c7bc fa32 a8bc
00000240: 584c 99bc 6353 bebc 9589 13bd b768 aebc
00000250: 1516 bbbc 70fc bebc 2a68 eabc a908 c9bc
00000260: feb3 ccbc e0f2 c2ba 6406 4bbc 0a89 27bd
00000270: 6611 b73a 4b41 1dbd 8e9f b3bc 39a8 8bbb
00000280: 4cd8 fbbc 152c 1ebc a6a7 863d f0d9 433d
00000290: 8bc6 673d dd5f 793d 8b1d 0a3d 9923 6f3d
000002a0: 02d7 5d3d 8b68 f23c fa02 5f3d 1dc1 523d
000002b0: cef5 503d 1233 6d3d cfae 4d3d 5c10 bd3d
000002c0: cb02 8b3d 7532 ab3d f20a 913d cdf1 9c3d
000002d0: f64d 4e3d 098b 683d 5f64 9d3c a9c2 263d
000002e0: 254a 563d 4e93 163d 6b88 953d 564d 923d
000002f0: ed9d 683d 98a4 6cbd c336 21bd 68f7 2fbd
00000300: eee4 86bd c64c 8fbd dc9b 87bd 26e1 8bbd
00000310: 017d 61bd 7c66 11bd 584f 5dbd c414 33bd
00000320: 348b b8bb 29d1 39bc e131 ebbc 2227 9fbc
00000330: 30c6 37bd 81a6 e1bc 7534 55bd 68e6 2abd
00000340: 40b8 59bd bc74 54bd 262b 42bd 22ae 5ebd
00000350: 12ec 10bd 08b2 65bd b88e 5cbd 9eb7 1cbd
00000360: 4288 0bbc d792 02bd 28fe 2bbd 469c d2bb
00000370: 5e9a eabc fb5b 21bd 7722 21bd 26fd 23bd
00000380: 8f8d 25bd 9699 d73b eb04 33bd 8013 fcbc
00000390: 5db9 debc fb0f a1bc 0b1d 99bc d17f 16bd
000003a0: 16d1 1dbd 1a5c 28bd 386a efbb 12cb bbbc
000003b0: a041 1bbd efc0 11bd 85a6 7bbc f360 f2bc
000003c0: c672 bdbc 8cc2 b3bb fa64 1abd 2a1c a23b
000003d0: b82d e9bc 44e9 aeb9 ba8b 453c 90f6 2b3c
000003e0: 2d2b 93bc c324 c7bc 6248 13bd e44d a9bc
000003f0: f907 333c 27ac bcbc dc65 0fbd 3dee 4abd
-0.007922175 -0.018105488 -0.019062346 -0.0064378353 -0.01679698 -0.008298577 -0.004786517 -0.028180426
-0.014989268 -0.020849796 -0.014668244 -0.010651457 -0.014440998 -0.032228667 -0.016757283 -0.026406545
-0.010313853 -0.013406703 -0.015410105 -0.018888034 -0.002649975 -0.021009324 -0.009038774 -0.025708225
-0.0166434 -0.032290753 -0.01742271 -0.0205364 -0.020747062 -0.019129371 -0.0069748946 -0.009651687
-0.0050924798 -0.027813079 -0.013597226 -0.012725883 -0.010747542 -0.02495681 -0.014219574 -0.0045867776
-0.02672657 -0.022586858 -0.020461941 -0.002534866 -0.029173648 -0.022307955 -0.026896078 -0.023235077
-0.022268226 -0.003739489 -0.011614605 -0.002729135 -0.011219968 -0.0054143835 0.02017583 0.011763815
0.033992745 0.03768105 0.02847317 0.037477616 0.03338595 0.031415645 0.025268795 0.02745752
0.044535566 0.029260509 0.034843687 0.047863804 0.043871135 0.02416505 0.044491388 0.042605393
0.038922794 0.03827972 0.03210951 0.036749933 0.043802615 0.027718406 0.03447419 0.035533827
0.018285109 -0.055916034 -0.053065367 -0.035485696 -0.057173755 -0.057323255 -0.054999854 -0.041811936
-0.040865947 -0.05565995 -0.05233316 -0.064277284 -0.07572324 -0.07392278 -0.065787785 -0.05492033
-0.06129858 -0.07039195 -0.039691612 -0.053843275 -0.0424279 -0.06104125 -0.031082947 -0.049627125
-0.07595158 -0.029502433 -0.02543363 -0.067929 -0.020330803 -0.028231677 -0.041964266 -0.035542328
-0.021055954 -0.02146976 -0.020269074 -0.02168753 -0.02194305 -0.029982438 -0.020810338 -0.043163467
-0.011050955 -0.018743629 -0.026006345 -0.028116949 -0.03434185 -0.008243078 -0.040244006 -0.015972363
-0.011643699 -0.02243353 -0.02289152 -0.033447146 -0.037786454 -0.037787113 -0.023363028 -0.03527368
-0.01759496 -0.017906215 -0.016372805 -0.025437813 -0.016318493 -0.017889783 -0.02429555 -0.02053212
-0.018713161 -0.023233121 -0.03601988 -0.021290166 -0.022837678 -0.023313731 -0.028614122 -0.024540262
-0.02498817 -0.0014873408 -0.01239166 -0.040902175 0.0013966977 -0.038392346 -0.021926668 -0.004261997
-0.030742787 -0.009654065 0.06574945 0.047815263 0.05658583 0.060882438 0.03371958 0.058383558
0.054160126 0.029590866 0.054446198 0.0514537 0.051015668 0.057910033 0.05021554 0.09231636
0.06787642 0.08359233 0.07082166 0.07663307 0.050367318 0.05677322 0.0192129 0.040712986
0.052316803 0.036761574 0.0730141 0.07143657 0.056791235 -0.057774156 -0.039358865 -0.042960554
-0.065866336 -0.06997065 -0.06621525 -0.06830053 -0.055050854 -0.035498127 -0.054030746 -0.043720976
-0.0056318287 -0.011341372 -0.028710308 -0.01942784 -0.04486674 -0.027545216 -0.05205198 -0.04172364
-0.05315423 -0.05186914 -0.04740443 -0.054365285 -0.035381384 -0.056077987 -0.053847045 -0.03826105
-0.008516373 -0.03187832 -0.04199043 -0.0064273207 -0.028638061 -0.03939436 -0.03933951 -0.040036343
-0.040418204 0.006579588 -0.043705862 -0.030771017 -0.027187997 -0.01966094 -0.018690607 -0.03674299
-0.038529478 -0.04110346 -0.0073063634 -0.02292398 -0.03790438 -0.035584386 -0.015359526 -0.029587245
-0.023126017 -0.0054858383 -0.037693955 0.004947205 -0.028464183 -0.00033361663 0.012057239 0.010495797
-0.017964924 -0.024309522 -0.0359577 -0.020667024 0.010927194 -0.023031307 -0.03500925 -0.049543608

input.double_conv3d.3.bias f4 [4]
00000000: 31de a43b 301c ff3b 2227 85bc 4e7e 5c3b
0.00503137 0.0077853426 -0.016254012 0.003364462

input.shortcut.weight f4 [4, 2, 1, 1, 1]
00000000: 292b 563d 2bca 4d3e 0632 733e 3b50 02bf
00000010: 6e92 02be a1fe cf3e 5abd 703d b550 1fbe
0.052287254 0.20096652 0.23749551 -0.5090367 -0.12751171 0.40623954 0.05877433 -0.15558131

input.shortcut.bias f4 [4]
00000000: 7c4d aa3d 0ad2 4f3d 1cc2 363e 05bb d3be
0.0831556 0.05073742 0.17847484 -0.41353622

down1.down_block3d.1.double_conv3d.0.weight f4 [8, 4, 3, 3, 3]
00000000: b604 f93b e26d d63a 0c1d 543c 9ce4 73bb
00000010: b437 053b ce66 233c 4922 1b3c 59bb 4ebb
00000020: 8493 00bc 00c8 083c 565e 6a3c 7261 113c
00000030: d5ff 143c b07c be3b 59ec 183c 9e6f d63b
00000040: f6bc 993b c293 c63b 89d9 0abc 1657 f13a
00000050: df2a 41bc 6982 b1ba eefe db3b 5c2b 3abb
00000060: 68b7 00bc 9731 83bc e2dc 9cbc 69b8 0c3b
00000070: e47e 423a 54ad 123a c088 f138 112f 7d3b
00000080: 8658 7a3b 6748 e93b e674 173b a3e9 c9bb
00000090: 956d 3ebc 08ec 523c a6b7 6cbb da4e ba3b
000000a0: f7e9 8f3c 5606 b039 a07b 0c3a f1f0 1fbc
000000b0: 7bf5 88bc 90cf 89bb 964f 85bc a213 06bc
000000c0: d2d9 31bc 3b72 96bb cde1 a8bc 9a59 dcba
000000d0: 5cd6 073c 5179 50bc a2e9 b8ba 019d 9bbc
000000e0: 4cb2 523c b429 8bbc 7c53 d3bb 48dd e7ba
000000f0: 0231 c4bb 59eb 02bc 94d2 423b 9410 f63c
00000100: 2fe7 d73c 265c a13c fe5e c43c 4eaa c63c
00000110: 0095 083d 4764 cc3b d721 b33c 8edf ce3c
00000120: c071 6d3c 3377 273c fe6f b33b fab9 1f3c
00000130: 1ceb 5ebb 0406 6e3c e272 2fba de03 443a
00000140: 88f9 433c 6fa1 6fbc b2a9 e9ba 5674 08bb
00000150: 2e9c b4bc 2e4d 11bc 281b a9bc 017d c4bc
00000160: d044 e3bc 91f8 bbbc d206 97bb 06ef 843c
00000170: 6ab6 e0bb 7853 0bbc ece8 42bc 940f 2bbc
00000180: 50c3 7cbc 16f2 82bc e234 40bb f48e 7ebc
00000190: 1c26 a0bc 5792 56bc 96ec 823a 885d 95bc
000001a0: d8f2 b0bc 5ad6 e7bc e4c0 c0bc 83c6 d2bc
000001b0: 0760 143c 8c22 153b 7976 60bb fecc 5b3c
000001c0: f32e 0b3c 53d9 393c a9d3 7b3c 8ca6 aa3a
000001d0: b2ad 37bc 5f36 133c b6bb 3d3c bc70 a5ba
000001e0: 2e98 883b 38e3 cbbb ca28 043c d543 673b
000001f0: 7a0d 68bc 176d 953c d1d6 4a3c 0b34 183c
00000200: 0294 253c 6c13 67bc 6cbb dc3b 0cd9 a83c
00000210: 2e6b 813b 2273 fdba 9026 0a3c f4d1 813b
00000220: 7714 3e3c 74bb 003c d628 863b 84d6 5a3c
00000230: 1131 483c 3091 4b39 6414 313c fa31 533c
00000240: c4d6 a73b 444d 47bc 8142 88bb e7ae d13c
00000250: 922d 3ebb eca5 be3c 72b1 3fbb e4c2 4e3c
00000260: 1f09 f83b f76f 67ba 5934 833c 817e 583b
00000270: 72ef 45bc 05a9 48bb 9996 a3bb 007e 8e3b
00000280: 704f 2338 1a0b e33b 3a79 e0bb 3edf 60bc
00000290: aa16 f73b 9cfd 713b ea67 92ba d480 023b
000002a0: 4a40 fb3a 6edf d33b 85ec 043c 34a4 67bb
000002b0: 38f7 36bc 3259 dbbb 5f6d 47bc 35df 5fbc
000002c0: 921b e93b b9e0 39bc b262 ae3b 545c bdbb
000002d0: 8e38 c7bb 7777 3f3c eeab c03b 4e76 febb
000002e0: 12e8 6d3b 79f7 293c 5840 933a 546c 1d3a
000002f0: a4ff b03a 4298 2c3c 11f0 aa3c 444a 773a
00000300: 96b4 733c 344f 383b fed2 a1bb 6c06 6dba
00000310: c0ae 64bc d62c bb3b 1160 11bb a2d7 2bbb
00000320: fd6f 3b3c 5a85 d5ba 5fa7 71bb 855f b5ba
00000330: 1302 69bb 8228 1b3c ba19 59bb da99 ad3a
00000340: 9e66 9abb 97f4 d9bb d0a3 27bb e4d9 c23b
00000350: 6922 b13b 4327 d63b 0040 9fb9 4ea2 f93b
00000360: 30c9 d5b9 e5dc 51bc f5de f5bb ae0a a9bc
00000370: c537 a4bc 8750 67bb 6269 823a d059 14bc
00000380: f8e1 2d3c 3e2f cfbb a5d8 05bb 6cfd 1ebc
00000390: 707f 0bbb 7b01 5ebb 73ea b2bc fa39 b83b
000003a0: 6639 43bc a81d b13b 466d 98bb 1415 8fba
000003b0: 8c53 30bc 46d9 e33a b06f e1ba e840 4239
000003c0: 2176 0fbb bdad a23b 99f2 e03b 96a4 ccbb
000003d0: 8ca0 15bc df6a 92bc a53e 56bb df4c 80bc
000003e0: d4d1 4dbb 9f49 9eba 3601 5cbb 2ec4 43bc
000003f0: c2d7 f2bb 0c01 503b 3f23 21bb 6d95 81bc
0.0075994385 0.0016359652 0.012946378 -0.003721512 0.002032739 0.009973241 0.009468623 -0.0031544773
-0.0078476705 0.008348465 0.014304718 0.00887333 0.009094198 0.0058132038 0.009333693 0.0065440675
0.0046917154 0.0060600946 -0.008474716 0.0018412794 -0.011790006 -0.0013542894 0.0067137396 -0.0028407192
-0.007856227 -0.016014857 -0.019148294 0.0021472222 0.0007419421 0.0005595286 0.00011517247 0.003863279
0.0038199737 0.0071192267 0.0023110448 -0.006161885 -0.011622806 0.012873657 -0.0036120205 0.0056856694
0.017567618 0.00033574057 0.0005358998 -0.009762035 -0.016718617 -0.0042056516 -0.016273301 -0.008183392
-0.010855155 -0.004591254 -0.020615483 -0.0016811371 0.008290853 -0.012724237 -0.0014107714 -0.018995764
0.012859892 -0.016987659 -0.006449161 -0.0017689848 -0.0059872875 -0.007990682 0.0029727565 0.030037202
0.026355354 0.01969726 0.023971077 0.02425113 0.033345222 0.00623754 0.021866722 0.025253084
0.014492452 0.01022129 0.005475997 0.00974893 -0.0034014648 0.014527801 -0.0006692839 0.0007477383
0.011961348 -0.014625891 -0.0017827062 -0.0020821295 -0.022047129 -0.008868499 -0.020642832 -0.023985388
-0.027742773 -0.022945674 -0.0046089673 0.016227257 -0.006857683 -0.008503787 -0.011896353 -0.010440726
-0.0154274255 -0.015984576 -0.0029328396 -0.015537012 -0.019549422 -0.013096414 0.0009988721 -0.018233076
-0.021600172 -0.028300453 -0.023529477 -0.025729423 0.009056098 0.0022756187 -0.0034250303 0.013415573
0.00849508 0.011343318 0.015370288 0.0013019606 -0.011210846 0.008985131 0.011580398 -0.0012622098
0.004168532 -0.006222155 0.0080663655 0.0035288234 -0.014163369 0.018240495 0.012380318 0.009289752
0.010106089 -0.014103752 0.0067362096 0.020611309 0.0039495444 -0.001933668 0.008432046 0.003961796
0.011601559 0.007857192 0.0040942235 0.013356809 0.01221873 0.00019413675 0.010808084 0.012890333
0.0051220376 -0.012164418 -0.0041583185 0.025596095 -0.0029018861 0.023272477 -0.0029250053 0.012619708
0.0075694467 -0.0008828635 0.016016172 0.0033034387 -0.012081014 -0.0030618322 -0.004992318 0.0043485165
3.893621e-05 0.0069288136 -0.006850389 -0.0137251 0.0075405436 0.0036924845 -0.0011169885 0.0019913213
0.001916894 0.006465844 0.008113031 -0.0035345675 -0.01116734 -0.0066939825 -0.012172072 -0.013664057
0.0071138823 -0.011345082 0.005321824 -0.0057788286 -0.00607974 0.0116861975 0.0058798706 -0.007765568
0.0036301655 0.0103739435 0.0011234386 0.0006005217 0.0013503921 0.010534348 0.020866426 0.00094333687
0.014874598 0.002812338 -0.0049384823 -0.00090417895 -0.013957679 0.005712132 -0.0022182504 -0.0026221056
0.011440274 -0.0016290352 -0.0036873443 -0.0013837671 -0.0035554215 0.009470107 -0.0033126906 0.0013244704
-0.00471194 -0.006651472 -0.0025579818 0.0059463847 0.0054057133 0.006535442 -0.00030374527 0.007618225
-0.00040776422 -0.012809013 -0.007503385 -0.020634975 -0.020046124 -0.00352958 0.0009949619 -0.009054616
0.010612957 -0.0063227704 -0.002042332 -0.009703975 -0.0021285675 -0.0033875394 -0.02184031 0.0056221457
-0.01191554 0.0054051466 -0.0046516983 -0.0010916316 -0.010762107 0.0017383478 -0.0017199423 0.00018525461
-0.0021890479 0.004964559 0.0068648574 -0.006245206 -0.009132516 -0.017873226 -0.0032691148 -0.015661655
-0.0031405585 -0.0012076384 -0.0033570058 -0.011948628 -0.0074109742 0.0031738905 -0.0024587659 -0.015818322

down1.down_block3d.1.double_conv3d.0.bias f4 [8]
00000000: c6ee 6c3b 5908 293c da2e 25bc 0ac3 76bc
00000010: 2004 7b3b 6f56 65bb 28db 293c 22d9 e63b
0.0036153062 0.010316932 -0.010081971 -0.015061149 0.003830202 -0.0034994145 0.010367192 0.007044927

down1.down_block3d.1.double_conv3d.3.weight f4 [8, 8, 3, 3, 3]
00000000: 3a4b 233c ab98 403c 3879 cb3b aad2 7b3c
00000010: 7f10 103b 0caf 0abb a637 9eb9 60e2 acba
00000020: 786b 6e3b d8bc dc3b fc4e b2ba 2070 adb8
00000030: 3f17 6c3c 993b e73b 3455 313c dabe 8b3b
00000040: c6d2 dcba 1f2a 2b3c c009 013c 1e89 603c
00000050: 5075 143a 345a 263c 7a0d 3d3c 8621 6f3c
00000060: fc7d 8439 bc52 ba3b 705d ed39 e30a a5bc
00000070: cfd2 84bc 3cfa 7ebc 86d7 b7bc da25 41bc
00000080: fd59 c0bc 58fa ccbc a777 9ebc 0dba b1bc
00000090: 8b80 97bc 41e5 8ebc 443e 9abc 342c bebc
000000a0: 96d3 5bbc 7427 aabc 49ee bebc 3866 b6bc
000000b0: 3d16 a3bc 8cef 92bc 6a16 62bc 3c00 13bc
000000c0: bf8f 64bc ef88 80bc 5e7e 85bc 229c 94bc
000000d0: 975a 2bbc a4e7 89bc 73c7 523c 4f1c 83ba
000000e0: 1a40 4abb 6d06 acba b828 af3b 1b1b 08bc
000000f0: b907 3d3b d947 85bb fe9c 5dbb 33cc 553c
00000100: 1df0 b53b b846 2aba 7afa a63b 9aec 4a3c
00000110: ee85 c9bb 1deb 6abb 2e40 243c 8086 d1bb
00000120: be93 743b 4896 f63a 08d8 48bc cad6 97bb
00000130: 9a39 4bbb 3652 583b 4974 913b 93ba 01bb
00000140: 87e3 37bc 3602 bbbc d3c6 adbc 4348 a7bc
00000150: d5a2 b3bc 9040 b7bc e040 b0bc ed64 a3bc
00000160: ecbd 87bc 1a3a aabc a7c7 b0bc c860 c6bc
00000170: cd60 78bc 884a b5bc 129c adbc ed33 adbc
00000180: 91f8 a5bc 8e37 aebc 139b 92bc 9dad 86bc
00000190: dff0 2fbc 06ed 30bc 9007 47bc b725 78bc
000001a0: cec3 24bc 646b 45bc 624a 90bc f5fd 17bc
000001b0: 51b1 113c 966b 9b3c e74d 653c 688c 8d3c
000001c0: dd39 663c 2b86 373c 971b 8d3c 523a 9b3c
000001d0: 3364 5c3c acc0 6b3c 6598 8c3c da92 553c
000001e0: dc6f 2c3c d630 6e3b aed2 263c fb87 223c
000001f0: 4a4c 4a3c 36ad 3e3c 52af 4e3c f679 353c
00000200: 6e21 973c f911 973c 4d11 3e3c 185b 363c
00000210: 0f0a 293c e224 433c 4ef5 db3b 23a5 0dbb
00000220: 2439 253a d08c 083c 68ee a63b 6c05 703c
00000230: c06e b338 ebf6 1e3c 9a29 3a3b d9b2 c83b
00000240: 5b37 9e3c ee3e 893c 516e 833c 4678 8a3c
00000250: 4673 4d3c 7250 873c 7b8f af3c 1759 a93c
00000260: 5456 4e3c 6a96 1c3c 38a5 9c3c e583 a23c
00000270: d93a 243c 986e 2e3c b7d3 9c3c 7e86 813c
00000280: e86d a43c bb59 853c e45c 97bc d046 9dbc
00000290: 8b29 9abc 235c c5bc 60f9 b2bc 106b a6bc
000002a0: 12bb a4bc 75e9 c6bc 5f17 b5bc 4a3e a5bc
000002b0: 9564 c7bc cd1c 73bc efb5 95bc 5f45 a9bc
000002c0: ca19 91bc 3057 94bc e225 a3bc 3a66 c1bc
000002d0: c3c1 88bc a65c 94bc ea66 3fbc 69ae 7cbc
000002e0: 4e66 83bc 98ee 22bc c1aa 0fbc 4058 5fbc
000002f0: 55c2 0abc 519f 96b9 c9b4 103c 7d16 4d3b
00000300: b9ac 3fbb 4041 ca3a 38cc 203c a14f 543c
00000310: 506a a23b 6ded 793b 138a bf3b 118e 2d3c
00000320: 9466 1dbc 5244 05ba 164c 083c 90d5 b83b
00000330: fdb8 3f3c f640 b5b9 d9c3 19bc 7a85 4e3c
00000340: 6894 603c 81cf 533c 5f0b 583c 8cd7 623c
00000350: ab01 bc3b e2f6 8a3c c2a2 803c 79b5 473c
00000360: 43ea b1bc 379f c8bc d3ad a6bc 7341 b1bc
00000370: 884b b7bc d7a2 9dbc dbb0 51bc 136b b2bc
00000380: d4f9 aabc 1d25 b7bc e5f9 acbc b027 99bc
00000390: 736d b2bc 4cd8 76bc d191 b2bc f7ac 8fbc
000003a0: 6405 79bc ce6d 91bc d814 42bc 5f57 2ebc
000003b0: eb5c cebb d08f 49bc 374b 87bc 06f1 23bc
000003c0: 1ef9 11bc 7706 a1bb 7700 60bc e1cc 8ebc
000003d0: a931 94bc bb8f 8ebc a4ab 54bc b49c 70bc
000003e0: 5c71 34bc 11f4 9dbc 19e1 46bc d13a 6ebc
000003f0: 8e2d 6abc 812b a5bc d0a0 5fbc 9c4b 47bc
0.009966666 0.011755149 0.0062095188 0.01537005 0.0021982489 -0.0021161465 -0.0003017757 -0.0013190024
0.0036379974 0.006736379 -0.0013603861 -8.270168e-05 0.014409839 0.007056665 0.010823537 0.0042646946
-0.0016847483 0.010447054 0.00787586 0.013704566 0.0005663233 0.010153342 0.011538858 0.014595395
0.00025270868 0.0056861322 0.0004527378 -0.020146793 -0.016213803 -0.01556259 -0.022441637 -0.01178881
-0.02348041 -0.025021717 -0.019344164 -0.021695161 -0.018493911 -0.017443301 -0.018828519 -0.023214437
-0.013417145 -0.020770766 -0.023306983 -0.022265539 -0.019908065 -0.01793649 -0.013799289 -0.008972224
-0.013950287 -0.015690295 -0.016295608 -0.018140856 -0.01045861 -0.016834088 0.012864935 -0.0010002943
-0.0030860961 -0.0013124474 0.00534543 -0.008307244 0.0028843714 -0.004067403 -0.0033815498 0.013049173
0.0055523054 -0.0006495523 0.005095777 0.012385512 -0.006149999 -0.0035845705 0.010025067 -0.0063942075
0.0037319507 0.0018813098 -0.012258537 -0.004633759 -0.0031009675 0.0033007986 0.004438911 -0.0019795045
-0.01122368 -0.022828203 -0.02121297 -0.0204202 -0.02192823 -0.022369653 -0.02151531 -0.019945586
-0.016570054 -0.020779658 -0.021579577 -0.02421607 -0.015159798 -0.022130266 -0.021192584 -0.021142924
-0.020260127 -0.021266725 -0.01789621 -0.016440207 -0.0107385805 -0.010798698 -0.012147799 -0.015145711
-0.010056449 -0.01204953 -0.017613593 -0.009276857 0.008892373 0.0189722 0.013995624 0.017278865
0.014051882 0.011201422 0.01722507 0.018948708 0.013451624 0.014389198 0.017162511 0.0130355
0.010524716 0.0036345026 0.010182066 0.009920116 0.01234729 0.011637976 0.012615042 0.011076441
0.018448558 0.018441187 0.0116008045 0.011130117 0.01031734 0.011910649 0.006712592 -0.0021613322
0.0006302765 0.008334354 0.005094338 0.01464973 8.556014e-05 0.0097024245 0.0028406144 0.006124836
0.019313505 0.01675364 0.016043814 0.016903054 0.01253969 0.016517852 0.021430722 0.020672364
0.012593824 0.009557346 0.019121751 0.019838283 0.010023796 0.010646485 0.019143922 0.015811201
0.020071939 0.016278138 -0.01847691 -0.019198805 -0.018818637 -0.024091786 -0.021847427 -0.020314723
-0.020108733 -0.024281243 -0.02210587 -0.020171303 -0.024339953 -0.01483841 -0.01827523 -0.020662962
-0.017712492 -0.01810798 -0.019915525 -0.023608316 -0.016693955 -0.018110584 -0.0116822515 -0.015422442
-0.016039994 -0.0099445805 -0.008768738 -0.01363188 -0.008469184 -0.0002872893 0.008832165 0.0031293922
-0.0029247238 0.0015430823 0.009814315 0.012958438 0.004956521 0.0038135902 0.005845317 0.010592953
-0.009606976 -0.0005083728 0.008318922 0.005640693 0.0117018195 -0.0003457141 -0.009385073 0.0126050655
0.013707258 0.012927891 0.013186305 0.013845336 0.0057375035 0.016963426 0.015702609 0.012189263
-0.02171815 -0.024489982 -0.020346558 -0.021637654 -0.022374883 -0.019242687 -0.012798513 -0.021779573
-0.02087108 -0.022356564 -0.021115253 -0.018695682 -0.021780705 -0.015066218 -0.021798046 -0.01753853
-0.015199039 -0.017752554 -0.01184579 -0.010640948 -0.006297698 -0.012302354 -0.016515357 -0.010006195
-0.008909492 -0.0049141007 -0.013671986 -0.017431678 -0.018090086 -0.01740252 -0.012980375 -0.014685798
-0.011013355 -0.019281419 -0.012138628 -0.01454039 -0.014293088 -0.020162346 -0.0136491805 -0.012164023

down1.down_block3d.1.double_conv3d.3.bias f4 [8]
00000000: 6410 4bbb aa6c a3ba 3967 25bc 28c9 0ebc
00000010: c470 583a e228 29bc 52ec 293c ed33 1dbc
-0.0030985111 -0.0012468298 -0.010095411 -0.008714952 0.00082565495 -0.010324689 0.010371285 -0.0095949

down1.down_block3d.1.shortcut.weight f4 [8, 4, 1, 1, 1]
00000000: 3f27 e6bc 5e83 413d b42e 88be 67e8 e53c
00000010: 3b4e 1fbe 729c 8fba 6cfb 58bc aa49 753e
00000020: 4e86 833c 704b 4fbe 9f8f 73be bc55 93bb
00000030: 8bba 883c 4cf0 283c 2b91 16be ce82 15be
00000040: 692a 81bb 2c52 2d3e 514a cf3d f28e 2abb
00000050: 907d f2b9 ebc0 dc3c 62f0 483e f755 b6bd
00000060: d82b 403e 72c3 363e 25e4 4a3e b712 c2bc
00000070: a77f 89be c5fd f5bd 62ec 34be b847 94bd
-0.028094886 0.047244422 -0.26598132 0.02806492 -0.15557186 -0.0010956659 -0.013243537 0.23953882
0.016055252 -0.20243621 -0.23785256 -0.0044963043 0.016690513 0.0103111975 -0.14703815 -0.1460068
-0.0039418233 0.16925877 0.101215966 -0.0026025143 -0.00046251388 0.02694746 0.19622949 -0.08903115
0.18766725 0.17847994 0.19813593 -0.023690565 -0.26855204 -0.12011293 -0.17668298 -0.07240242

down1.down_block3d.1.shortcut.bias f4 [8]
00000000: 3326 1ebe 88db 3bbc c4e3 393b 91d8 0fbe
00000010: e9ca a4bb 8e65 4ebe 9720 09be 5abb 283e
-0.1544426 -0.011465915 0.0028364519 -0.14047457 -0.0050290716 -0.20155928 -0.13391338 0.16477719

down2.down_block3d.1.double_conv3d.0.weight f4 [16, 8, 3, 3, 3]
00000000: 6157 81ba 4d92 293c 68db 8eba 54b5 4b3b
00000010: cdd0 923a 0fb2 08bc 2162 abbb 5109 9a3b
00000020: fabb 803b 64b2 90bb dbb7 aabb 6e7d 0bbc
00000030: 9a9d 713b e4a7 a5bb d827 a03b 6abe c9b9
00000040: 78fe b13b 3ade 96bb d440 8c3b 00ae 0eba
00000050: 0a87 e13a 9670 29ba 69d9 15bc e035 1abb
00000060: 2133 ab3b 5c61 d73a 1c0e a0bb 9255 1cbc
00000070: 407d 213c 084d f8bb 2ca3 483b 5dbf 243c
00000080: a9e9 27bc 5025 0eba a7fe f6bb d99e 8d3b
00000090: 770d 43bb 489a 2bbc be87 3b3b c87a 4d39
000000a0: 1dba 213b 2d34 21bc 16fa 21bb 08ea 8db9
000000b0: fb4e e73b 9ba2 2bbc 2198 2d3b a4b9 1cbc
000000c0: 08f5 733a 2f25 67bb 8207 c2bb c550 abbb
000000d0: 48ab 29bc e0f7 9e39 5b83 973b a4a5 123b
000000e0: 5ed7 223b fc64 173a 41b6 deba 0c07 2a3a
000000f0: 8210 1bbb c18c 5abb f82c 0ebc 3c91 c8bb
00000100: ae8b 223b 6cae 92bb 10e3 22bc 80d3 6837
00000110: f67e 953b 3e33 2c3c 013b 1e3c 06fd 383b
00000120: 020e 0e3c b8f5 2a3c 7ac2 d33b 78c3 393b
00000130: 9694 833b 3ce9 f3ba 0fea e33b 819c 25bc
00000140: cddb 1fbc 285b 13bb b79f ab3b 3778 28bc
00000150: d2b5 af3a fcc7 793b 9e62 24bc 2b37 a03b
00000160: a727 063b ced5 98bb afa6 30bb 7a4a 893b
00000170: 4844 a4bb 5402 563a 5f3a 523b 352a 12bb
00000180: ed6c 0ebc 8012 c639 153b 2a3c ccd0 033c
00000190: 69e1 29bc f201 05bb d85b 3e39 a0ce 3a3a
000001a0: d103 2a3c 8ed2 b43a 8fd0 5c3b 6234 92bb
000001b0: f637 83ba 4c04 47bb 9092 ea3b f242 653b
000001c0: 692a f4bb cd80 963b dc46 f6bb bbc1 093c
000001d0: 7a07 313a 2552 503b f92e debb 41eb de3a
000001e0: d205 a8bb aae7 7fba ae3f 1abc d339 6f3a
000001f0: 33f0 eeba fc5c 0ebc a76e 0ebc ca81 203b
00000200: b046 6c3b a2cc 073b cab6 9f3b 2fb7 c13a
00000210: 74eb c439 504a bbbb 2c16 dfb9 a841 793a
00000220: 622e 94bb 7515 c1bb 28ac 0cbc c4e5 19bb
00000230: 999b f1bb b1ca 803b c2f2 2bbc 5bbd 87ba
00000240: 8832 7039 fbaf 6fbb b436 d63a 6287 dfba
00000250: 1489 1bbb 0882 ff3a 5cd5 23bc 482c 123a
00000260: 655a 29bc 9cea a439 9d9d 9f3b 28e5 28b9
00000270: 2e49 99bb 9772 abbb 1ed7 5b3b bfce 753b
00000280: e42d 94ba 447f 9abb 8364 25bb 1f8a 943b
00000290: 001c 4eb8 0866 05bb d5ef 2f3c 4533 94bb
000002a0: 7ab7 0cbb 1179 e13a d85f 93bb eda8 c53b
000002b0: ff5a da3a 6044 2238 c8ba 1b39 6816 063c
000002c0: 3009 a5bb d455 23bc ecd9 d4bb 4808 0abb
000002d0: 19b5 a9bb 8c1b 0dbc 60b2 7aba c5ce 2a3c
000002e0: e266 7fba 2a7c bbbb 301c 033b 6b93 393b
000002f0: 8e62 ecbb a546 00bb 6bec abbb 3618 a63b
00000300: f897 9039 1267 8dba 78bb e939 5047 c1bb
00000310: f48b 16bc 4f2c d53a 9f9b d0bb 4828 abbb
00000320: 08f9 25bc 1cfe 9b3a a4f7 8eba 84b6 843a
00000330: 3f67 cdba 49db 993b 6428 2bbc b0d4 c639
00000340: ee3e 06bc 68f3 4639 9c42 fd3a fa33 0e3b
00000350: 16c5 4abb df18 843b 1933 a03b 121d a03b
00000360: de3e e8bb 8850 a5bb 6574 c6ba ef5d 5f3b
00000370: eaa2 583b 8d5e 09bc 3005 f839 19b1 bb3a
00000380: 38e3 413b 515f 4c3b 46b5 1e3a 1859 6abb
00000390: 306d 933b 03e7 ccbb 90b0 1d3c 4bd5 72bb
000003a0: c911 973a d5ed 0fbb ebfa cdbb cbe6 223c
000003b0: 479c c5bb 45eb 18bb 86e0 2d3c 04fa c7b9
000003c0: 15ca 593a f52e 0dbc 59b7 833b 58d6 d5ba
000003d0: ace7 48ba ba66 a63b 3475 02bb 5a3b a73a
000003e0: 490c 1bbc ba8a 653b 2866 173b 5117 26bc
000003f0: 36c7 223b b877 6b3b 977a 60ba 80d3 cbb7
-0.000986796 0.010349822 -0.0010899128 0.0031083422 0.0011201143 -0.008343234 -0.0052302037 0.0047008176
0.0039286586 -0.004415797 -0.0052099056 -0.0085137915 0.003686762 -0.0050554145 0.0048875622 -0.00038479577
0.0054319464 -0.004604128 0.004280189 -0.0005442798 0.0017206382 -0.0006463615 -0.009146073 -0.0023530647
0.005224601 0.0016432214 -0.0048844945 -0.009541886 0.009856522 -0.007577542 0.0030614836 0.01005539
-0.01024858 -0.000542243 -0.007537681 0.0043219146 -0.0029762664 -0.010473795 0.0028614844 0.00019596063
0.0024677583 -0.0098391 -0.0024715713 -0.00027067983 0.0070589758 -0.01047578 0.002648838 -0.009565745
0.0009306227 -0.0035269966 -0.005921305 -0.0052281343 -0.010355778 0.0003032079 0.004623813 0.0022376562
0.0024847607 0.0005775241 -0.0016991572 0.00064860354 -0.0023660962 -0.0033348056 -0.008677714 -0.006120829
0.0024802494 -0.004476359 -0.009941831 1.3877521e-05 0.004562254 0.010510264 0.009657622 0.0028226986
0.008670332 0.0104345605 0.0064623924 0.0028345268 0.0040155156 -0.0018608938 0.006955392 -0.010108114
-0.009756994 -0.0022484753 0.0052375454 -0.010282568 0.0013405627 0.0038113585 -0.010033278 0.004889389
0.0020470412 -0.0046641594 -0.002695482 0.0041897865 -0.0050130226 0.0008163799 0.003207825 -0.002230299
-0.008692962 0.00037779287 0.010390063 0.0080453865 -0.010368683 -0.002029535 0.00018154026 0.00071261264
0.010376886 0.001379566 0.0033693647 -0.004461811 -0.0010011184 -0.0030367551 0.007158585 0.003498253
-0.0074513447 0.004592991 -0.0075157713 0.008408005 0.0006753128 0.0031787243 -0.006780502 0.0017007367
-0.005127647 -0.00097619987 -0.0094145965 0.0009125743 -0.0018229544 -0.008689161 -0.008693374 0.0024491423
0.0036052875 0.0020721336 0.004874085 0.0014779324 0.0003755946 -0.005715646 -0.00042550394 0.000950838
-0.004522131 -0.0058924505 -0.008585967 -0.0023482898 -0.007373285 0.0039304127 -0.01049489 -0.0010356115
0.00022907008 -0.0036573398 0.0016343207 -0.0017053897 -0.0023732828 0.0019493708 -0.009999599 0.00055760564
-0.010336493 0.00031455315 0.004871084 -0.00016107096 -0.004677913 -0.005232166 0.0033544968 0.0037507263
-0.001130518 -0.0047148783 -0.0025236912 0.004533067 -4.9140304e-05 -0.0020355005 0.010738333 -0.0045227134
-0.0021471665 0.0017202218 -0.0044975094 0.0060321004 0.0016659199 3.868749e-05 0.00014851533 0.008184053
-0.0050364956 -0.0099691935 -0.006495705 -0.0021062065 -0.005179059 -0.008612525 -0.0009563323 0.010425274
-0.0009742809 -0.0057215886 0.0020005815 0.0028316628 -0.007213897 -0.0019573357 -0.005246689 0.005068804
0.00027579046 -0.0010788164 0.00044580898 -0.0058983937 -0.009188641 0.0016263815 -0.0063662077 -0.0052233078
-0.010130174 0.0011901292 -0.0010907543 0.0010125195 -0.0015671029 0.0046953303 -0.010446642 0.00037923967
-0.008193715 0.00018973427 0.0019322219 0.002169846 -0.0030940226 0.004031285 0.004888904 0.004886278
-0.0070875725 -0.0050450005 -0.001514089 0.0034083088 0.0033056089 -0.008384359 0.0004730611 0.0014319747
0.0029584896 0.0031184743 0.00060542335 -0.003575867 0.0044991 -0.0062531247 0.009624615 -0.0037053402
0.0011525686 -0.0021961827 -0.0062860153 0.009942721 -0.0060305926 -0.002333359 0.010612613 -0.00038142514
0.00083080056 -0.008617152 0.0040196595 -0.001631449 -0.00076639163 0.005078164 -0.0019906284 0.0012758777
-0.009463378 0.0035025314 0.0023101661 -0.010137395 0.0024837977 0.0035929512 -0.0008563189 -2.4297973e-05

down2.down_block3d.1.double_conv3d.0.bias f4 [16]
00000000: e204 2abc 54c6 1fba 248f 953a 2c06 4d3b
00000010: 265b c73b 3ab0 113b 5e1a a63a ddb2 b63b
00000020: 285a ba3b 38c9 c6bb 7f47 96bb 637a 563a
00000030: 3d51 ab3b 9e19 a73b 1eaf 493b fa89 d93b
-0.010377141 -0.0006094922 0.0011410457 0.0031284196 0.006083864 0.0022230283 0.0012672653 0.0055755214
0.005687017 -0.0060664676 -0.0045861597 0.0008181689 0.00522819 0.0050994894 0.0030774544 0.0066387625

down2.down_block3d.1.double_conv3d.3.weight f4 [16, 16, 3, 3, 3]
00000000: 0394 acbb c693 903b 4cea bfba 134a 363b
00000010: ec31 343b ecce d53a 7a4f f0ba 6e48 f6ba
00000020: 9817 893b a537 b239 d9c2 1cbc f28d 61bb
00000030: a7a7 a43b 7a4d 2ebb 98e3 223a 6cea 783a
00000040: 51e8 af3a eaed 3c3a 9026 c739 9b28 2d3b
00000050: 17ee e73b d0d7 273a e88d 4fbb 9213 b13a
00000060: 2780 883b f7c9 11bc d41e 8c3a 6343 95bb
00000070: 801d b0b7 9811 11b9 0ff7 92ba d277 f83a
00000080: f4f6 9639 e7c4 24bb fab6 933b 5af9 423b
00000090: e013 59ba 4d73 263b 7212 18bc 76dc 9c3b
000000a0: ab26 ea3a a80b 23bc 4e72 dd3a 8f49 9bbb
000000b0: c79d 07bc 9dce 95bb 04c3 01bc 35db de3a
000000c0: ed79 073b 6176 963b 0357 863b 5417 c53b
000000d0: 246d fbba 0361 c33b 306d 4f3b 4416 1bbc
000000e0: 9550 d2ba ca9f 643b d8a1 94bb cd64 19bc
000000f0: d4a2 0d3c 847d 013b 73cb 2fbb 054c 503b
00000100: 0ffc 8e3a 3601 0abb 7baf 1ebc a23f 3f3b
00000110: 55ed 57bb 7b87 aa3b e68a a53b 1285 833a
00000120: abbd 773b c777 293b 286e 80bb 0edf 8dba
00000130: f0f5 18bb eed2 a9bb 5433 ba3b a3c7 863b
00000140: a2ce eeba 1065 59bb 7b28 283c 6ad9 b63b
00000150: a8c7 00bc 7857 1ebc e681 05bb f61a ce3b
00000160: 2e38 253b cebb 7b3b 41c7 393a bd86 6dbb
00000170: e335 d9ba 2e93 923a e209 34bb b516 08bc
00000180: aac5 863b 7876 de39 34a3 51bb adca 1cbc
00000190: 7098 2eba c02b 5cbb e05d c13a db73 683b
000001a0: 475a ab3b f84e 0fbb f0cc d0ba 30a5 93bb
000001b0: 2abf 24bb 745b e739 5f16 d33b 14b9 58ba
000001c0: 8834 de39 da66 213a 3543 fe3b 6000 7c38
000001d0: 33fa 3dbb 8cf8 323a 16a9 ad3a c8fa 88b9
000001e0: f6b1 98bb 6613 01bb 7483 1dbc f9b4 b0bb
000001f0: c197 243c eebc 0dbb f8b2 54ba 68f0 53b9
00000200: 95e0 69bb 0bfc 953b 0537 b83a 0a21 fe3b
00000210: 20c6 6038 cc15 87b9 da58 9a3a 0c9a 33bb
00000220: 8c05 abba 4492 bdbb 901c b039 c83c 19bb
00000230: 88ff 70ba 49de 023c 9c3d 45bb feca a73b
00000240: 70e7 11bb 7c2a 86ba 4890 4dba c834 693b
00000250: 86a4 2a3b d649 fa3a f602 a13b c02c d2ba
00000260: 609b 91b9 9686 88ba 16f6 23bc 7648 4f3b
00000270: fa54 f43b bc9e 473a 212f 8cbb 0393 d63a
00000280: 4aac a6bb ee5b 9cba 18c1 3dba 35d0 9f3b
00000290: 274f a2bb e080 193b 7055 593a 903d 1e3a
000002a0: 1c98 713b 3c58 953a f2fe e23b 85dc e93a
000002b0: c635 ca3a a57d 223c 97b5 1f3b 77d4 4b3b
000002c0: 6ae0 9abb fdcb cabb 2cfb a93b 4c8a 1cbc
000002d0: 1450 a93b 726d 15ba aa41 a4bb f799 90bb
000002e0: 389c 44bb cc36 41bb 8c9d 08ba 0000 2633
000002f0: 2343 383a 00db 39ba face c33a af94 193c
00000300: a850 bc3a 3c25 f53b 2cac 9b3b 74e3 9439
00000310: e0f8 dd39 ecd5 0fbc 808d ab38 6fa3 8dbb
00000320: 6af1 0cbb 6040 a53a 4c20 a839 08a5 733a
00000330: 8788 2f3b 60c4 9439 20ca ca3a 08a8 1fbc
00000340: 5878 e1b9 ee7e cb3a e3b1 093b a885 2ebb
00000350: 9ec1 83bb df4b bebb 9a2b 46bb 0a3e 0ebc
00000360: f8fe 903b 75e2 603b 0322 84bb e5ce 233c
00000370: a61a 7c3a 7abd 55ba 861f fc3b 6c15 573b
00000380: 0024 243a 426a 10bc 75c4 10bc 2922 193c
00000390: f07a ac39 7a17 833a 7592 aa3b 573f 1f3b
000003a0: 62fd 273b 487d 08bc 50b3 793a 8100 7d3b
000003b0: 2644 2abb b29d 7ebb dfa9 56bb 7e03 e9bb
000003c0: b214 e8ba 5164 76bb 6efe 0b3c b23f 19bc
000003d0: 4d76 043b d2f2 1fba f6da 4fbb 4ea8 ccba
000003e0: 3f52 ecba 5266 443a 7b8e a33b d498 1abc
000003f0: 35e7 cdba 570f 913a d080 f03a c81f c9bb
-0.005266668 0.004412147 -0.001464197 0.0027815148 0.0027495576 0.0016312278 -0.0018334233 -0.0018789896
0.004183721 0.00033992264 -0.00956794 -0.0034416881 0.0050248685 -0.0026596473 0.00062137237 0.0009495381
0.0013420676 0.0007207083 0.0003798497 0.0026421908 0.007077943 0.0006402703 -0.0031670276 0.0013509861
0.0041656676 -0.00889825 0.001069034 -0.0045551523 -2.0994572e-05 -0.00013834832 -0.0011212545 0.0018956608
0.00028794224 -0.0025141777 0.0045078965 0.0029750676 -0.00082808547 0.0025398314 -0.009281741 0.004787023
0.0017864307 -0.00995151 0.0016895027 -0.0047389935 -0.008277363 -0.0045717494 -0.0079200305 0.0017002585
0.0020672039 0.0045917486 0.004099728 0.006014744 -0.0019182307 0.0059624924 0.0031650774 -0.009465758
-0.0016045744 0.003488528 -0.004535895 -0.009362412 0.008644778 0.001975865 -0.0026824146 0.0031783592
0.001090886 -0.002105785 -0.0096853925 0.0029182215 -0.0032947857 0.005204139 0.0050519584 0.0010034165
0.003780226 0.0025858746 -0.0039193816 -0.0010823922 -0.002333995 -0.0051826155 0.0056823883 0.004113154
-0.001821954 -0.003317181 0.010263558 0.005580117 -0.007860102 -0.009664409 -0.0020371615 0.006289835
0.0025210488 0.00384115 0.0007086881 -0.003624364 -0.0016571846 0.0011182779 -0.002747171 -0.008306195
0.004112919 0.00042431406 -0.0031988146 -0.009569806 -0.0006660288 -0.0033595413 0.0014752708 0.0035469446
0.0052292678 -0.0021867137 -0.0015930217 -0.004505776 -0.0025138357 0.0004412789 0.006441876 -0.0008267325
0.00042382278 0.00061569887 0.0077594765 6.008183e-05 -0.0028988242 0.00068271975 0.0013249244 -0.00026126788
-0.0046598865 -0.00196954 -0.00961386 -0.0053926674 0.010045947 -0.0021627503 -0.00081138266 -0.00020212086
-0.003568684 0.004577165 0.0014054483 0.0077554034 5.359028e-05 -0.00025765446 0.0011775747 -0.0027405052
-0.0013047918 -0.0057852585 0.00033590617 -0.0023382176 -0.00091933506 0.007987567 -0.0030096537 0.005120634
-0.0022263192 -0.001023605 -0.0007841629 0.0035584439 0.0026038005 0.0019095491 0.004913683 -0.0016035065
-0.0002777232 -0.0010416086 -0.010007402 0.0031628883 0.007456419 0.0007614901 -0.004278079 0.0016370717
-0.0050864564 -0.0011929253 -0.0007238551 0.004877115 -0.0049532834 0.0023422763 0.0008290624 0.0006036395
0.0036864346 0.0011394094 0.0069273645 0.0017842209 0.0015427403 0.009917651 0.002436971 0.003110198
-0.0047264593 -0.006188868 0.0051874127 -0.009554457 0.0051670168 -0.00057002075 -0.0050127106 -0.0044128853
-0.003000034 -0.0029482124 -0.00052114646 3.8649887e-08 0.0007029047 -0.00070898235 0.0014939003 0.009373828
0.0014367299 0.0074812453 0.004750749 0.00028398226 0.0004233783 -0.00877903 8.180272e-05 -0.0043224613
-0.0021506199 0.0012607686 0.0003206752 0.0009294306 0.0026784257 0.0002837507 0.0015471615 -0.009744652
-0.00043005007 0.0015525499 0.002101057 -0.0026629958 -0.0040208837 -0.0058073844 -0.003023839 -0.008681783
0.004424926 0.0034314666 -0.004032375 0.009998058 0.0009617008 -0.00081535394 0.0076941876 0.0032819165
0.0006261468 -0.008814396 -0.0088359015 0.009346523 0.00032897992 0.0010001503 0.0052054473 0.0024299228
0.0025633206 -0.008330651 0.0009525316 0.0038605037 -0.002598056 -0.0038851318 -0.003275506 -0.007111012
-0.0017706363 -0.0037596414 0.0085445475 -0.009353565 0.0020212114 -0.00061015517 -0.0031716204 -0.0015614124
-0.0018029882 0.00074920536 0.00499135 -0.009435851 -0.0015709164 0.0011067194 0.0018348936 -0.006137822

down2.down_block3d.1.double_conv3d.3.bias f4 [16]
00000000: 7b32 f73a 9092 aa3b 6a49 173c c571 3abb
00000010: 0ff2 163c 84c9 ed3a dc44 31bb f688 94bb
00000020: ace5 b83a 8613 ab3b 32d7 873b 0bd0 ce3b
00000030: 08e0 133a 74fc ad3a 7883 c83b 6ecb 14bc
0.0018859649 0.00520546 0.009233812 -0.002844916 0.009212985 0.0018141721 -0.00270491 -0.0045329286
0.0014106533 0.0052208332 0.0041455263 0.0063114217 0.0005640988 0.001327409 0.006119188 -0.009081705

down2.down_block3d.1.shortcut.weight f4 [16, 8, 1, 1, 1]
00000000: 84da 27bc e0d2 ce3c afad e5bc 6b58 e8bc
00000010: 50ee 6dbc 9450 2fbc cfea dfbc 34f6 dabd
00000020: 0a21 e53d b47a d53c 7a94 e3bd 8f65 b0bd
00000030: 39e7 02be c0b6 55b9 d862 80bd 0746 a8bd
00000040: de21 b0bb 6126 b7bc eca4 e43c f90c 8dbd
00000050: 22a9 fa3b 2618 913c 8045 703c c9a7 e0bc
00000060: 75b3 e2bb 706b a33c bc7c 01bc e015 fbbd
00000070: 94b1 523c d879 1f3c 9e95 3d3c 9d3e c13a
00000080: 5f68 19bc b7b1 26bc 200f 8d3d 0c8a 983c
00000090: fb50 b13d f0ba db3c 3e0b c83c 3fdf 8dbc
000000a0: a776 85bc 46b7 42bc b74e e8bc 6476 4cbb
000000b0: 5ad3 1cbc a368 de3c 2fa1 d1bc 8879 8c3c
000000c0: 6aff 08bc 7abb 0ebd 5abe 213c 81d7 6cbd
000000d0: f222 aa3d 2033 84bd caf4 1dbb 4932 ddbc
000000e0: b46e f6bd 1fa8 e5bc 6d33 97bb fe8c 0f3b
000000f0: bd7f 29bc d4ca df3c 25d4 da3c ae29 a9bd
00000100: 280f ea3b 6910 1f3c 9750 37bd a2ba 983d
00000110: daa2 8bbb 7899 bfbc 6caa a7bd b3d4 8cbc
00000120: b82d d63a 37fe 853c 1e77 d93c 6aae d13c
00000130: d79a 1cbd 0729 693c 7eaf f33d e61d 3dbb
00000140: 9ab7 d73b 3371 b7bd 74c7 5d3d 043b cbbd
00000150: 551e 8b3c b8de 30ba c29e d03c f37a ec3d
00000160: d87a d9bc 0af5 b5bc 368a 293d 963d e93c
00000170: d4f4 e3bd 0036 47b7 b101 7fbd 549a f4bb
00000180: 9a6a 003e 9f33 de3c cc8d 513b c71c e63c
00000190: 0aaa ef3d 6b07 af3c 7726 da3c 71a5 e83d
000001a0: f951 e83c 74b2 b13d 163e 773b 8f77 d33a
000001b0: 45f6 003e 188d 263c 08b3 f93b 1ec7 773c
000001c0: 00d1 2ebc 12c6 b8bb 3c53 583a 441d 253b
000001d0: 102b e13c 00f5 a2bd 2bce 083b d211 603b
000001e0: a80b cf3d 032d da3d b551 babc b55d e6bc
000001f0: 8caa b33c a489 83bd 019e 83bd 72df 873d
-0.010244969 0.025247037 -0.02803692 -0.028362473 -0.01452215 -0.010700364 -0.027333645 -0.10691491
0.11187942 0.026059486 -0.11112304 -0.08613121 -0.12783517 -0.00020381343 -0.06268853 -0.08216482
-0.005375131 -0.022357168 0.027910672 -0.0688724 0.0076495567 0.01771171 0.014665008 -0.027423756
-0.0069183656 0.019948691 -0.007903274 -0.12260032 0.012859721 0.00973364 0.011571316 0.0014743392
-0.009363263 -0.010174206 0.068876505 0.018620513 0.08658024 0.026822537 0.024419423 -0.017318366
-0.01629193 -0.011884516 -0.028357847 -0.0031198496 -0.0095718745 0.027149504 -0.025589554 0.017147794
-0.008361677 -0.03484676 0.0098720435 -0.057822708 0.083074465 -0.06455064 -0.0024102204 -0.027001517
-0.12032834 -0.028034268 -0.0046142847 0.0021904106 -0.010345397 0.027318396 0.026712487 -0.08259903
0.00714292 0.009708502 -0.04475459 0.074574724 -0.004261357 -0.02338861 -0.08186802 -0.017191267
0.001634053 0.01635657 0.026546057 0.025595862 -0.038233604 0.014230973 0.11898707 -0.0028856932
0.0065831663 -0.08957138 0.05414529 -0.09923366 0.016982237 -0.0006747055 0.025466327 0.11546888
-0.026547834 -0.02221157 0.041391574 0.02847175 -0.11130682 -1.1873897e-05 -0.062257472 -0.0074646864
0.12540665 0.027124224 0.0031975387 0.028089894 0.11702354 0.021365842 0.02662967 0.113596804
0.0283594 0.08676615 0.0037726215 0.0016133654 0.12593944 0.010165475 0.007620219 0.015123157
-0.010669947 -0.005638846 0.0008252149 0.0025194446 0.027486354 -0.07956886 0.0020874839 0.003419031
0.10109645 0.106531166 -0.02274404 -0.028120855 0.021931909 -0.06422737 -0.06426621 0.06634416

down2.down_block3d.1.shortcut.bias f4 [16]
00000000: 7ef1 febd 90ca a53d 5513 733d b6b4 b03d
00000010: be17 533d 20f3 3fb9 00ab 03bb 90a4 7b39
00000020: 5283 e53b f211 c63c 4c81 163b 44eb 40bb
00000030: 04c9 4abc 6609 bf3c dc68 8eba 9a6e 66bb
-0.12448405 0.08095276 0.05934461 0.08628218 0.051536314 -0.0001830575 -0.0020090938 0.0002399853
0.00700418 0.024178479 0.002296525 -0.0029437104 -0.012377027 0.023319911 -0.0010864991 -0.0035161139
